name: "Inception"
input: "data_1"
input_dim: 1
input_dim: 3
input_dim: 96
input_dim: 96
input: "data_2"
input_dim: 1
input_dim: 3
input_dim: 96
input_dim: 96
input: "data_3"
input_dim: 1
input_dim: 3
input_dim: 96
input_dim: 96
input: "label"
input_dim: 1
input_dim: 1
input_dim: 1
input_dim: 1

# ================================================================================================
# ================================================================================================
# ======== NETWORK: 1
# ================================================================================================
# ================================================================================================

# ================================================================================================
# ======== conv_conv1
# ================================================================================================

layer {
	name: "conv_conv1"
	type: "Convolution"
	bottom: "data_1"
	top: "conv_conv1"
	param {
		lr_mult: 1
		decay_mult: 1
		name: "conv_conv1_w"
	}
	param {
		lr_mult: 2
		decay_mult: 0
		name: "conv_conv1_b"
	}
	convolution_param { 
		weight_filler {
			type: "xavier"
		}
		bias_filler {
			type: "constant"
			value: 0.2
		}
		 num_output: 96
		 kernel_size: 7
		 stride: 2
		 pad: 3
	}
}

layer {
	name: "bn_conv1"
	type: "BatchNorm"
	bottom: "conv_conv1"
	top: "conv_conv1"
	batch_norm_param {

	}
}

layer {
	name: "scale_conv_conv1"
	bottom: "conv_conv1"
	top: "conv_conv1"
	type: "Scale"
	scale_param {
		filler {
			value: 1
		}
		bias_filler {
			value: 0
		}
				bias_term: true
	}
}

layer {
	name: "relu_conv1"
	type: "ReLU"
	bottom: "conv_conv1"
	top: "conv_conv1"
}

layer {
	name: "pool1"
	type: "Pooling"
	bottom: "conv_conv1"
	top: "pool1"
	pooling_param {
		 pool: MAX
		 kernel_size: 3
		 stride: 2
		 pad: 0
	}
}

layer {
	name: "conv_conv2red"
	type: "Convolution"
	bottom: "pool1"
	top: "conv_conv2red"
	param {
		lr_mult: 1
		decay_mult: 1
		name: "conv_conv2red_w"
	}
	param {
		lr_mult: 2
		decay_mult: 0
		name: "conv_conv2red_b"
	}
	convolution_param { 
		weight_filler {
			type: "xavier"
		}
		bias_filler {
			type: "constant"
			value: 0.2
		}
		 num_output: 128
		 kernel_size: 1
		 stride: 1
		 pad: 0
	}
}

layer {
	name: "bn_conv2red"
	type: "BatchNorm"
	bottom: "conv_conv2red"
	top: "conv_conv2red"
	batch_norm_param {

	}
}

layer {
	name: "scale_conv_conv2red"
	bottom: "conv_conv2red"
	top: "conv_conv2red"
	type: "Scale"
	scale_param {
		filler {
			value: 1
		}
		bias_filler {
			value: 0
		}
				bias_term: true
	}
}

layer {
	name: "relu_conv2red"
	type: "ReLU"
	bottom: "conv_conv2red"
	top: "conv_conv2red"
}

layer {
	name: "conv_conv2"
	type: "Convolution"
	bottom: "conv_conv2red"
	top: "conv_conv2"
	param {
		lr_mult: 1
		decay_mult: 1
		name: "conv_conv2_w"
	}
	param {
		lr_mult: 2
		decay_mult: 0
		name: "conv_conv2_b"
	}
	convolution_param { 
		weight_filler {
			type: "xavier"
		}
		bias_filler {
			type: "constant"
			value: 0.2
		}
		 num_output: 288
		 kernel_size: 3
		 stride: 1
		 pad: 1
	}
}

layer {
	name: "bn_conv2"
	type: "BatchNorm"
	bottom: "conv_conv2"
	top: "conv_conv2"
	batch_norm_param {

	}
}

layer {
	name: "scale_conv_conv2"
	bottom: "conv_conv2"
	top: "conv_conv2"
	type: "Scale"
	scale_param {
		filler {
			value: 1
		}
		bias_filler {
			value: 0
		}
				bias_term: true
	}
}

layer {
	name: "relu_conv2"
	type: "ReLU"
	bottom: "conv_conv2"
	top: "conv_conv2"
}

layer {
	name: "pool2"
	type: "Pooling"
	bottom: "conv_conv2"
	top: "pool2"
	pooling_param {
		 pool: MAX
		 kernel_size: 3
		 stride: 2
		 pad: 0
	}
}

layer {
	name: "conv_3a_1x1"
	type: "Convolution"
	bottom: "pool2"
	top: "conv_3a_1x1"
	param {
		lr_mult: 1
		decay_mult: 1
		name: "conv_3a_1x1_w"
	}
	param {
		lr_mult: 2
		decay_mult: 0
		name: "conv_3a_1x1_b"
	}
	convolution_param { 
		weight_filler {
			type: "xavier"
		}
		bias_filler {
			type: "constant"
			value: 0.2
		}
		 num_output: 96
		 kernel_size: 1
		 stride: 1
		 pad: 0
	}
}

layer {
	name: "bn_3a_1x1"
	type: "BatchNorm"
	bottom: "conv_3a_1x1"
	top: "conv_3a_1x1"
	batch_norm_param {

	}
}

layer {
	name: "scale_conv_3a_1x1"
	bottom: "conv_3a_1x1"
	top: "conv_3a_1x1"
	type: "Scale"
	scale_param {
		filler {
			value: 1
		}
		bias_filler {
			value: 0
		}
				bias_term: true
	}
}

layer {
	name: "relu_3a_1x1"
	type: "ReLU"
	bottom: "conv_3a_1x1"
	top: "conv_3a_1x1"
}

layer {
	name: "conv_3a_3x3_reduce"
	type: "Convolution"
	bottom: "pool2"
	top: "conv_3a_3x3_reduce"
	param {
		lr_mult: 1
		decay_mult: 1
		name: "conv_3a_3x3_reduce_w"
	}
	param {
		lr_mult: 2
		decay_mult: 0
		name: "conv_3a_3x3_reduce_b"
	}
	convolution_param { 
		weight_filler {
			type: "xavier"
		}
		bias_filler {
			type: "constant"
			value: 0.2
		}
		 num_output: 96
		 kernel_size: 1
		 stride: 1
		 pad: 0
	}
}

layer {
	name: "bn_3a_3x3_reduce"
	type: "BatchNorm"
	bottom: "conv_3a_3x3_reduce"
	top: "conv_3a_3x3_reduce"
	batch_norm_param {

	}
}

layer {
	name: "scale_conv_3a_3x3_reduce"
	bottom: "conv_3a_3x3_reduce"
	top: "conv_3a_3x3_reduce"
	type: "Scale"
	scale_param {
		filler {
			value: 1
		}
		bias_filler {
			value: 0
		}
				bias_term: true
	}
}

layer {
	name: "relu_3a_3x3_reduce"
	type: "ReLU"
	bottom: "conv_3a_3x3_reduce"
	top: "conv_3a_3x3_reduce"
}

layer {
	name: "conv_3a_3x3"
	type: "Convolution"
	bottom: "conv_3a_3x3_reduce"
	top: "conv_3a_3x3"
	param {
		lr_mult: 1
		decay_mult: 1
		name: "conv_3a_3x3_w"
	}
	param {
		lr_mult: 2
		decay_mult: 0
		name: "conv_3a_3x3_b"
	}
	convolution_param { 
		weight_filler {
			type: "xavier"
		}
		bias_filler {
			type: "constant"
			value: 0.2
		}
		 num_output: 96
		 kernel_size: 3
		 stride: 1
		 pad: 1
	}
}

layer {
	name: "bn_3a_3x3"
	type: "BatchNorm"
	bottom: "conv_3a_3x3"
	top: "conv_3a_3x3"
	batch_norm_param {

	}
}

layer {
	name: "scale_conv_3a_3x3"
	bottom: "conv_3a_3x3"
	top: "conv_3a_3x3"
	type: "Scale"
	scale_param {
		filler {
			value: 1
		}
		bias_filler {
			value: 0
		}
				bias_term: true
	}
}

layer {
	name: "relu_3a_3x3"
	type: "ReLU"
	bottom: "conv_3a_3x3"
	top: "conv_3a_3x3"
}

layer {
	name: "conv_3a_double_3x3_reduce"
	type: "Convolution"
	bottom: "pool2"
	top: "conv_3a_double_3x3_reduce"
	param {
		lr_mult: 1
		decay_mult: 1
		name: "conv_3a_double_3x3_reduce_w"
	}
	param {
		lr_mult: 2
		decay_mult: 0
		name: "conv_3a_double_3x3_reduce_b"
	}
	convolution_param { 
		weight_filler {
			type: "xavier"
		}
		bias_filler {
			type: "constant"
			value: 0.2
		}
		 num_output: 96
		 kernel_size: 1
		 stride: 1
		 pad: 0
	}
}

layer {
	name: "bn_3a_double_3x3_reduce"
	type: "BatchNorm"
	bottom: "conv_3a_double_3x3_reduce"
	top: "conv_3a_double_3x3_reduce"
	batch_norm_param {

	}
}

layer {
	name: "scale_conv_3a_double_3x3_reduce"
	bottom: "conv_3a_double_3x3_reduce"
	top: "conv_3a_double_3x3_reduce"
	type: "Scale"
	scale_param {
		filler {
			value: 1
		}
		bias_filler {
			value: 0
		}
				bias_term: true
	}
}

layer {
	name: "relu_3a_double_3x3_reduce"
	type: "ReLU"
	bottom: "conv_3a_double_3x3_reduce"
	top: "conv_3a_double_3x3_reduce"
}

layer {
	name: "conv_3a_double_3x3_0"
	type: "Convolution"
	bottom: "conv_3a_double_3x3_reduce"
	top: "conv_3a_double_3x3_0"
	param {
		lr_mult: 1
		decay_mult: 1
		name: "conv_3a_double_3x3_0_w"
	}
	param {
		lr_mult: 2
		decay_mult: 0
		name: "conv_3a_double_3x3_0_b"
	}
	convolution_param { 
		weight_filler {
			type: "xavier"
		}
		bias_filler {
			type: "constant"
			value: 0.2
		}
		 num_output: 144
		 kernel_size: 3
		 stride: 1
		 pad: 1
	}
}

layer {
	name: "bn_3a_double_3x3_0"
	type: "BatchNorm"
	bottom: "conv_3a_double_3x3_0"
	top: "conv_3a_double_3x3_0"
	batch_norm_param {

	}
}

layer {
	name: "scale_conv_3a_double_3x3_0"
	bottom: "conv_3a_double_3x3_0"
	top: "conv_3a_double_3x3_0"
	type: "Scale"
	scale_param {
		filler {
			value: 1
		}
		bias_filler {
			value: 0
		}
				bias_term: true
	}
}

layer {
	name: "relu_3a_double_3x3_0"
	type: "ReLU"
	bottom: "conv_3a_double_3x3_0"
	top: "conv_3a_double_3x3_0"
}

layer {
	name: "conv_3a_double_3x3_1"
	type: "Convolution"
	bottom: "conv_3a_double_3x3_0"
	top: "conv_3a_double_3x3_1"
	param {
		lr_mult: 1
		decay_mult: 1
		name: "conv_3a_double_3x3_1_w"
	}
	param {
		lr_mult: 2
		decay_mult: 0
		name: "conv_3a_double_3x3_1_b"
	}
	convolution_param { 
		weight_filler {
			type: "xavier"
		}
		bias_filler {
			type: "constant"
			value: 0.2
		}
		 num_output: 144
		 kernel_size: 3
		 stride: 1
		 pad: 1
	}
}

layer {
	name: "bn_3a_double_3x3_1"
	type: "BatchNorm"
	bottom: "conv_3a_double_3x3_1"
	top: "conv_3a_double_3x3_1"
	batch_norm_param {

	}
}

layer {
	name: "scale_conv_3a_double_3x3_1"
	bottom: "conv_3a_double_3x3_1"
	top: "conv_3a_double_3x3_1"
	type: "Scale"
	scale_param {
		filler {
			value: 1
		}
		bias_filler {
			value: 0
		}
				bias_term: true
	}
}

layer {
	name: "relu_3a_double_3x3_1"
	type: "ReLU"
	bottom: "conv_3a_double_3x3_1"
	top: "conv_3a_double_3x3_1"
}

layer {
	name: "ave_pool_3a_pool"
	type: "Pooling"
	bottom: "pool2"
	top: "ave_pool_3a_pool"
	pooling_param {
		 pool: AVE
		 kernel_size: 3
		 stride: 1
		 pad: 1
	}
}

layer {
	name: "conv_3a_proj"
	type: "Convolution"
	bottom: "ave_pool_3a_pool"
	top: "conv_3a_proj"
	param {
		lr_mult: 1
		decay_mult: 1
		name: "conv_3a_proj_w"
	}
	param {
		lr_mult: 2
		decay_mult: 0
		name: "conv_3a_proj_b"
	}
	convolution_param { 
		weight_filler {
			type: "xavier"
		}
		bias_filler {
			type: "constant"
			value: 0.2
		}
		 num_output: 48
		 kernel_size: 1
		 stride: 1
		 pad: 0
	}
}

layer {
	name: "bn_3a_proj"
	type: "BatchNorm"
	bottom: "conv_3a_proj"
	top: "conv_3a_proj"
	batch_norm_param {

	}
}

layer {
	name: "scale_conv_3a_proj"
	bottom: "conv_3a_proj"
	top: "conv_3a_proj"
	type: "Scale"
	scale_param {
		filler {
			value: 1
		}
		bias_filler {
			value: 0
		}
				bias_term: true
	}
}

layer {
	name: "relu_3a_proj"
	type: "ReLU"
	bottom: "conv_3a_proj"
	top: "conv_3a_proj"
}

layer {
	name: "ch_concat_3a_chconcat"
	type: "Concat"
	bottom: "conv_3a_1x1"
	bottom: "conv_3a_3x3"
	bottom: "conv_3a_double_3x3_1"
	bottom: "conv_3a_proj"
	top: "ch_concat_3a_chconcat"
}

layer {
	name: "conv_3b_1x1"
	type: "Convolution"
	bottom: "ch_concat_3a_chconcat"
	top: "conv_3b_1x1"
	param {
		lr_mult: 1
		decay_mult: 1
		name: "conv_3b_1x1_w"
	}
	param {
		lr_mult: 2
		decay_mult: 0
		name: "conv_3b_1x1_b"
	}
	convolution_param { 
		weight_filler {
			type: "xavier"
		}
		bias_filler {
			type: "constant"
			value: 0.2
		}
		 num_output: 96
		 kernel_size: 1
		 stride: 1
		 pad: 0
	}
}

layer {
	name: "bn_3b_1x1"
	type: "BatchNorm"
	bottom: "conv_3b_1x1"
	top: "conv_3b_1x1"
	batch_norm_param {

	}
}

layer {
	name: "scale_conv_3b_1x1"
	bottom: "conv_3b_1x1"
	top: "conv_3b_1x1"
	type: "Scale"
	scale_param {
		filler {
			value: 1
		}
		bias_filler {
			value: 0
		}
				bias_term: true
	}
}

layer {
	name: "relu_3b_1x1"
	type: "ReLU"
	bottom: "conv_3b_1x1"
	top: "conv_3b_1x1"
}

layer {
	name: "conv_3b_3x3_reduce"
	type: "Convolution"
	bottom: "ch_concat_3a_chconcat"
	top: "conv_3b_3x3_reduce"
	param {
		lr_mult: 1
		decay_mult: 1
		name: "conv_3b_3x3_reduce_w"
	}
	param {
		lr_mult: 2
		decay_mult: 0
		name: "conv_3b_3x3_reduce_b"
	}
	convolution_param { 
		weight_filler {
			type: "xavier"
		}
		bias_filler {
			type: "constant"
			value: 0.2
		}
		 num_output: 96
		 kernel_size: 1
		 stride: 1
		 pad: 0
	}
}

layer {
	name: "bn_3b_3x3_reduce"
	type: "BatchNorm"
	bottom: "conv_3b_3x3_reduce"
	top: "conv_3b_3x3_reduce"
	batch_norm_param {

	}
}

layer {
	name: "scale_conv_3b_3x3_reduce"
	bottom: "conv_3b_3x3_reduce"
	top: "conv_3b_3x3_reduce"
	type: "Scale"
	scale_param {
		filler {
			value: 1
		}
		bias_filler {
			value: 0
		}
				bias_term: true
	}
}

layer {
	name: "relu_3b_3x3_reduce"
	type: "ReLU"
	bottom: "conv_3b_3x3_reduce"
	top: "conv_3b_3x3_reduce"
}

layer {
	name: "conv_3b_3x3"
	type: "Convolution"
	bottom: "conv_3b_3x3_reduce"
	top: "conv_3b_3x3"
	param {
		lr_mult: 1
		decay_mult: 1
		name: "conv_3b_3x3_w"
	}
	param {
		lr_mult: 2
		decay_mult: 0
		name: "conv_3b_3x3_b"
	}
	convolution_param { 
		weight_filler {
			type: "xavier"
		}
		bias_filler {
			type: "constant"
			value: 0.2
		}
		 num_output: 144
		 kernel_size: 3
		 stride: 1
		 pad: 1
	}
}

layer {
	name: "bn_3b_3x3"
	type: "BatchNorm"
	bottom: "conv_3b_3x3"
	top: "conv_3b_3x3"
	batch_norm_param {

	}
}

layer {
	name: "scale_conv_3b_3x3"
	bottom: "conv_3b_3x3"
	top: "conv_3b_3x3"
	type: "Scale"
	scale_param {
		filler {
			value: 1
		}
		bias_filler {
			value: 0
		}
				bias_term: true
	}
}

layer {
	name: "relu_3b_3x3"
	type: "ReLU"
	bottom: "conv_3b_3x3"
	top: "conv_3b_3x3"
}

layer {
	name: "conv_3b_double_3x3_reduce"
	type: "Convolution"
	bottom: "ch_concat_3a_chconcat"
	top: "conv_3b_double_3x3_reduce"
	param {
		lr_mult: 1
		decay_mult: 1
		name: "conv_3b_double_3x3_reduce_w"
	}
	param {
		lr_mult: 2
		decay_mult: 0
		name: "conv_3b_double_3x3_reduce_b"
	}
	convolution_param { 
		weight_filler {
			type: "xavier"
		}
		bias_filler {
			type: "constant"
			value: 0.2
		}
		 num_output: 96
		 kernel_size: 1
		 stride: 1
		 pad: 0
	}
}

layer {
	name: "bn_3b_double_3x3_reduce"
	type: "BatchNorm"
	bottom: "conv_3b_double_3x3_reduce"
	top: "conv_3b_double_3x3_reduce"
	batch_norm_param {

	}
}

layer {
	name: "scale_conv_3b_double_3x3_reduce"
	bottom: "conv_3b_double_3x3_reduce"
	top: "conv_3b_double_3x3_reduce"
	type: "Scale"
	scale_param {
		filler {
			value: 1
		}
		bias_filler {
			value: 0
		}
				bias_term: true
	}
}

layer {
	name: "relu_3b_double_3x3_reduce"
	type: "ReLU"
	bottom: "conv_3b_double_3x3_reduce"
	top: "conv_3b_double_3x3_reduce"
}

layer {
	name: "conv_3b_double_3x3_0"
	type: "Convolution"
	bottom: "conv_3b_double_3x3_reduce"
	top: "conv_3b_double_3x3_0"
	param {
		lr_mult: 1
		decay_mult: 1
		name: "conv_3b_double_3x3_0_w"
	}
	param {
		lr_mult: 2
		decay_mult: 0
		name: "conv_3b_double_3x3_0_b"
	}
	convolution_param { 
		weight_filler {
			type: "xavier"
		}
		bias_filler {
			type: "constant"
			value: 0.2
		}
		 num_output: 144
		 kernel_size: 3
		 stride: 1
		 pad: 1
	}
}

layer {
	name: "bn_3b_double_3x3_0"
	type: "BatchNorm"
	bottom: "conv_3b_double_3x3_0"
	top: "conv_3b_double_3x3_0"
	batch_norm_param {

	}
}

layer {
	name: "scale_conv_3b_double_3x3_0"
	bottom: "conv_3b_double_3x3_0"
	top: "conv_3b_double_3x3_0"
	type: "Scale"
	scale_param {
		filler {
			value: 1
		}
		bias_filler {
			value: 0
		}
				bias_term: true
	}
}

layer {
	name: "relu_3b_double_3x3_0"
	type: "ReLU"
	bottom: "conv_3b_double_3x3_0"
	top: "conv_3b_double_3x3_0"
}

layer {
	name: "conv_3b_double_3x3_1"
	type: "Convolution"
	bottom: "conv_3b_double_3x3_0"
	top: "conv_3b_double_3x3_1"
	param {
		lr_mult: 1
		decay_mult: 1
		name: "conv_3b_double_3x3_1_w"
	}
	param {
		lr_mult: 2
		decay_mult: 0
		name: "conv_3b_double_3x3_1_b"
	}
	convolution_param { 
		weight_filler {
			type: "xavier"
		}
		bias_filler {
			type: "constant"
			value: 0.2
		}
		 num_output: 144
		 kernel_size: 3
		 stride: 1
		 pad: 1
	}
}

layer {
	name: "bn_3b_double_3x3_1"
	type: "BatchNorm"
	bottom: "conv_3b_double_3x3_1"
	top: "conv_3b_double_3x3_1"
	batch_norm_param {

	}
}

layer {
	name: "scale_conv_3b_double_3x3_1"
	bottom: "conv_3b_double_3x3_1"
	top: "conv_3b_double_3x3_1"
	type: "Scale"
	scale_param {
		filler {
			value: 1
		}
		bias_filler {
			value: 0
		}
				bias_term: true
	}
}

layer {
	name: "relu_3b_double_3x3_1"
	type: "ReLU"
	bottom: "conv_3b_double_3x3_1"
	top: "conv_3b_double_3x3_1"
}

layer {
	name: "ave_pool_3b_pool"
	type: "Pooling"
	bottom: "ch_concat_3a_chconcat"
	top: "ave_pool_3b_pool"
	pooling_param {
		 pool: AVE
		 kernel_size: 3
		 stride: 1
		 pad: 1
	}
}

layer {
	name: "conv_3b_proj"
	type: "Convolution"
	bottom: "ave_pool_3b_pool"
	top: "conv_3b_proj"
	param {
		lr_mult: 1
		decay_mult: 1
		name: "conv_3b_proj_w"
	}
	param {
		lr_mult: 2
		decay_mult: 0
		name: "conv_3b_proj_b"
	}
	convolution_param { 
		weight_filler {
			type: "xavier"
		}
		bias_filler {
			type: "constant"
			value: 0.2
		}
		 num_output: 96
		 kernel_size: 1
		 stride: 1
		 pad: 0
	}
}

layer {
	name: "bn_3b_proj"
	type: "BatchNorm"
	bottom: "conv_3b_proj"
	top: "conv_3b_proj"
	batch_norm_param {

	}
}

layer {
	name: "scale_conv_3b_proj"
	bottom: "conv_3b_proj"
	top: "conv_3b_proj"
	type: "Scale"
	scale_param {
		filler {
			value: 1
		}
		bias_filler {
			value: 0
		}
				bias_term: true
	}
}

layer {
	name: "relu_3b_proj"
	type: "ReLU"
	bottom: "conv_3b_proj"
	top: "conv_3b_proj"
}

layer {
	name: "ch_concat_3b_chconcat"
	type: "Concat"
	bottom: "conv_3b_1x1"
	bottom: "conv_3b_3x3"
	bottom: "conv_3b_double_3x3_1"
	bottom: "conv_3b_proj"
	top: "ch_concat_3b_chconcat"
}

layer {
	name: "conv_3c_3x3_reduce"
	type: "Convolution"
	bottom: "ch_concat_3b_chconcat"
	top: "conv_3c_3x3_reduce"
	param {
		lr_mult: 1
		decay_mult: 1
		name: "conv_3c_3x3_reduce_w"
	}
	param {
		lr_mult: 2
		decay_mult: 0
		name: "conv_3c_3x3_reduce_b"
	}
	convolution_param { 
		weight_filler {
			type: "xavier"
		}
		bias_filler {
			type: "constant"
			value: 0.2
		}
		 num_output: 192
		 kernel_size: 1
		 stride: 1
		 pad: 0
	}
}

layer {
	name: "bn_3c_3x3_reduce"
	type: "BatchNorm"
	bottom: "conv_3c_3x3_reduce"
	top: "conv_3c_3x3_reduce"
	batch_norm_param {

	}
}

layer {
	name: "scale_conv_3c_3x3_reduce"
	bottom: "conv_3c_3x3_reduce"
	top: "conv_3c_3x3_reduce"
	type: "Scale"
	scale_param {
		filler {
			value: 1
		}
		bias_filler {
			value: 0
		}
				bias_term: true
	}
}

layer {
	name: "relu_3c_3x3_reduce"
	type: "ReLU"
	bottom: "conv_3c_3x3_reduce"
	top: "conv_3c_3x3_reduce"
}

layer {
	name: "conv_3c_3x3"
	type: "Convolution"
	bottom: "conv_3c_3x3_reduce"
	top: "conv_3c_3x3"
	param {
		lr_mult: 1
		decay_mult: 1
		name: "conv_3c_3x3_w"
	}
	param {
		lr_mult: 2
		decay_mult: 0
		name: "conv_3c_3x3_b"
	}
	convolution_param { 
		weight_filler {
			type: "xavier"
		}
		bias_filler {
			type: "constant"
			value: 0.2
		}
		 num_output: 240
		 kernel_size: 3
		 stride: 2
		 pad: 1
	}
}

layer {
	name: "bn_3c_3x3"
	type: "BatchNorm"
	bottom: "conv_3c_3x3"
	top: "conv_3c_3x3"
	batch_norm_param {

	}
}

layer {
	name: "scale_conv_3c_3x3"
	bottom: "conv_3c_3x3"
	top: "conv_3c_3x3"
	type: "Scale"
	scale_param {
		filler {
			value: 1
		}
		bias_filler {
			value: 0
		}
				bias_term: true
	}
}

layer {
	name: "relu_3c_3x3"
	type: "ReLU"
	bottom: "conv_3c_3x3"
	top: "conv_3c_3x3"
}

layer {
	name: "conv_3c_double_3x3_reduce"
	type: "Convolution"
	bottom: "ch_concat_3b_chconcat"
	top: "conv_3c_double_3x3_reduce"
	param {
		lr_mult: 1
		decay_mult: 1
		name: "conv_3c_double_3x3_reduce_w"
	}
	param {
		lr_mult: 2
		decay_mult: 0
		name: "conv_3c_double_3x3_reduce_b"
	}
	convolution_param { 
		weight_filler {
			type: "xavier"
		}
		bias_filler {
			type: "constant"
			value: 0.2
		}
		 num_output: 96
		 kernel_size: 1
		 stride: 1
		 pad: 0
	}
}

layer {
	name: "bn_3c_double_3x3_reduce"
	type: "BatchNorm"
	bottom: "conv_3c_double_3x3_reduce"
	top: "conv_3c_double_3x3_reduce"
	batch_norm_param {

	}
}

layer {
	name: "scale_conv_3c_double_3x3_reduce"
	bottom: "conv_3c_double_3x3_reduce"
	top: "conv_3c_double_3x3_reduce"
	type: "Scale"
	scale_param {
		filler {
			value: 1
		}
		bias_filler {
			value: 0
		}
				bias_term: true
	}
}

layer {
	name: "relu_3c_double_3x3_reduce"
	type: "ReLU"
	bottom: "conv_3c_double_3x3_reduce"
	top: "conv_3c_double_3x3_reduce"
}

layer {
	name: "conv_3c_double_3x3_0"
	type: "Convolution"
	bottom: "conv_3c_double_3x3_reduce"
	top: "conv_3c_double_3x3_0"
	param {
		lr_mult: 1
		decay_mult: 1
		name: "conv_3c_double_3x3_0_w"
	}
	param {
		lr_mult: 2
		decay_mult: 0
		name: "conv_3c_double_3x3_0_b"
	}
	convolution_param { 
		weight_filler {
			type: "xavier"
		}
		bias_filler {
			type: "constant"
			value: 0.2
		}
		 num_output: 144
		 kernel_size: 3
		 stride: 1
		 pad: 1
	}
}

layer {
	name: "bn_3c_double_3x3_0"
	type: "BatchNorm"
	bottom: "conv_3c_double_3x3_0"
	top: "conv_3c_double_3x3_0"
	batch_norm_param {

	}
}

layer {
	name: "scale_conv_3c_double_3x3_0"
	bottom: "conv_3c_double_3x3_0"
	top: "conv_3c_double_3x3_0"
	type: "Scale"
	scale_param {
		filler {
			value: 1
		}
		bias_filler {
			value: 0
		}
				bias_term: true
	}
}

layer {
	name: "relu_3c_double_3x3_0"
	type: "ReLU"
	bottom: "conv_3c_double_3x3_0"
	top: "conv_3c_double_3x3_0"
}

layer {
	name: "conv_3c_double_3x3_1"
	type: "Convolution"
	bottom: "conv_3c_double_3x3_0"
	top: "conv_3c_double_3x3_1"
	param {
		lr_mult: 1
		decay_mult: 1
		name: "conv_3c_double_3x3_1_w"
	}
	param {
		lr_mult: 2
		decay_mult: 0
		name: "conv_3c_double_3x3_1_b"
	}
	convolution_param { 
		weight_filler {
			type: "xavier"
		}
		bias_filler {
			type: "constant"
			value: 0.2
		}
		 num_output: 144
		 kernel_size: 3
		 stride: 2
		 pad: 1
	}
}

layer {
	name: "bn_3c_double_3x3_1"
	type: "BatchNorm"
	bottom: "conv_3c_double_3x3_1"
	top: "conv_3c_double_3x3_1"
	batch_norm_param {

	}
}

layer {
	name: "scale_conv_3c_double_3x3_1"
	bottom: "conv_3c_double_3x3_1"
	top: "conv_3c_double_3x3_1"
	type: "Scale"
	scale_param {
		filler {
			value: 1
		}
		bias_filler {
			value: 0
		}
				bias_term: true
	}
}

layer {
	name: "relu_3c_double_3x3_1"
	type: "ReLU"
	bottom: "conv_3c_double_3x3_1"
	top: "conv_3c_double_3x3_1"
}

layer {
	name: "max_pool_3c_pool"
	type: "Pooling"
	bottom: "ch_concat_3b_chconcat"
	top: "max_pool_3c_pool"
	pooling_param {
		 pool: MAX
		 kernel_size: 3
		 stride: 2
		 pad: 0
	}
}

layer {
	name: "ch_concat_3c_chconcat"
	type: "Concat"
	bottom: "conv_3c_3x3"
	bottom: "conv_3c_double_3x3_1"
	bottom: "max_pool_3c_pool"
	top: "ch_concat_3c_chconcat"
}

layer {
	name: "conv_4a_1x1"
	type: "Convolution"
	bottom: "ch_concat_3c_chconcat"
	top: "conv_4a_1x1"
	param {
		lr_mult: 1
		decay_mult: 1
		name: "conv_4a_1x1_w"
	}
	param {
		lr_mult: 2
		decay_mult: 0
		name: "conv_4a_1x1_b"
	}
	convolution_param { 
		weight_filler {
			type: "xavier"
		}
		bias_filler {
			type: "constant"
			value: 0.2
		}
		 num_output: 224
		 kernel_size: 1
		 stride: 1
		 pad: 0
	}
}

layer {
	name: "bn_4a_1x1"
	type: "BatchNorm"
	bottom: "conv_4a_1x1"
	top: "conv_4a_1x1"
	batch_norm_param {

	}
}

layer {
	name: "scale_conv_4a_1x1"
	bottom: "conv_4a_1x1"
	top: "conv_4a_1x1"
	type: "Scale"
	scale_param {
		filler {
			value: 1
		}
		bias_filler {
			value: 0
		}
				bias_term: true
	}
}

layer {
	name: "relu_4a_1x1"
	type: "ReLU"
	bottom: "conv_4a_1x1"
	top: "conv_4a_1x1"
}

layer {
	name: "conv_4a_3x3_reduce"
	type: "Convolution"
	bottom: "ch_concat_3c_chconcat"
	top: "conv_4a_3x3_reduce"
	param {
		lr_mult: 1
		decay_mult: 1
		name: "conv_4a_3x3_reduce_w"
	}
	param {
		lr_mult: 2
		decay_mult: 0
		name: "conv_4a_3x3_reduce_b"
	}
	convolution_param { 
		weight_filler {
			type: "xavier"
		}
		bias_filler {
			type: "constant"
			value: 0.2
		}
		 num_output: 64
		 kernel_size: 1
		 stride: 1
		 pad: 0
	}
}

layer {
	name: "bn_4a_3x3_reduce"
	type: "BatchNorm"
	bottom: "conv_4a_3x3_reduce"
	top: "conv_4a_3x3_reduce"
	batch_norm_param {

	}
}

layer {
	name: "scale_conv_4a_3x3_reduce"
	bottom: "conv_4a_3x3_reduce"
	top: "conv_4a_3x3_reduce"
	type: "Scale"
	scale_param {
		filler {
			value: 1
		}
		bias_filler {
			value: 0
		}
				bias_term: true
	}
}

layer {
	name: "relu_4a_3x3_reduce"
	type: "ReLU"
	bottom: "conv_4a_3x3_reduce"
	top: "conv_4a_3x3_reduce"
}

layer {
	name: "conv_4a_3x3"
	type: "Convolution"
	bottom: "conv_4a_3x3_reduce"
	top: "conv_4a_3x3"
	param {
		lr_mult: 1
		decay_mult: 1
		name: "conv_4a_3x3_w"
	}
	param {
		lr_mult: 2
		decay_mult: 0
		name: "conv_4a_3x3_b"
	}
	convolution_param { 
		weight_filler {
			type: "xavier"
		}
		bias_filler {
			type: "constant"
			value: 0.2
		}
		 num_output: 96
		 kernel_size: 3
		 stride: 1
		 pad: 1
	}
}

layer {
	name: "bn_4a_3x3"
	type: "BatchNorm"
	bottom: "conv_4a_3x3"
	top: "conv_4a_3x3"
	batch_norm_param {

	}
}

layer {
	name: "scale_conv_4a_3x3"
	bottom: "conv_4a_3x3"
	top: "conv_4a_3x3"
	type: "Scale"
	scale_param {
		filler {
			value: 1
		}
		bias_filler {
			value: 0
		}
				bias_term: true
	}
}

layer {
	name: "relu_4a_3x3"
	type: "ReLU"
	bottom: "conv_4a_3x3"
	top: "conv_4a_3x3"
}

layer {
	name: "conv_4a_double_3x3_reduce"
	type: "Convolution"
	bottom: "ch_concat_3c_chconcat"
	top: "conv_4a_double_3x3_reduce"
	param {
		lr_mult: 1
		decay_mult: 1
		name: "conv_4a_double_3x3_reduce_w"
	}
	param {
		lr_mult: 2
		decay_mult: 0
		name: "conv_4a_double_3x3_reduce_b"
	}
	convolution_param { 
		weight_filler {
			type: "xavier"
		}
		bias_filler {
			type: "constant"
			value: 0.2
		}
		 num_output: 96
		 kernel_size: 1
		 stride: 1
		 pad: 0
	}
}

layer {
	name: "bn_4a_double_3x3_reduce"
	type: "BatchNorm"
	bottom: "conv_4a_double_3x3_reduce"
	top: "conv_4a_double_3x3_reduce"
	batch_norm_param {

	}
}

layer {
	name: "scale_conv_4a_double_3x3_reduce"
	bottom: "conv_4a_double_3x3_reduce"
	top: "conv_4a_double_3x3_reduce"
	type: "Scale"
	scale_param {
		filler {
			value: 1
		}
		bias_filler {
			value: 0
		}
				bias_term: true
	}
}

layer {
	name: "relu_4a_double_3x3_reduce"
	type: "ReLU"
	bottom: "conv_4a_double_3x3_reduce"
	top: "conv_4a_double_3x3_reduce"
}

layer {
	name: "conv_4a_double_3x3_0"
	type: "Convolution"
	bottom: "conv_4a_double_3x3_reduce"
	top: "conv_4a_double_3x3_0"
	param {
		lr_mult: 1
		decay_mult: 1
		name: "conv_4a_double_3x3_0_w"
	}
	param {
		lr_mult: 2
		decay_mult: 0
		name: "conv_4a_double_3x3_0_b"
	}
	convolution_param { 
		weight_filler {
			type: "xavier"
		}
		bias_filler {
			type: "constant"
			value: 0.2
		}
		 num_output: 128
		 kernel_size: 3
		 stride: 1
		 pad: 1
	}
}

layer {
	name: "bn_4a_double_3x3_0"
	type: "BatchNorm"
	bottom: "conv_4a_double_3x3_0"
	top: "conv_4a_double_3x3_0"
	batch_norm_param {

	}
}

layer {
	name: "scale_conv_4a_double_3x3_0"
	bottom: "conv_4a_double_3x3_0"
	top: "conv_4a_double_3x3_0"
	type: "Scale"
	scale_param {
		filler {
			value: 1
		}
		bias_filler {
			value: 0
		}
				bias_term: true
	}
}

layer {
	name: "relu_4a_double_3x3_0"
	type: "ReLU"
	bottom: "conv_4a_double_3x3_0"
	top: "conv_4a_double_3x3_0"
}

layer {
	name: "conv_4a_double_3x3_1"
	type: "Convolution"
	bottom: "conv_4a_double_3x3_0"
	top: "conv_4a_double_3x3_1"
	param {
		lr_mult: 1
		decay_mult: 1
		name: "conv_4a_double_3x3_1_w"
	}
	param {
		lr_mult: 2
		decay_mult: 0
		name: "conv_4a_double_3x3_1_b"
	}
	convolution_param { 
		weight_filler {
			type: "xavier"
		}
		bias_filler {
			type: "constant"
			value: 0.2
		}
		 num_output: 128
		 kernel_size: 3
		 stride: 1
		 pad: 1
	}
}

layer {
	name: "bn_4a_double_3x3_1"
	type: "BatchNorm"
	bottom: "conv_4a_double_3x3_1"
	top: "conv_4a_double_3x3_1"
	batch_norm_param {

	}
}

layer {
	name: "scale_conv_4a_double_3x3_1"
	bottom: "conv_4a_double_3x3_1"
	top: "conv_4a_double_3x3_1"
	type: "Scale"
	scale_param {
		filler {
			value: 1
		}
		bias_filler {
			value: 0
		}
				bias_term: true
	}
}

layer {
	name: "relu_4a_double_3x3_1"
	type: "ReLU"
	bottom: "conv_4a_double_3x3_1"
	top: "conv_4a_double_3x3_1"
}

layer {
	name: "ave_pool_4a_pool"
	type: "Pooling"
	bottom: "ch_concat_3c_chconcat"
	top: "ave_pool_4a_pool"
	pooling_param {
		 pool: AVE
		 kernel_size: 3
		 stride: 1
		 pad: 1
	}
}

layer {
	name: "conv_4a_proj"
	type: "Convolution"
	bottom: "ave_pool_4a_pool"
	top: "conv_4a_proj"
	param {
		lr_mult: 1
		decay_mult: 1
		name: "conv_4a_proj_w"
	}
	param {
		lr_mult: 2
		decay_mult: 0
		name: "conv_4a_proj_b"
	}
	convolution_param { 
		weight_filler {
			type: "xavier"
		}
		bias_filler {
			type: "constant"
			value: 0.2
		}
		 num_output: 128
		 kernel_size: 1
		 stride: 1
		 pad: 0
	}
}

layer {
	name: "bn_4a_proj"
	type: "BatchNorm"
	bottom: "conv_4a_proj"
	top: "conv_4a_proj"
	batch_norm_param {

	}
}

layer {
	name: "scale_conv_4a_proj"
	bottom: "conv_4a_proj"
	top: "conv_4a_proj"
	type: "Scale"
	scale_param {
		filler {
			value: 1
		}
		bias_filler {
			value: 0
		}
				bias_term: true
	}
}

layer {
	name: "relu_4a_proj"
	type: "ReLU"
	bottom: "conv_4a_proj"
	top: "conv_4a_proj"
}

layer {
	name: "ch_concat_4a_chconcat"
	type: "Concat"
	bottom: "conv_4a_1x1"
	bottom: "conv_4a_3x3"
	bottom: "conv_4a_double_3x3_1"
	bottom: "conv_4a_proj"
	top: "ch_concat_4a_chconcat"
}

layer {
	name: "conv_4b_1x1"
	type: "Convolution"
	bottom: "ch_concat_4a_chconcat"
	top: "conv_4b_1x1"
	param {
		lr_mult: 1
		decay_mult: 1
		name: "conv_4b_1x1_w"
	}
	param {
		lr_mult: 2
		decay_mult: 0
		name: "conv_4b_1x1_b"
	}
	convolution_param { 
		weight_filler {
			type: "xavier"
		}
		bias_filler {
			type: "constant"
			value: 0.2
		}
		 num_output: 192
		 kernel_size: 1
		 stride: 1
		 pad: 0
	}
}

layer {
	name: "bn_4b_1x1"
	type: "BatchNorm"
	bottom: "conv_4b_1x1"
	top: "conv_4b_1x1"
	batch_norm_param {

	}
}

layer {
	name: "scale_conv_4b_1x1"
	bottom: "conv_4b_1x1"
	top: "conv_4b_1x1"
	type: "Scale"
	scale_param {
		filler {
			value: 1
		}
		bias_filler {
			value: 0
		}
				bias_term: true
	}
}

layer {
	name: "relu_4b_1x1"
	type: "ReLU"
	bottom: "conv_4b_1x1"
	top: "conv_4b_1x1"
}

layer {
	name: "conv_4b_3x3_reduce"
	type: "Convolution"
	bottom: "ch_concat_4a_chconcat"
	top: "conv_4b_3x3_reduce"
	param {
		lr_mult: 1
		decay_mult: 1
		name: "conv_4b_3x3_reduce_w"
	}
	param {
		lr_mult: 2
		decay_mult: 0
		name: "conv_4b_3x3_reduce_b"
	}
	convolution_param { 
		weight_filler {
			type: "xavier"
		}
		bias_filler {
			type: "constant"
			value: 0.2
		}
		 num_output: 96
		 kernel_size: 1
		 stride: 1
		 pad: 0
	}
}

layer {
	name: "bn_4b_3x3_reduce"
	type: "BatchNorm"
	bottom: "conv_4b_3x3_reduce"
	top: "conv_4b_3x3_reduce"
	batch_norm_param {

	}
}

layer {
	name: "scale_conv_4b_3x3_reduce"
	bottom: "conv_4b_3x3_reduce"
	top: "conv_4b_3x3_reduce"
	type: "Scale"
	scale_param {
		filler {
			value: 1
		}
		bias_filler {
			value: 0
		}
				bias_term: true
	}
}

layer {
	name: "relu_4b_3x3_reduce"
	type: "ReLU"
	bottom: "conv_4b_3x3_reduce"
	top: "conv_4b_3x3_reduce"
}

layer {
	name: "conv_4b_3x3"
	type: "Convolution"
	bottom: "conv_4b_3x3_reduce"
	top: "conv_4b_3x3"
	param {
		lr_mult: 1
		decay_mult: 1
		name: "conv_4b_3x3_w"
	}
	param {
		lr_mult: 2
		decay_mult: 0
		name: "conv_4b_3x3_b"
	}
	convolution_param { 
		weight_filler {
			type: "xavier"
		}
		bias_filler {
			type: "constant"
			value: 0.2
		}
		 num_output: 128
		 kernel_size: 3
		 stride: 1
		 pad: 1
	}
}

layer {
	name: "bn_4b_3x3"
	type: "BatchNorm"
	bottom: "conv_4b_3x3"
	top: "conv_4b_3x3"
	batch_norm_param {

	}
}

layer {
	name: "scale_conv_4b_3x3"
	bottom: "conv_4b_3x3"
	top: "conv_4b_3x3"
	type: "Scale"
	scale_param {
		filler {
			value: 1
		}
		bias_filler {
			value: 0
		}
				bias_term: true
	}
}

layer {
	name: "relu_4b_3x3"
	type: "ReLU"
	bottom: "conv_4b_3x3"
	top: "conv_4b_3x3"
}

layer {
	name: "conv_4b_double_3x3_reduce"
	type: "Convolution"
	bottom: "ch_concat_4a_chconcat"
	top: "conv_4b_double_3x3_reduce"
	param {
		lr_mult: 1
		decay_mult: 1
		name: "conv_4b_double_3x3_reduce_w"
	}
	param {
		lr_mult: 2
		decay_mult: 0
		name: "conv_4b_double_3x3_reduce_b"
	}
	convolution_param { 
		weight_filler {
			type: "xavier"
		}
		bias_filler {
			type: "constant"
			value: 0.2
		}
		 num_output: 96
		 kernel_size: 1
		 stride: 1
		 pad: 0
	}
}

layer {
	name: "bn_4b_double_3x3_reduce"
	type: "BatchNorm"
	bottom: "conv_4b_double_3x3_reduce"
	top: "conv_4b_double_3x3_reduce"
	batch_norm_param {

	}
}

layer {
	name: "scale_conv_4b_double_3x3_reduce"
	bottom: "conv_4b_double_3x3_reduce"
	top: "conv_4b_double_3x3_reduce"
	type: "Scale"
	scale_param {
		filler {
			value: 1
		}
		bias_filler {
			value: 0
		}
				bias_term: true
	}
}

layer {
	name: "relu_4b_double_3x3_reduce"
	type: "ReLU"
	bottom: "conv_4b_double_3x3_reduce"
	top: "conv_4b_double_3x3_reduce"
}

layer {
	name: "conv_4b_double_3x3_0"
	type: "Convolution"
	bottom: "conv_4b_double_3x3_reduce"
	top: "conv_4b_double_3x3_0"
	param {
		lr_mult: 1
		decay_mult: 1
		name: "conv_4b_double_3x3_0_w"
	}
	param {
		lr_mult: 2
		decay_mult: 0
		name: "conv_4b_double_3x3_0_b"
	}
	convolution_param { 
		weight_filler {
			type: "xavier"
		}
		bias_filler {
			type: "constant"
			value: 0.2
		}
		 num_output: 128
		 kernel_size: 3
		 stride: 1
		 pad: 1
	}
}

layer {
	name: "bn_4b_double_3x3_0"
	type: "BatchNorm"
	bottom: "conv_4b_double_3x3_0"
	top: "conv_4b_double_3x3_0"
	batch_norm_param {

	}
}

layer {
	name: "scale_conv_4b_double_3x3_0"
	bottom: "conv_4b_double_3x3_0"
	top: "conv_4b_double_3x3_0"
	type: "Scale"
	scale_param {
		filler {
			value: 1
		}
		bias_filler {
			value: 0
		}
				bias_term: true
	}
}

layer {
	name: "relu_4b_double_3x3_0"
	type: "ReLU"
	bottom: "conv_4b_double_3x3_0"
	top: "conv_4b_double_3x3_0"
}

layer {
	name: "conv_4b_double_3x3_1"
	type: "Convolution"
	bottom: "conv_4b_double_3x3_0"
	top: "conv_4b_double_3x3_1"
	param {
		lr_mult: 1
		decay_mult: 1
		name: "conv_4b_double_3x3_1_w"
	}
	param {
		lr_mult: 2
		decay_mult: 0
		name: "conv_4b_double_3x3_1_b"
	}
	convolution_param { 
		weight_filler {
			type: "xavier"
		}
		bias_filler {
			type: "constant"
			value: 0.2
		}
		 num_output: 128
		 kernel_size: 3
		 stride: 1
		 pad: 1
	}
}

layer {
	name: "bn_4b_double_3x3_1"
	type: "BatchNorm"
	bottom: "conv_4b_double_3x3_1"
	top: "conv_4b_double_3x3_1"
	batch_norm_param {

	}
}

layer {
	name: "scale_conv_4b_double_3x3_1"
	bottom: "conv_4b_double_3x3_1"
	top: "conv_4b_double_3x3_1"
	type: "Scale"
	scale_param {
		filler {
			value: 1
		}
		bias_filler {
			value: 0
		}
				bias_term: true
	}
}

layer {
	name: "relu_4b_double_3x3_1"
	type: "ReLU"
	bottom: "conv_4b_double_3x3_1"
	top: "conv_4b_double_3x3_1"
}

layer {
	name: "ave_pool_4b_pool"
	type: "Pooling"
	bottom: "ch_concat_4a_chconcat"
	top: "ave_pool_4b_pool"
	pooling_param {
		 pool: AVE
		 kernel_size: 3
		 stride: 1
		 pad: 1
	}
}

layer {
	name: "conv_4b_proj"
	type: "Convolution"
	bottom: "ave_pool_4b_pool"
	top: "conv_4b_proj"
	param {
		lr_mult: 1
		decay_mult: 1
		name: "conv_4b_proj_w"
	}
	param {
		lr_mult: 2
		decay_mult: 0
		name: "conv_4b_proj_b"
	}
	convolution_param { 
		weight_filler {
			type: "xavier"
		}
		bias_filler {
			type: "constant"
			value: 0.2
		}
		 num_output: 128
		 kernel_size: 1
		 stride: 1
		 pad: 0
	}
}

layer {
	name: "bn_4b_proj"
	type: "BatchNorm"
	bottom: "conv_4b_proj"
	top: "conv_4b_proj"
	batch_norm_param {

	}
}

layer {
	name: "scale_conv_4b_proj"
	bottom: "conv_4b_proj"
	top: "conv_4b_proj"
	type: "Scale"
	scale_param {
		filler {
			value: 1
		}
		bias_filler {
			value: 0
		}
				bias_term: true
	}
}

layer {
	name: "relu_4b_proj"
	type: "ReLU"
	bottom: "conv_4b_proj"
	top: "conv_4b_proj"
}

layer {
	name: "ch_concat_4b_chconcat"
	type: "Concat"
	bottom: "conv_4b_1x1"
	bottom: "conv_4b_3x3"
	bottom: "conv_4b_double_3x3_1"
	bottom: "conv_4b_proj"
	top: "ch_concat_4b_chconcat"
}

layer {
	name: "conv_4c_1x1"
	type: "Convolution"
	bottom: "ch_concat_4b_chconcat"
	top: "conv_4c_1x1"
	param {
		lr_mult: 1
		decay_mult: 1
		name: "conv_4c_1x1_w"
	}
	param {
		lr_mult: 2
		decay_mult: 0
		name: "conv_4c_1x1_b"
	}
	convolution_param { 
		weight_filler {
			type: "xavier"
		}
		bias_filler {
			type: "constant"
			value: 0.2
		}
		 num_output: 160
		 kernel_size: 1
		 stride: 1
		 pad: 0
	}
}

layer {
	name: "bn_4c_1x1"
	type: "BatchNorm"
	bottom: "conv_4c_1x1"
	top: "conv_4c_1x1"
	batch_norm_param {

	}
}

layer {
	name: "scale_conv_4c_1x1"
	bottom: "conv_4c_1x1"
	top: "conv_4c_1x1"
	type: "Scale"
	scale_param {
		filler {
			value: 1
		}
		bias_filler {
			value: 0
		}
				bias_term: true
	}
}

layer {
	name: "relu_4c_1x1"
	type: "ReLU"
	bottom: "conv_4c_1x1"
	top: "conv_4c_1x1"
}

layer {
	name: "conv_4c_3x3_reduce"
	type: "Convolution"
	bottom: "ch_concat_4b_chconcat"
	top: "conv_4c_3x3_reduce"
	param {
		lr_mult: 1
		decay_mult: 1
		name: "conv_4c_3x3_reduce_w"
	}
	param {
		lr_mult: 2
		decay_mult: 0
		name: "conv_4c_3x3_reduce_b"
	}
	convolution_param { 
		weight_filler {
			type: "xavier"
		}
		bias_filler {
			type: "constant"
			value: 0.2
		}
		 num_output: 128
		 kernel_size: 1
		 stride: 1
		 pad: 0
	}
}

layer {
	name: "bn_4c_3x3_reduce"
	type: "BatchNorm"
	bottom: "conv_4c_3x3_reduce"
	top: "conv_4c_3x3_reduce"
	batch_norm_param {

	}
}

layer {
	name: "scale_conv_4c_3x3_reduce"
	bottom: "conv_4c_3x3_reduce"
	top: "conv_4c_3x3_reduce"
	type: "Scale"
	scale_param {
		filler {
			value: 1
		}
		bias_filler {
			value: 0
		}
				bias_term: true
	}
}

layer {
	name: "relu_4c_3x3_reduce"
	type: "ReLU"
	bottom: "conv_4c_3x3_reduce"
	top: "conv_4c_3x3_reduce"
}

layer {
	name: "conv_4c_3x3"
	type: "Convolution"
	bottom: "conv_4c_3x3_reduce"
	top: "conv_4c_3x3"
	param {
		lr_mult: 1
		decay_mult: 1
		name: "conv_4c_3x3_w"
	}
	param {
		lr_mult: 2
		decay_mult: 0
		name: "conv_4c_3x3_b"
	}
	convolution_param { 
		weight_filler {
			type: "xavier"
		}
		bias_filler {
			type: "constant"
			value: 0.2
		}
		 num_output: 160
		 kernel_size: 3
		 stride: 1
		 pad: 1
	}
}

layer {
	name: "bn_4c_3x3"
	type: "BatchNorm"
	bottom: "conv_4c_3x3"
	top: "conv_4c_3x3"
	batch_norm_param {

	}
}

layer {
	name: "scale_conv_4c_3x3"
	bottom: "conv_4c_3x3"
	top: "conv_4c_3x3"
	type: "Scale"
	scale_param {
		filler {
			value: 1
		}
		bias_filler {
			value: 0
		}
				bias_term: true
	}
}

layer {
	name: "relu_4c_3x3"
	type: "ReLU"
	bottom: "conv_4c_3x3"
	top: "conv_4c_3x3"
}

layer {
	name: "conv_4c_double_3x3_reduce"
	type: "Convolution"
	bottom: "ch_concat_4b_chconcat"
	top: "conv_4c_double_3x3_reduce"
	param {
		lr_mult: 1
		decay_mult: 1
		name: "conv_4c_double_3x3_reduce_w"
	}
	param {
		lr_mult: 2
		decay_mult: 0
		name: "conv_4c_double_3x3_reduce_b"
	}
	convolution_param { 
		weight_filler {
			type: "xavier"
		}
		bias_filler {
			type: "constant"
			value: 0.2
		}
		 num_output: 128
		 kernel_size: 1
		 stride: 1
		 pad: 0
	}
}

layer {
	name: "bn_4c_double_3x3_reduce"
	type: "BatchNorm"
	bottom: "conv_4c_double_3x3_reduce"
	top: "conv_4c_double_3x3_reduce"
	batch_norm_param {

	}
}

layer {
	name: "scale_conv_4c_double_3x3_reduce"
	bottom: "conv_4c_double_3x3_reduce"
	top: "conv_4c_double_3x3_reduce"
	type: "Scale"
	scale_param {
		filler {
			value: 1
		}
		bias_filler {
			value: 0
		}
				bias_term: true
	}
}

layer {
	name: "relu_4c_double_3x3_reduce"
	type: "ReLU"
	bottom: "conv_4c_double_3x3_reduce"
	top: "conv_4c_double_3x3_reduce"
}

layer {
	name: "conv_4c_double_3x3_0"
	type: "Convolution"
	bottom: "conv_4c_double_3x3_reduce"
	top: "conv_4c_double_3x3_0"
	param {
		lr_mult: 1
		decay_mult: 1
		name: "conv_4c_double_3x3_0_w"
	}
	param {
		lr_mult: 2
		decay_mult: 0
		name: "conv_4c_double_3x3_0_b"
	}
	convolution_param { 
		weight_filler {
			type: "xavier"
		}
		bias_filler {
			type: "constant"
			value: 0.2
		}
		 num_output: 160
		 kernel_size: 3
		 stride: 1
		 pad: 1
	}
}

layer {
	name: "bn_4c_double_3x3_0"
	type: "BatchNorm"
	bottom: "conv_4c_double_3x3_0"
	top: "conv_4c_double_3x3_0"
	batch_norm_param {

	}
}

layer {
	name: "scale_conv_4c_double_3x3_0"
	bottom: "conv_4c_double_3x3_0"
	top: "conv_4c_double_3x3_0"
	type: "Scale"
	scale_param {
		filler {
			value: 1
		}
		bias_filler {
			value: 0
		}
				bias_term: true
	}
}

layer {
	name: "relu_4c_double_3x3_0"
	type: "ReLU"
	bottom: "conv_4c_double_3x3_0"
	top: "conv_4c_double_3x3_0"
}

layer {
	name: "conv_4c_double_3x3_1"
	type: "Convolution"
	bottom: "conv_4c_double_3x3_0"
	top: "conv_4c_double_3x3_1"
	param {
		lr_mult: 1
		decay_mult: 1
		name: "conv_4c_double_3x3_1_w"
	}
	param {
		lr_mult: 2
		decay_mult: 0
		name: "conv_4c_double_3x3_1_b"
	}
	convolution_param { 
		weight_filler {
			type: "xavier"
		}
		bias_filler {
			type: "constant"
			value: 0.2
		}
		 num_output: 160
		 kernel_size: 3
		 stride: 1
		 pad: 1
	}
}

layer {
	name: "bn_4c_double_3x3_1"
	type: "BatchNorm"
	bottom: "conv_4c_double_3x3_1"
	top: "conv_4c_double_3x3_1"
	batch_norm_param {

	}
}

layer {
	name: "scale_conv_4c_double_3x3_1"
	bottom: "conv_4c_double_3x3_1"
	top: "conv_4c_double_3x3_1"
	type: "Scale"
	scale_param {
		filler {
			value: 1
		}
		bias_filler {
			value: 0
		}
				bias_term: true
	}
}

layer {
	name: "relu_4c_double_3x3_1"
	type: "ReLU"
	bottom: "conv_4c_double_3x3_1"
	top: "conv_4c_double_3x3_1"
}

layer {
	name: "ave_pool_4c_pool"
	type: "Pooling"
	bottom: "ch_concat_4b_chconcat"
	top: "ave_pool_4c_pool"
	pooling_param {
		 pool: AVE
		 kernel_size: 3
		 stride: 1
		 pad: 1
	}
}

layer {
	name: "conv_4c_proj"
	type: "Convolution"
	bottom: "ave_pool_4c_pool"
	top: "conv_4c_proj"
	param {
		lr_mult: 1
		decay_mult: 1
		name: "conv_4c_proj_w"
	}
	param {
		lr_mult: 2
		decay_mult: 0
		name: "conv_4c_proj_b"
	}
	convolution_param { 
		weight_filler {
			type: "xavier"
		}
		bias_filler {
			type: "constant"
			value: 0.2
		}
		 num_output: 128
		 kernel_size: 1
		 stride: 1
		 pad: 0
	}
}

layer {
	name: "bn_4c_proj"
	type: "BatchNorm"
	bottom: "conv_4c_proj"
	top: "conv_4c_proj"
	batch_norm_param {

	}
}

layer {
	name: "scale_conv_4c_proj"
	bottom: "conv_4c_proj"
	top: "conv_4c_proj"
	type: "Scale"
	scale_param {
		filler {
			value: 1
		}
		bias_filler {
			value: 0
		}
				bias_term: true
	}
}

layer {
	name: "relu_4c_proj"
	type: "ReLU"
	bottom: "conv_4c_proj"
	top: "conv_4c_proj"
}

layer {
	name: "ch_concat_4c_chconcat"
	type: "Concat"
	bottom: "conv_4c_1x1"
	bottom: "conv_4c_3x3"
	bottom: "conv_4c_double_3x3_1"
	bottom: "conv_4c_proj"
	top: "ch_concat_4c_chconcat"
}

layer {
	name: "conv_4d_1x1"
	type: "Convolution"
	bottom: "ch_concat_4c_chconcat"
	top: "conv_4d_1x1"
	param {
		lr_mult: 1
		decay_mult: 1
		name: "conv_4d_1x1_w"
	}
	param {
		lr_mult: 2
		decay_mult: 0
		name: "conv_4d_1x1_b"
	}
	convolution_param { 
		weight_filler {
			type: "xavier"
		}
		bias_filler {
			type: "constant"
			value: 0.2
		}
		 num_output: 96
		 kernel_size: 1
		 stride: 1
		 pad: 0
	}
}

layer {
	name: "bn_4d_1x1"
	type: "BatchNorm"
	bottom: "conv_4d_1x1"
	top: "conv_4d_1x1"
	batch_norm_param {

	}
}

layer {
	name: "scale_conv_4d_1x1"
	bottom: "conv_4d_1x1"
	top: "conv_4d_1x1"
	type: "Scale"
	scale_param {
		filler {
			value: 1
		}
		bias_filler {
			value: 0
		}
				bias_term: true
	}
}

layer {
	name: "relu_4d_1x1"
	type: "ReLU"
	bottom: "conv_4d_1x1"
	top: "conv_4d_1x1"
}

layer {
	name: "conv_4d_3x3_reduce"
	type: "Convolution"
	bottom: "ch_concat_4c_chconcat"
	top: "conv_4d_3x3_reduce"
	param {
		lr_mult: 1
		decay_mult: 1
		name: "conv_4d_3x3_reduce_w"
	}
	param {
		lr_mult: 2
		decay_mult: 0
		name: "conv_4d_3x3_reduce_b"
	}
	convolution_param { 
		weight_filler {
			type: "xavier"
		}
		bias_filler {
			type: "constant"
			value: 0.2
		}
		 num_output: 128
		 kernel_size: 1
		 stride: 1
		 pad: 0
	}
}

layer {
	name: "bn_4d_3x3_reduce"
	type: "BatchNorm"
	bottom: "conv_4d_3x3_reduce"
	top: "conv_4d_3x3_reduce"
	batch_norm_param {

	}
}

layer {
	name: "scale_conv_4d_3x3_reduce"
	bottom: "conv_4d_3x3_reduce"
	top: "conv_4d_3x3_reduce"
	type: "Scale"
	scale_param {
		filler {
			value: 1
		}
		bias_filler {
			value: 0
		}
				bias_term: true
	}
}

layer {
	name: "relu_4d_3x3_reduce"
	type: "ReLU"
	bottom: "conv_4d_3x3_reduce"
	top: "conv_4d_3x3_reduce"
}

layer {
	name: "conv_4d_3x3"
	type: "Convolution"
	bottom: "conv_4d_3x3_reduce"
	top: "conv_4d_3x3"
	param {
		lr_mult: 1
		decay_mult: 1
		name: "conv_4d_3x3_w"
	}
	param {
		lr_mult: 2
		decay_mult: 0
		name: "conv_4d_3x3_b"
	}
	convolution_param { 
		weight_filler {
			type: "xavier"
		}
		bias_filler {
			type: "constant"
			value: 0.2
		}
		 num_output: 192
		 kernel_size: 3
		 stride: 1
		 pad: 1
	}
}

layer {
	name: "bn_4d_3x3"
	type: "BatchNorm"
	bottom: "conv_4d_3x3"
	top: "conv_4d_3x3"
	batch_norm_param {

	}
}

layer {
	name: "scale_conv_4d_3x3"
	bottom: "conv_4d_3x3"
	top: "conv_4d_3x3"
	type: "Scale"
	scale_param {
		filler {
			value: 1
		}
		bias_filler {
			value: 0
		}
				bias_term: true
	}
}

layer {
	name: "relu_4d_3x3"
	type: "ReLU"
	bottom: "conv_4d_3x3"
	top: "conv_4d_3x3"
}

layer {
	name: "conv_4d_double_3x3_reduce"
	type: "Convolution"
	bottom: "ch_concat_4c_chconcat"
	top: "conv_4d_double_3x3_reduce"
	param {
		lr_mult: 1
		decay_mult: 1
		name: "conv_4d_double_3x3_reduce_w"
	}
	param {
		lr_mult: 2
		decay_mult: 0
		name: "conv_4d_double_3x3_reduce_b"
	}
	convolution_param { 
		weight_filler {
			type: "xavier"
		}
		bias_filler {
			type: "constant"
			value: 0.2
		}
		 num_output: 160
		 kernel_size: 1
		 stride: 1
		 pad: 0
	}
}

layer {
	name: "bn_4d_double_3x3_reduce"
	type: "BatchNorm"
	bottom: "conv_4d_double_3x3_reduce"
	top: "conv_4d_double_3x3_reduce"
	batch_norm_param {

	}
}

layer {
	name: "scale_conv_4d_double_3x3_reduce"
	bottom: "conv_4d_double_3x3_reduce"
	top: "conv_4d_double_3x3_reduce"
	type: "Scale"
	scale_param {
		filler {
			value: 1
		}
		bias_filler {
			value: 0
		}
				bias_term: true
	}
}

layer {
	name: "relu_4d_double_3x3_reduce"
	type: "ReLU"
	bottom: "conv_4d_double_3x3_reduce"
	top: "conv_4d_double_3x3_reduce"
}

layer {
	name: "conv_4d_double_3x3_0"
	type: "Convolution"
	bottom: "conv_4d_double_3x3_reduce"
	top: "conv_4d_double_3x3_0"
	param {
		lr_mult: 1
		decay_mult: 1
		name: "conv_4d_double_3x3_0_w"
	}
	param {
		lr_mult: 2
		decay_mult: 0
		name: "conv_4d_double_3x3_0_b"
	}
	convolution_param { 
		weight_filler {
			type: "xavier"
		}
		bias_filler {
			type: "constant"
			value: 0.2
		}
		 num_output: 96
		 kernel_size: 3
		 stride: 1
		 pad: 1
	}
}

layer {
	name: "bn_4d_double_3x3_0"
	type: "BatchNorm"
	bottom: "conv_4d_double_3x3_0"
	top: "conv_4d_double_3x3_0"
	batch_norm_param {

	}
}

layer {
	name: "scale_conv_4d_double_3x3_0"
	bottom: "conv_4d_double_3x3_0"
	top: "conv_4d_double_3x3_0"
	type: "Scale"
	scale_param {
		filler {
			value: 1
		}
		bias_filler {
			value: 0
		}
				bias_term: true
	}
}

layer {
	name: "relu_4d_double_3x3_0"
	type: "ReLU"
	bottom: "conv_4d_double_3x3_0"
	top: "conv_4d_double_3x3_0"
}

layer {
	name: "conv_4d_double_3x3_1"
	type: "Convolution"
	bottom: "conv_4d_double_3x3_0"
	top: "conv_4d_double_3x3_1"
	param {
		lr_mult: 1
		decay_mult: 1
		name: "conv_4d_double_3x3_1_w"
	}
	param {
		lr_mult: 2
		decay_mult: 0
		name: "conv_4d_double_3x3_1_b"
	}
	convolution_param { 
		weight_filler {
			type: "xavier"
		}
		bias_filler {
			type: "constant"
			value: 0.2
		}
		 num_output: 96
		 kernel_size: 3
		 stride: 1
		 pad: 1
	}
}

layer {
	name: "bn_4d_double_3x3_1"
	type: "BatchNorm"
	bottom: "conv_4d_double_3x3_1"
	top: "conv_4d_double_3x3_1"
	batch_norm_param {

	}
}

layer {
	name: "scale_conv_4d_double_3x3_1"
	bottom: "conv_4d_double_3x3_1"
	top: "conv_4d_double_3x3_1"
	type: "Scale"
	scale_param {
		filler {
			value: 1
		}
		bias_filler {
			value: 0
		}
				bias_term: true
	}
}

layer {
	name: "relu_4d_double_3x3_1"
	type: "ReLU"
	bottom: "conv_4d_double_3x3_1"
	top: "conv_4d_double_3x3_1"
}

layer {
	name: "ave_pool_4d_pool"
	type: "Pooling"
	bottom: "ch_concat_4c_chconcat"
	top: "ave_pool_4d_pool"
	pooling_param {
		 pool: AVE
		 kernel_size: 3
		 stride: 1
		 pad: 1
	}
}

layer {
	name: "conv_4d_proj"
	type: "Convolution"
	bottom: "ave_pool_4d_pool"
	top: "conv_4d_proj"
	param {
		lr_mult: 1
		decay_mult: 1
		name: "conv_4d_proj_w"
	}
	param {
		lr_mult: 2
		decay_mult: 0
		name: "conv_4d_proj_b"
	}
	convolution_param { 
		weight_filler {
			type: "xavier"
		}
		bias_filler {
			type: "constant"
			value: 0.2
		}
		 num_output: 128
		 kernel_size: 1
		 stride: 1
		 pad: 0
	}
}

layer {
	name: "bn_4d_proj"
	type: "BatchNorm"
	bottom: "conv_4d_proj"
	top: "conv_4d_proj"
	batch_norm_param {

	}
}

layer {
	name: "scale_conv_4d_proj"
	bottom: "conv_4d_proj"
	top: "conv_4d_proj"
	type: "Scale"
	scale_param {
		filler {
			value: 1
		}
		bias_filler {
			value: 0
		}
				bias_term: true
	}
}

layer {
	name: "relu_4d_proj"
	type: "ReLU"
	bottom: "conv_4d_proj"
	top: "conv_4d_proj"
}

layer {
	name: "ch_concat_4d_chconcat"
	type: "Concat"
	bottom: "conv_4d_1x1"
	bottom: "conv_4d_3x3"
	bottom: "conv_4d_double_3x3_1"
	bottom: "conv_4d_proj"
	top: "ch_concat_4d_chconcat"
}

layer {
	name: "conv_4e_3x3_reduce"
	type: "Convolution"
	bottom: "ch_concat_4d_chconcat"
	top: "conv_4e_3x3_reduce"
	param {
		lr_mult: 1
		decay_mult: 1
		name: "conv_4e_3x3_reduce_w"
	}
	param {
		lr_mult: 2
		decay_mult: 0
		name: "conv_4e_3x3_reduce_b"
	}
	convolution_param { 
		weight_filler {
			type: "xavier"
		}
		bias_filler {
			type: "constant"
			value: 0.2
		}
		 num_output: 128
		 kernel_size: 1
		 stride: 1
		 pad: 0
	}
}

layer {
	name: "bn_4e_3x3_reduce"
	type: "BatchNorm"
	bottom: "conv_4e_3x3_reduce"
	top: "conv_4e_3x3_reduce"
	batch_norm_param {

	}
}

layer {
	name: "scale_conv_4e_3x3_reduce"
	bottom: "conv_4e_3x3_reduce"
	top: "conv_4e_3x3_reduce"
	type: "Scale"
	scale_param {
		filler {
			value: 1
		}
		bias_filler {
			value: 0
		}
				bias_term: true
	}
}

layer {
	name: "relu_4e_3x3_reduce"
	type: "ReLU"
	bottom: "conv_4e_3x3_reduce"
	top: "conv_4e_3x3_reduce"
}

layer {
	name: "conv_4e_3x3"
	type: "Convolution"
	bottom: "conv_4e_3x3_reduce"
	top: "conv_4e_3x3"
	param {
		lr_mult: 1
		decay_mult: 1
		name: "conv_4e_3x3_w"
	}
	param {
		lr_mult: 2
		decay_mult: 0
		name: "conv_4e_3x3_b"
	}
	convolution_param { 
		weight_filler {
			type: "xavier"
		}
		bias_filler {
			type: "constant"
			value: 0.2
		}
		 num_output: 192
		 kernel_size: 3
		 stride: 2
		 pad: 1
	}
}

layer {
	name: "bn_4e_3x3"
	type: "BatchNorm"
	bottom: "conv_4e_3x3"
	top: "conv_4e_3x3"
	batch_norm_param {

	}
}

layer {
	name: "scale_conv_4e_3x3"
	bottom: "conv_4e_3x3"
	top: "conv_4e_3x3"
	type: "Scale"
	scale_param {
		filler {
			value: 1
		}
		bias_filler {
			value: 0
		}
				bias_term: true
	}
}

layer {
	name: "relu_4e_3x3"
	type: "ReLU"
	bottom: "conv_4e_3x3"
	top: "conv_4e_3x3"
}

layer {
	name: "conv_4e_double_3x3_reduce"
	type: "Convolution"
	bottom: "ch_concat_4d_chconcat"
	top: "conv_4e_double_3x3_reduce"
	param {
		lr_mult: 1
		decay_mult: 1
		name: "conv_4e_double_3x3_reduce_w"
	}
	param {
		lr_mult: 2
		decay_mult: 0
		name: "conv_4e_double_3x3_reduce_b"
	}
	convolution_param { 
		weight_filler {
			type: "xavier"
		}
		bias_filler {
			type: "constant"
			value: 0.2
		}
		 num_output: 192
		 kernel_size: 1
		 stride: 1
		 pad: 0
	}
}

layer {
	name: "bn_4e_double_3x3_reduce"
	type: "BatchNorm"
	bottom: "conv_4e_double_3x3_reduce"
	top: "conv_4e_double_3x3_reduce"
	batch_norm_param {

	}
}

layer {
	name: "scale_conv_4e_double_3x3_reduce"
	bottom: "conv_4e_double_3x3_reduce"
	top: "conv_4e_double_3x3_reduce"
	type: "Scale"
	scale_param {
		filler {
			value: 1
		}
		bias_filler {
			value: 0
		}
				bias_term: true
	}
}

layer {
	name: "relu_4e_double_3x3_reduce"
	type: "ReLU"
	bottom: "conv_4e_double_3x3_reduce"
	top: "conv_4e_double_3x3_reduce"
}

layer {
	name: "conv_4e_double_3x3_0"
	type: "Convolution"
	bottom: "conv_4e_double_3x3_reduce"
	top: "conv_4e_double_3x3_0"
	param {
		lr_mult: 1
		decay_mult: 1
		name: "conv_4e_double_3x3_0_w"
	}
	param {
		lr_mult: 2
		decay_mult: 0
		name: "conv_4e_double_3x3_0_b"
	}
	convolution_param { 
		weight_filler {
			type: "xavier"
		}
		bias_filler {
			type: "constant"
			value: 0.2
		}
		 num_output: 256
		 kernel_size: 3
		 stride: 1
		 pad: 1
	}
}

layer {
	name: "bn_4e_double_3x3_0"
	type: "BatchNorm"
	bottom: "conv_4e_double_3x3_0"
	top: "conv_4e_double_3x3_0"
	batch_norm_param {

	}
}

layer {
	name: "scale_conv_4e_double_3x3_0"
	bottom: "conv_4e_double_3x3_0"
	top: "conv_4e_double_3x3_0"
	type: "Scale"
	scale_param {
		filler {
			value: 1
		}
		bias_filler {
			value: 0
		}
				bias_term: true
	}
}

layer {
	name: "relu_4e_double_3x3_0"
	type: "ReLU"
	bottom: "conv_4e_double_3x3_0"
	top: "conv_4e_double_3x3_0"
}

layer {
	name: "conv_4e_double_3x3_1"
	type: "Convolution"
	bottom: "conv_4e_double_3x3_0"
	top: "conv_4e_double_3x3_1"
	param {
		lr_mult: 1
		decay_mult: 1
		name: "conv_4e_double_3x3_1_w"
	}
	param {
		lr_mult: 2
		decay_mult: 0
		name: "conv_4e_double_3x3_1_b"
	}
	convolution_param { 
		weight_filler {
			type: "xavier"
		}
		bias_filler {
			type: "constant"
			value: 0.2
		}
		 num_output: 256
		 kernel_size: 3
		 stride: 2
		 pad: 1
	}
}

layer {
	name: "bn_4e_double_3x3_1"
	type: "BatchNorm"
	bottom: "conv_4e_double_3x3_1"
	top: "conv_4e_double_3x3_1"
	batch_norm_param {

	}
}

layer {
	name: "scale_conv_4e_double_3x3_1"
	bottom: "conv_4e_double_3x3_1"
	top: "conv_4e_double_3x3_1"
	type: "Scale"
	scale_param {
		filler {
			value: 1
		}
		bias_filler {
			value: 0
		}
				bias_term: true
	}
}

layer {
	name: "relu_4e_double_3x3_1"
	type: "ReLU"
	bottom: "conv_4e_double_3x3_1"
	top: "conv_4e_double_3x3_1"
}

layer {
	name: "max_pool_4e_pool"
	type: "Pooling"
	bottom: "ch_concat_4d_chconcat"
	top: "max_pool_4e_pool"
	pooling_param {
		 pool: MAX
		 kernel_size: 3
		 stride: 2
		 pad: 0
	}
}

layer {
	name: "ch_concat_4e_chconcat"
	type: "Concat"
	bottom: "conv_4e_3x3"
	bottom: "conv_4e_double_3x3_1"
	bottom: "max_pool_4e_pool"
	top: "ch_concat_4e_chconcat"
}

layer {
	name: "conv_5a_1x1"
	type: "Convolution"
	bottom: "ch_concat_4e_chconcat"
	top: "conv_5a_1x1"
	param {
		lr_mult: 1
		decay_mult: 1
		name: "conv_5a_1x1_w"
	}
	param {
		lr_mult: 2
		decay_mult: 0
		name: "conv_5a_1x1_b"
	}
	convolution_param { 
		weight_filler {
			type: "xavier"
		}
		bias_filler {
			type: "constant"
			value: 0.2
		}
		 num_output: 352
		 kernel_size: 1
		 stride: 1
		 pad: 0
	}
}

layer {
	name: "bn_5a_1x1"
	type: "BatchNorm"
	bottom: "conv_5a_1x1"
	top: "conv_5a_1x1"
	batch_norm_param {

	}
}

layer {
	name: "scale_conv_5a_1x1"
	bottom: "conv_5a_1x1"
	top: "conv_5a_1x1"
	type: "Scale"
	scale_param {
		filler {
			value: 1
		}
		bias_filler {
			value: 0
		}
				bias_term: true
	}
}

layer {
	name: "relu_5a_1x1"
	type: "ReLU"
	bottom: "conv_5a_1x1"
	top: "conv_5a_1x1"
}

layer {
	name: "conv_5a_3x3_reduce"
	type: "Convolution"
	bottom: "ch_concat_4e_chconcat"
	top: "conv_5a_3x3_reduce"
	param {
		lr_mult: 1
		decay_mult: 1
		name: "conv_5a_3x3_reduce_w"
	}
	param {
		lr_mult: 2
		decay_mult: 0
		name: "conv_5a_3x3_reduce_b"
	}
	convolution_param { 
		weight_filler {
			type: "xavier"
		}
		bias_filler {
			type: "constant"
			value: 0.2
		}
		 num_output: 192
		 kernel_size: 1
		 stride: 1
		 pad: 0
	}
}

layer {
	name: "bn_5a_3x3_reduce"
	type: "BatchNorm"
	bottom: "conv_5a_3x3_reduce"
	top: "conv_5a_3x3_reduce"
	batch_norm_param {

	}
}

layer {
	name: "scale_conv_5a_3x3_reduce"
	bottom: "conv_5a_3x3_reduce"
	top: "conv_5a_3x3_reduce"
	type: "Scale"
	scale_param {
		filler {
			value: 1
		}
		bias_filler {
			value: 0
		}
				bias_term: true
	}
}

layer {
	name: "relu_5a_3x3_reduce"
	type: "ReLU"
	bottom: "conv_5a_3x3_reduce"
	top: "conv_5a_3x3_reduce"
}

layer {
	name: "conv_5a_3x3"
	type: "Convolution"
	bottom: "conv_5a_3x3_reduce"
	top: "conv_5a_3x3"
	param {
		lr_mult: 1
		decay_mult: 1
		name: "conv_5a_3x3_w"
	}
	param {
		lr_mult: 2
		decay_mult: 0
		name: "conv_5a_3x3_b"
	}
	convolution_param { 
		weight_filler {
			type: "xavier"
		}
		bias_filler {
			type: "constant"
			value: 0.2
		}
		 num_output: 320
		 kernel_size: 3
		 stride: 1
		 pad: 1
	}
}

layer {
	name: "bn_5a_3x3"
	type: "BatchNorm"
	bottom: "conv_5a_3x3"
	top: "conv_5a_3x3"
	batch_norm_param {

	}
}

layer {
	name: "scale_conv_5a_3x3"
	bottom: "conv_5a_3x3"
	top: "conv_5a_3x3"
	type: "Scale"
	scale_param {
		filler {
			value: 1
		}
		bias_filler {
			value: 0
		}
				bias_term: true
	}
}

layer {
	name: "relu_5a_3x3"
	type: "ReLU"
	bottom: "conv_5a_3x3"
	top: "conv_5a_3x3"
}

layer {
	name: "conv_5a_double_3x3_reduce"
	type: "Convolution"
	bottom: "ch_concat_4e_chconcat"
	top: "conv_5a_double_3x3_reduce"
	param {
		lr_mult: 1
		decay_mult: 1
		name: "conv_5a_double_3x3_reduce_w"
	}
	param {
		lr_mult: 2
		decay_mult: 0
		name: "conv_5a_double_3x3_reduce_b"
	}
	convolution_param { 
		weight_filler {
			type: "xavier"
		}
		bias_filler {
			type: "constant"
			value: 0.2
		}
		 num_output: 160
		 kernel_size: 1
		 stride: 1
		 pad: 0
	}
}

layer {
	name: "bn_5a_double_3x3_reduce"
	type: "BatchNorm"
	bottom: "conv_5a_double_3x3_reduce"
	top: "conv_5a_double_3x3_reduce"
	batch_norm_param {

	}
}

layer {
	name: "scale_conv_5a_double_3x3_reduce"
	bottom: "conv_5a_double_3x3_reduce"
	top: "conv_5a_double_3x3_reduce"
	type: "Scale"
	scale_param {
		filler {
			value: 1
		}
		bias_filler {
			value: 0
		}
				bias_term: true
	}
}

layer {
	name: "relu_5a_double_3x3_reduce"
	type: "ReLU"
	bottom: "conv_5a_double_3x3_reduce"
	top: "conv_5a_double_3x3_reduce"
}

layer {
	name: "conv_5a_double_3x3_0"
	type: "Convolution"
	bottom: "conv_5a_double_3x3_reduce"
	top: "conv_5a_double_3x3_0"
	param {
		lr_mult: 1
		decay_mult: 1
		name: "conv_5a_double_3x3_0_w"
	}
	param {
		lr_mult: 2
		decay_mult: 0
		name: "conv_5a_double_3x3_0_b"
	}
	convolution_param { 
		weight_filler {
			type: "xavier"
		}
		bias_filler {
			type: "constant"
			value: 0.2
		}
		 num_output: 224
		 kernel_size: 3
		 stride: 1
		 pad: 1
	}
}

layer {
	name: "bn_5a_double_3x3_0"
	type: "BatchNorm"
	bottom: "conv_5a_double_3x3_0"
	top: "conv_5a_double_3x3_0"
	batch_norm_param {

	}
}

layer {
	name: "scale_conv_5a_double_3x3_0"
	bottom: "conv_5a_double_3x3_0"
	top: "conv_5a_double_3x3_0"
	type: "Scale"
	scale_param {
		filler {
			value: 1
		}
		bias_filler {
			value: 0
		}
				bias_term: true
	}
}

layer {
	name: "relu_5a_double_3x3_0"
	type: "ReLU"
	bottom: "conv_5a_double_3x3_0"
	top: "conv_5a_double_3x3_0"
}

layer {
	name: "conv_5a_double_3x3_1"
	type: "Convolution"
	bottom: "conv_5a_double_3x3_0"
	top: "conv_5a_double_3x3_1"
	param {
		lr_mult: 1
		decay_mult: 1
		name: "conv_5a_double_3x3_1_w"
	}
	param {
		lr_mult: 2
		decay_mult: 0
		name: "conv_5a_double_3x3_1_b"
	}
	convolution_param { 
		weight_filler {
			type: "xavier"
		}
		bias_filler {
			type: "constant"
			value: 0.2
		}
		 num_output: 224
		 kernel_size: 3
		 stride: 1
		 pad: 1
	}
}

layer {
	name: "bn_5a_double_3x3_1"
	type: "BatchNorm"
	bottom: "conv_5a_double_3x3_1"
	top: "conv_5a_double_3x3_1"
	batch_norm_param {

	}
}

layer {
	name: "scale_conv_5a_double_3x3_1"
	bottom: "conv_5a_double_3x3_1"
	top: "conv_5a_double_3x3_1"
	type: "Scale"
	scale_param {
		filler {
			value: 1
		}
		bias_filler {
			value: 0
		}
				bias_term: true
	}
}

layer {
	name: "relu_5a_double_3x3_1"
	type: "ReLU"
	bottom: "conv_5a_double_3x3_1"
	top: "conv_5a_double_3x3_1"
}

layer {
	name: "ave_pool_5a_pool"
	type: "Pooling"
	bottom: "ch_concat_4e_chconcat"
	top: "ave_pool_5a_pool"
	pooling_param {
		 pool: AVE
		 kernel_size: 3
		 stride: 1
		 pad: 1
	}
}

layer {
	name: "conv_5a_proj"
	type: "Convolution"
	bottom: "ave_pool_5a_pool"
	top: "conv_5a_proj"
	param {
		lr_mult: 1
		decay_mult: 1
		name: "conv_5a_proj_w"
	}
	param {
		lr_mult: 2
		decay_mult: 0
		name: "conv_5a_proj_b"
	}
	convolution_param { 
		weight_filler {
			type: "xavier"
		}
		bias_filler {
			type: "constant"
			value: 0.2
		}
		 num_output: 128
		 kernel_size: 1
		 stride: 1
		 pad: 0
	}
}

layer {
	name: "bn_5a_proj"
	type: "BatchNorm"
	bottom: "conv_5a_proj"
	top: "conv_5a_proj"
	batch_norm_param {

	}
}

layer {
	name: "scale_conv_5a_proj"
	bottom: "conv_5a_proj"
	top: "conv_5a_proj"
	type: "Scale"
	scale_param {
		filler {
			value: 1
		}
		bias_filler {
			value: 0
		}
				bias_term: true
	}
}

layer {
	name: "relu_5a_proj"
	type: "ReLU"
	bottom: "conv_5a_proj"
	top: "conv_5a_proj"
}

layer {
	name: "ch_concat_5a_chconcat"
	type: "Concat"
	bottom: "conv_5a_1x1"
	bottom: "conv_5a_3x3"
	bottom: "conv_5a_double_3x3_1"
	bottom: "conv_5a_proj"
	top: "ch_concat_5a_chconcat"
}

layer {
	name: "conv_5b_1x1"
	type: "Convolution"
	bottom: "ch_concat_5a_chconcat"
	top: "conv_5b_1x1"
	param {
		lr_mult: 1
		decay_mult: 1
		name: "conv_5b_1x1_w"
	}
	param {
		lr_mult: 2
		decay_mult: 0
		name: "conv_5b_1x1_b"
	}
	convolution_param { 
		weight_filler {
			type: "xavier"
		}
		bias_filler {
			type: "constant"
			value: 0.2
		}
		 num_output: 352
		 kernel_size: 1
		 stride: 1
		 pad: 0
	}
}

layer {
	name: "bn_5b_1x1"
	type: "BatchNorm"
	bottom: "conv_5b_1x1"
	top: "conv_5b_1x1"
	batch_norm_param {

	}
}

layer {
	name: "scale_conv_5b_1x1"
	bottom: "conv_5b_1x1"
	top: "conv_5b_1x1"
	type: "Scale"
	scale_param {
		filler {
			value: 1
		}
		bias_filler {
			value: 0
		}
				bias_term: true
	}
}

layer {
	name: "relu_5b_1x1"
	type: "ReLU"
	bottom: "conv_5b_1x1"
	top: "conv_5b_1x1"
}

layer {
	name: "conv_5b_3x3_reduce"
	type: "Convolution"
	bottom: "ch_concat_5a_chconcat"
	top: "conv_5b_3x3_reduce"
	param {
		lr_mult: 1
		decay_mult: 1
		name: "conv_5b_3x3_reduce_w"
	}
	param {
		lr_mult: 2
		decay_mult: 0
		name: "conv_5b_3x3_reduce_b"
	}
	convolution_param { 
		weight_filler {
			type: "xavier"
		}
		bias_filler {
			type: "constant"
			value: 0.2
		}
		 num_output: 192
		 kernel_size: 1
		 stride: 1
		 pad: 0
	}
}

layer {
	name: "bn_5b_3x3_reduce"
	type: "BatchNorm"
	bottom: "conv_5b_3x3_reduce"
	top: "conv_5b_3x3_reduce"
	batch_norm_param {

	}
}

layer {
	name: "scale_conv_5b_3x3_reduce"
	bottom: "conv_5b_3x3_reduce"
	top: "conv_5b_3x3_reduce"
	type: "Scale"
	scale_param {
		filler {
			value: 1
		}
		bias_filler {
			value: 0
		}
				bias_term: true
	}
}

layer {
	name: "relu_5b_3x3_reduce"
	type: "ReLU"
	bottom: "conv_5b_3x3_reduce"
	top: "conv_5b_3x3_reduce"
}

layer {
	name: "conv_5b_3x3"
	type: "Convolution"
	bottom: "conv_5b_3x3_reduce"
	top: "conv_5b_3x3"
	param {
		lr_mult: 1
		decay_mult: 1
		name: "conv_5b_3x3_w"
	}
	param {
		lr_mult: 2
		decay_mult: 0
		name: "conv_5b_3x3_b"
	}
	convolution_param { 
		weight_filler {
			type: "xavier"
		}
		bias_filler {
			type: "constant"
			value: 0.2
		}
		 num_output: 320
		 kernel_size: 3
		 stride: 1
		 pad: 1
	}
}

layer {
	name: "bn_5b_3x3"
	type: "BatchNorm"
	bottom: "conv_5b_3x3"
	top: "conv_5b_3x3"
	batch_norm_param {

	}
}

layer {
	name: "scale_conv_5b_3x3"
	bottom: "conv_5b_3x3"
	top: "conv_5b_3x3"
	type: "Scale"
	scale_param {
		filler {
			value: 1
		}
		bias_filler {
			value: 0
		}
				bias_term: true
	}
}

layer {
	name: "relu_5b_3x3"
	type: "ReLU"
	bottom: "conv_5b_3x3"
	top: "conv_5b_3x3"
}

layer {
	name: "conv_5b_double_3x3_reduce"
	type: "Convolution"
	bottom: "ch_concat_5a_chconcat"
	top: "conv_5b_double_3x3_reduce"
	param {
		lr_mult: 1
		decay_mult: 1
		name: "conv_5b_double_3x3_reduce_w"
	}
	param {
		lr_mult: 2
		decay_mult: 0
		name: "conv_5b_double_3x3_reduce_b"
	}
	convolution_param { 
		weight_filler {
			type: "xavier"
		}
		bias_filler {
			type: "constant"
			value: 0.2
		}
		 num_output: 192
		 kernel_size: 1
		 stride: 1
		 pad: 0
	}
}

layer {
	name: "bn_5b_double_3x3_reduce"
	type: "BatchNorm"
	bottom: "conv_5b_double_3x3_reduce"
	top: "conv_5b_double_3x3_reduce"
	batch_norm_param {

	}
}

layer {
	name: "scale_conv_5b_double_3x3_reduce"
	bottom: "conv_5b_double_3x3_reduce"
	top: "conv_5b_double_3x3_reduce"
	type: "Scale"
	scale_param {
		filler {
			value: 1
		}
		bias_filler {
			value: 0
		}
				bias_term: true
	}
}

layer {
	name: "relu_5b_double_3x3_reduce"
	type: "ReLU"
	bottom: "conv_5b_double_3x3_reduce"
	top: "conv_5b_double_3x3_reduce"
}

layer {
	name: "conv_5b_double_3x3_0"
	type: "Convolution"
	bottom: "conv_5b_double_3x3_reduce"
	top: "conv_5b_double_3x3_0"
	param {
		lr_mult: 1
		decay_mult: 1
		name: "conv_5b_double_3x3_0_w"
	}
	param {
		lr_mult: 2
		decay_mult: 0
		name: "conv_5b_double_3x3_0_b"
	}
	convolution_param { 
		weight_filler {
			type: "xavier"
		}
		bias_filler {
			type: "constant"
			value: 0.2
		}
		 num_output: 224
		 kernel_size: 3
		 stride: 1
		 pad: 1
	}
}

layer {
	name: "bn_5b_double_3x3_0"
	type: "BatchNorm"
	bottom: "conv_5b_double_3x3_0"
	top: "conv_5b_double_3x3_0"
	batch_norm_param {

	}
}

layer {
	name: "scale_conv_5b_double_3x3_0"
	bottom: "conv_5b_double_3x3_0"
	top: "conv_5b_double_3x3_0"
	type: "Scale"
	scale_param {
		filler {
			value: 1
		}
		bias_filler {
			value: 0
		}
				bias_term: true
	}
}

layer {
	name: "relu_5b_double_3x3_0"
	type: "ReLU"
	bottom: "conv_5b_double_3x3_0"
	top: "conv_5b_double_3x3_0"
}

layer {
	name: "conv_5b_double_3x3_1"
	type: "Convolution"
	bottom: "conv_5b_double_3x3_0"
	top: "conv_5b_double_3x3_1"
	param {
		lr_mult: 1
		decay_mult: 1
		name: "conv_5b_double_3x3_1_w"
	}
	param {
		lr_mult: 2
		decay_mult: 0
		name: "conv_5b_double_3x3_1_b"
	}
	convolution_param { 
		weight_filler {
			type: "xavier"
		}
		bias_filler {
			type: "constant"
			value: 0.2
		}
		 num_output: 224
		 kernel_size: 3
		 stride: 1
		 pad: 1
	}
}

layer {
	name: "bn_5b_double_3x3_1"
	type: "BatchNorm"
	bottom: "conv_5b_double_3x3_1"
	top: "conv_5b_double_3x3_1"
	batch_norm_param {

	}
}

layer {
	name: "scale_conv_5b_double_3x3_1"
	bottom: "conv_5b_double_3x3_1"
	top: "conv_5b_double_3x3_1"
	type: "Scale"
	scale_param {
		filler {
			value: 1
		}
		bias_filler {
			value: 0
		}
				bias_term: true
	}
}

layer {
	name: "relu_5b_double_3x3_1"
	type: "ReLU"
	bottom: "conv_5b_double_3x3_1"
	top: "conv_5b_double_3x3_1"
}

layer {
	name: "max_pool_5b_pool"
	type: "Pooling"
	bottom: "ch_concat_5a_chconcat"
	top: "max_pool_5b_pool"
	pooling_param {
		 pool: MAX
		 kernel_size: 3
		 stride: 1
		 pad: 1
	}
}

layer {
	name: "conv_5b_proj"
	type: "Convolution"
	bottom: "max_pool_5b_pool"
	top: "conv_5b_proj"
	param {
		lr_mult: 1
		decay_mult: 1
		name: "conv_5b_proj_w"
	}
	param {
		lr_mult: 2
		decay_mult: 0
		name: "conv_5b_proj_b"
	}
	convolution_param { 
		weight_filler {
			type: "xavier"
		}
		bias_filler {
			type: "constant"
			value: 0.2
		}
		 num_output: 128
		 kernel_size: 1
		 stride: 1
		 pad: 0
	}
}

layer {
	name: "bn_5b_proj"
	type: "BatchNorm"
	bottom: "conv_5b_proj"
	top: "conv_5b_proj"
	batch_norm_param {

	}
}

layer {
	name: "scale_conv_5b_proj"
	bottom: "conv_5b_proj"
	top: "conv_5b_proj"
	type: "Scale"
	scale_param {
		filler {
			value: 1
		}
		bias_filler {
			value: 0
		}
				bias_term: true
	}
}

layer {
	name: "relu_5b_proj"
	type: "ReLU"
	bottom: "conv_5b_proj"
	top: "conv_5b_proj"
}

layer {
	name: "ch_concat_5b_chconcat"
	type: "Concat"
	bottom: "conv_5b_1x1"
	bottom: "conv_5b_3x3"
	bottom: "conv_5b_double_3x3_1"
	bottom: "conv_5b_proj"
	top: "ch_concat_5b_chconcat"
}

# ================================================================================================
# ======== Loss
# ================================================================================================

layer {
	name: "global_pool"
	type: "Pooling"
	bottom: "ch_concat_5b_chconcat"
	top: "global_pool"
	pooling_param {
		 global_pooling : true
		 pool: AVE
	}
}

layer {
	name: "fc1_b"
	type: "InnerProduct"
	bottom: "global_pool"
	top: "fc1_b"
	param {
		lr_mult: 1
		decay_mult: 1
		name: "Loss/InnerProduct_Loss_fc1_w"
	}
	param {
		lr_mult: 2
		decay_mult: 0
		name: "Loss/InnerProduct_Loss_fc1_b"
	}
	inner_product_param {
		num_output: 1000
		weight_filler {
			type: "xavier"
		}
		bias_filler {
			type: "constant"
			value: 0
		}
	}
}

# ================================================================================================
# ================================================================================================
# ======== NETWORK: 2
# ================================================================================================
# ================================================================================================

# ================================================================================================
# ======== conv_conv1
# ================================================================================================

layer {
	name: "conv_conv1_s"
	type: "Convolution"
	bottom: "data_2"
	top: "conv_conv1_s"
	param {
		lr_mult: 1
		decay_mult: 1
		name: "conv_conv1_w"
	}
	param {
		lr_mult: 2
		decay_mult: 0
		name: "conv_conv1_b"
	}
	convolution_param { 
		weight_filler {
			type: "xavier"
		}
		bias_filler {
			type: "constant"
			value: 0.2
		}
		 num_output: 96
		 kernel_size: 7
		 stride: 2
		 pad: 3
	}
}

layer {
	name: "bn_conv1_s"
	type: "BatchNorm"
	bottom: "conv_conv1_s"
	top: "conv_conv1_s"
	batch_norm_param {

	}
}

layer {
	name: "scale_conv_conv1_s"
	bottom: "conv_conv1_s"
	top: "conv_conv1_s"
	type: "Scale"
	scale_param {
		filler {
			value: 1
		}
		bias_filler {
			value: 0
		}
				bias_term: true
	}
}

layer {
	name: "relu_conv1_s"
	type: "ReLU"
	bottom: "conv_conv1_s"
	top: "conv_conv1_s"
}

layer {
	name: "pool1_s"
	type: "Pooling"
	bottom: "conv_conv1_s"
	top: "pool1_s"
	pooling_param {
		 pool: MAX
		 kernel_size: 3
		 stride: 2
		 pad: 0
	}
}

layer {
	name: "conv_conv2red_s"
	type: "Convolution"
	bottom: "pool1_s"
	top: "conv_conv2red_s"
	param {
		lr_mult: 1
		decay_mult: 1
		name: "conv_conv2red_w"
	}
	param {
		lr_mult: 2
		decay_mult: 0
		name: "conv_conv2red_b"
	}
	convolution_param { 
		weight_filler {
			type: "xavier"
		}
		bias_filler {
			type: "constant"
			value: 0.2
		}
		 num_output: 128
		 kernel_size: 1
		 stride: 1
		 pad: 0
	}
}

layer {
	name: "bn_conv2red_s"
	type: "BatchNorm"
	bottom: "conv_conv2red_s"
	top: "conv_conv2red_s"
	batch_norm_param {

	}
}

layer {
	name: "scale_conv_conv2red_s"
	bottom: "conv_conv2red_s"
	top: "conv_conv2red_s"
	type: "Scale"
	scale_param {
		filler {
			value: 1
		}
		bias_filler {
			value: 0
		}
				bias_term: true
	}
}

layer {
	name: "relu_conv2red_s"
	type: "ReLU"
	bottom: "conv_conv2red_s"
	top: "conv_conv2red_s"
}

layer {
	name: "conv_conv2_s"
	type: "Convolution"
	bottom: "conv_conv2red_s"
	top: "conv_conv2_s"
	param {
		lr_mult: 1
		decay_mult: 1
		name: "conv_conv2_w"
	}
	param {
		lr_mult: 2
		decay_mult: 0
		name: "conv_conv2_b"
	}
	convolution_param { 
		weight_filler {
			type: "xavier"
		}
		bias_filler {
			type: "constant"
			value: 0.2
		}
		 num_output: 288
		 kernel_size: 3
		 stride: 1
		 pad: 1
	}
}

layer {
	name: "bn_conv2_s"
	type: "BatchNorm"
	bottom: "conv_conv2_s"
	top: "conv_conv2_s"
	batch_norm_param {

	}
}

layer {
	name: "scale_conv_conv2_s"
	bottom: "conv_conv2_s"
	top: "conv_conv2_s"
	type: "Scale"
	scale_param {
		filler {
			value: 1
		}
		bias_filler {
			value: 0
		}
				bias_term: true
	}
}

layer {
	name: "relu_conv2_s"
	type: "ReLU"
	bottom: "conv_conv2_s"
	top: "conv_conv2_s"
}

layer {
	name: "pool2_s"
	type: "Pooling"
	bottom: "conv_conv2_s"
	top: "pool2_s"
	pooling_param {
		 pool: MAX
		 kernel_size: 3
		 stride: 2
		 pad: 0
	}
}

layer {
	name: "conv_3a_1x1_s"
	type: "Convolution"
	bottom: "pool2_s"
	top: "conv_3a_1x1_s"
	param {
		lr_mult: 1
		decay_mult: 1
		name: "conv_3a_1x1_w"
	}
	param {
		lr_mult: 2
		decay_mult: 0
		name: "conv_3a_1x1_b"
	}
	convolution_param { 
		weight_filler {
			type: "xavier"
		}
		bias_filler {
			type: "constant"
			value: 0.2
		}
		 num_output: 96
		 kernel_size: 1
		 stride: 1
		 pad: 0
	}
}

layer {
	name: "bn_3a_1x1_s"
	type: "BatchNorm"
	bottom: "conv_3a_1x1_s"
	top: "conv_3a_1x1_s"
	batch_norm_param {

	}
}

layer {
	name: "scale_conv_3a_1x1_s"
	bottom: "conv_3a_1x1_s"
	top: "conv_3a_1x1_s"
	type: "Scale"
	scale_param {
		filler {
			value: 1
		}
		bias_filler {
			value: 0
		}
				bias_term: true
	}
}

layer {
	name: "relu_3a_1x1_s"
	type: "ReLU"
	bottom: "conv_3a_1x1_s"
	top: "conv_3a_1x1_s"
}

layer {
	name: "conv_3a_3x3_reduce_s"
	type: "Convolution"
	bottom: "pool2_s"
	top: "conv_3a_3x3_reduce_s"
	param {
		lr_mult: 1
		decay_mult: 1
		name: "conv_3a_3x3_reduce_w"
	}
	param {
		lr_mult: 2
		decay_mult: 0
		name: "conv_3a_3x3_reduce_b"
	}
	convolution_param { 
		weight_filler {
			type: "xavier"
		}
		bias_filler {
			type: "constant"
			value: 0.2
		}
		 num_output: 96
		 kernel_size: 1
		 stride: 1
		 pad: 0
	}
}

layer {
	name: "bn_3a_3x3_reduce_s"
	type: "BatchNorm"
	bottom: "conv_3a_3x3_reduce_s"
	top: "conv_3a_3x3_reduce_s"
	batch_norm_param {

	}
}

layer {
	name: "scale_conv_3a_3x3_reduce_s"
	bottom: "conv_3a_3x3_reduce_s"
	top: "conv_3a_3x3_reduce_s"
	type: "Scale"
	scale_param {
		filler {
			value: 1
		}
		bias_filler {
			value: 0
		}
				bias_term: true
	}
}

layer {
	name: "relu_3a_3x3_reduce_s"
	type: "ReLU"
	bottom: "conv_3a_3x3_reduce_s"
	top: "conv_3a_3x3_reduce_s"
}

layer {
	name: "conv_3a_3x3_s"
	type: "Convolution"
	bottom: "conv_3a_3x3_reduce_s"
	top: "conv_3a_3x3_s"
	param {
		lr_mult: 1
		decay_mult: 1
		name: "conv_3a_3x3_w"
	}
	param {
		lr_mult: 2
		decay_mult: 0
		name: "conv_3a_3x3_b"
	}
	convolution_param { 
		weight_filler {
			type: "xavier"
		}
		bias_filler {
			type: "constant"
			value: 0.2
		}
		 num_output: 96
		 kernel_size: 3
		 stride: 1
		 pad: 1
	}
}

layer {
	name: "bn_3a_3x3_s"
	type: "BatchNorm"
	bottom: "conv_3a_3x3_s"
	top: "conv_3a_3x3_s"
	batch_norm_param {

	}
}

layer {
	name: "scale_conv_3a_3x3_s"
	bottom: "conv_3a_3x3_s"
	top: "conv_3a_3x3_s"
	type: "Scale"
	scale_param {
		filler {
			value: 1
		}
		bias_filler {
			value: 0
		}
				bias_term: true
	}
}

layer {
	name: "relu_3a_3x3_s"
	type: "ReLU"
	bottom: "conv_3a_3x3_s"
	top: "conv_3a_3x3_s"
}

layer {
	name: "conv_3a_double_3x3_reduce_s"
	type: "Convolution"
	bottom: "pool2_s"
	top: "conv_3a_double_3x3_reduce_s"
	param {
		lr_mult: 1
		decay_mult: 1
		name: "conv_3a_double_3x3_reduce_w"
	}
	param {
		lr_mult: 2
		decay_mult: 0
		name: "conv_3a_double_3x3_reduce_b"
	}
	convolution_param { 
		weight_filler {
			type: "xavier"
		}
		bias_filler {
			type: "constant"
			value: 0.2
		}
		 num_output: 96
		 kernel_size: 1
		 stride: 1
		 pad: 0
	}
}

layer {
	name: "bn_3a_double_3x3_reduce_s"
	type: "BatchNorm"
	bottom: "conv_3a_double_3x3_reduce_s"
	top: "conv_3a_double_3x3_reduce_s"
	batch_norm_param {

	}
}

layer {
	name: "scale_conv_3a_double_3x3_reduce_s"
	bottom: "conv_3a_double_3x3_reduce_s"
	top: "conv_3a_double_3x3_reduce_s"
	type: "Scale"
	scale_param {
		filler {
			value: 1
		}
		bias_filler {
			value: 0
		}
				bias_term: true
	}
}

layer {
	name: "relu_3a_double_3x3_reduce_s"
	type: "ReLU"
	bottom: "conv_3a_double_3x3_reduce_s"
	top: "conv_3a_double_3x3_reduce_s"
}

layer {
	name: "conv_3a_double_3x3_0_s"
	type: "Convolution"
	bottom: "conv_3a_double_3x3_reduce_s"
	top: "conv_3a_double_3x3_0_s"
	param {
		lr_mult: 1
		decay_mult: 1
		name: "conv_3a_double_3x3_0_w"
	}
	param {
		lr_mult: 2
		decay_mult: 0
		name: "conv_3a_double_3x3_0_b"
	}
	convolution_param { 
		weight_filler {
			type: "xavier"
		}
		bias_filler {
			type: "constant"
			value: 0.2
		}
		 num_output: 144
		 kernel_size: 3
		 stride: 1
		 pad: 1
	}
}

layer {
	name: "bn_3a_double_3x3_0_s"
	type: "BatchNorm"
	bottom: "conv_3a_double_3x3_0_s"
	top: "conv_3a_double_3x3_0_s"
	batch_norm_param {

	}
}

layer {
	name: "scale_conv_3a_double_3x3_0_s"
	bottom: "conv_3a_double_3x3_0_s"
	top: "conv_3a_double_3x3_0_s"
	type: "Scale"
	scale_param {
		filler {
			value: 1
		}
		bias_filler {
			value: 0
		}
				bias_term: true
	}
}

layer {
	name: "relu_3a_double_3x3_0_s"
	type: "ReLU"
	bottom: "conv_3a_double_3x3_0_s"
	top: "conv_3a_double_3x3_0_s"
}

layer {
	name: "conv_3a_double_3x3_1_s"
	type: "Convolution"
	bottom: "conv_3a_double_3x3_0_s"
	top: "conv_3a_double_3x3_1_s"
	param {
		lr_mult: 1
		decay_mult: 1
		name: "conv_3a_double_3x3_1_w"
	}
	param {
		lr_mult: 2
		decay_mult: 0
		name: "conv_3a_double_3x3_1_b"
	}
	convolution_param { 
		weight_filler {
			type: "xavier"
		}
		bias_filler {
			type: "constant"
			value: 0.2
		}
		 num_output: 144
		 kernel_size: 3
		 stride: 1
		 pad: 1
	}
}

layer {
	name: "bn_3a_double_3x3_1_s"
	type: "BatchNorm"
	bottom: "conv_3a_double_3x3_1_s"
	top: "conv_3a_double_3x3_1_s"
	batch_norm_param {

	}
}

layer {
	name: "scale_conv_3a_double_3x3_1_s"
	bottom: "conv_3a_double_3x3_1_s"
	top: "conv_3a_double_3x3_1_s"
	type: "Scale"
	scale_param {
		filler {
			value: 1
		}
		bias_filler {
			value: 0
		}
				bias_term: true
	}
}

layer {
	name: "relu_3a_double_3x3_1_s"
	type: "ReLU"
	bottom: "conv_3a_double_3x3_1_s"
	top: "conv_3a_double_3x3_1_s"
}

layer {
	name: "ave_pool_3a_pool_s"
	type: "Pooling"
	bottom: "pool2_s"
	top: "ave_pool_3a_pool_s"
	pooling_param {
		 pool: AVE
		 kernel_size: 3
		 stride: 1
		 pad: 1
	}
}

layer {
	name: "conv_3a_proj_s"
	type: "Convolution"
	bottom: "ave_pool_3a_pool_s"
	top: "conv_3a_proj_s"
	param {
		lr_mult: 1
		decay_mult: 1
		name: "conv_3a_proj_w"
	}
	param {
		lr_mult: 2
		decay_mult: 0
		name: "conv_3a_proj_b"
	}
	convolution_param { 
		weight_filler {
			type: "xavier"
		}
		bias_filler {
			type: "constant"
			value: 0.2
		}
		 num_output: 48
		 kernel_size: 1
		 stride: 1
		 pad: 0
	}
}

layer {
	name: "bn_3a_proj_s"
	type: "BatchNorm"
	bottom: "conv_3a_proj_s"
	top: "conv_3a_proj_s"
	batch_norm_param {

	}
}

layer {
	name: "scale_conv_3a_proj_s"
	bottom: "conv_3a_proj_s"
	top: "conv_3a_proj_s"
	type: "Scale"
	scale_param {
		filler {
			value: 1
		}
		bias_filler {
			value: 0
		}
				bias_term: true
	}
}

layer {
	name: "relu_3a_proj_s"
	type: "ReLU"
	bottom: "conv_3a_proj_s"
	top: "conv_3a_proj_s"
}

layer {
	name: "ch_concat_3a_chconcat_s"
	type: "Concat"
	bottom: "conv_3a_1x1_s"
	bottom: "conv_3a_3x3_s"
	bottom: "conv_3a_double_3x3_1_s"
	bottom: "conv_3a_proj_s"
	top: "ch_concat_3a_chconcat_s"
}

layer {
	name: "conv_3b_1x1_s"
	type: "Convolution"
	bottom: "ch_concat_3a_chconcat_s"
	top: "conv_3b_1x1_s"
	param {
		lr_mult: 1
		decay_mult: 1
		name: "conv_3b_1x1_w"
	}
	param {
		lr_mult: 2
		decay_mult: 0
		name: "conv_3b_1x1_b"
	}
	convolution_param { 
		weight_filler {
			type: "xavier"
		}
		bias_filler {
			type: "constant"
			value: 0.2
		}
		 num_output: 96
		 kernel_size: 1
		 stride: 1
		 pad: 0
	}
}

layer {
	name: "bn_3b_1x1_s"
	type: "BatchNorm"
	bottom: "conv_3b_1x1_s"
	top: "conv_3b_1x1_s"
	batch_norm_param {

	}
}

layer {
	name: "scale_conv_3b_1x1_s"
	bottom: "conv_3b_1x1_s"
	top: "conv_3b_1x1_s"
	type: "Scale"
	scale_param {
		filler {
			value: 1
		}
		bias_filler {
			value: 0
		}
				bias_term: true
	}
}

layer {
	name: "relu_3b_1x1_s"
	type: "ReLU"
	bottom: "conv_3b_1x1_s"
	top: "conv_3b_1x1_s"
}

layer {
	name: "conv_3b_3x3_reduce_s"
	type: "Convolution"
	bottom: "ch_concat_3a_chconcat_s"
	top: "conv_3b_3x3_reduce_s"
	param {
		lr_mult: 1
		decay_mult: 1
		name: "conv_3b_3x3_reduce_w"
	}
	param {
		lr_mult: 2
		decay_mult: 0
		name: "conv_3b_3x3_reduce_b"
	}
	convolution_param { 
		weight_filler {
			type: "xavier"
		}
		bias_filler {
			type: "constant"
			value: 0.2
		}
		 num_output: 96
		 kernel_size: 1
		 stride: 1
		 pad: 0
	}
}

layer {
	name: "bn_3b_3x3_reduce_s"
	type: "BatchNorm"
	bottom: "conv_3b_3x3_reduce_s"
	top: "conv_3b_3x3_reduce_s"
	batch_norm_param {

	}
}

layer {
	name: "scale_conv_3b_3x3_reduce_s"
	bottom: "conv_3b_3x3_reduce_s"
	top: "conv_3b_3x3_reduce_s"
	type: "Scale"
	scale_param {
		filler {
			value: 1
		}
		bias_filler {
			value: 0
		}
				bias_term: true
	}
}

layer {
	name: "relu_3b_3x3_reduce_s"
	type: "ReLU"
	bottom: "conv_3b_3x3_reduce_s"
	top: "conv_3b_3x3_reduce_s"
}

layer {
	name: "conv_3b_3x3_s"
	type: "Convolution"
	bottom: "conv_3b_3x3_reduce_s"
	top: "conv_3b_3x3_s"
	param {
		lr_mult: 1
		decay_mult: 1
		name: "conv_3b_3x3_w"
	}
	param {
		lr_mult: 2
		decay_mult: 0
		name: "conv_3b_3x3_b"
	}
	convolution_param { 
		weight_filler {
			type: "xavier"
		}
		bias_filler {
			type: "constant"
			value: 0.2
		}
		 num_output: 144
		 kernel_size: 3
		 stride: 1
		 pad: 1
	}
}

layer {
	name: "bn_3b_3x3_s"
	type: "BatchNorm"
	bottom: "conv_3b_3x3_s"
	top: "conv_3b_3x3_s"
	batch_norm_param {

	}
}

layer {
	name: "scale_conv_3b_3x3_s"
	bottom: "conv_3b_3x3_s"
	top: "conv_3b_3x3_s"
	type: "Scale"
	scale_param {
		filler {
			value: 1
		}
		bias_filler {
			value: 0
		}
				bias_term: true
	}
}

layer {
	name: "relu_3b_3x3_s"
	type: "ReLU"
	bottom: "conv_3b_3x3_s"
	top: "conv_3b_3x3_s"
}

layer {
	name: "conv_3b_double_3x3_reduce_s"
	type: "Convolution"
	bottom: "ch_concat_3a_chconcat_s"
	top: "conv_3b_double_3x3_reduce_s"
	param {
		lr_mult: 1
		decay_mult: 1
		name: "conv_3b_double_3x3_reduce_w"
	}
	param {
		lr_mult: 2
		decay_mult: 0
		name: "conv_3b_double_3x3_reduce_b"
	}
	convolution_param { 
		weight_filler {
			type: "xavier"
		}
		bias_filler {
			type: "constant"
			value: 0.2
		}
		 num_output: 96
		 kernel_size: 1
		 stride: 1
		 pad: 0
	}
}

layer {
	name: "bn_3b_double_3x3_reduce_s"
	type: "BatchNorm"
	bottom: "conv_3b_double_3x3_reduce_s"
	top: "conv_3b_double_3x3_reduce_s"
	batch_norm_param {

	}
}

layer {
	name: "scale_conv_3b_double_3x3_reduce_s"
	bottom: "conv_3b_double_3x3_reduce_s"
	top: "conv_3b_double_3x3_reduce_s"
	type: "Scale"
	scale_param {
		filler {
			value: 1
		}
		bias_filler {
			value: 0
		}
				bias_term: true
	}
}

layer {
	name: "relu_3b_double_3x3_reduce_s"
	type: "ReLU"
	bottom: "conv_3b_double_3x3_reduce_s"
	top: "conv_3b_double_3x3_reduce_s"
}

layer {
	name: "conv_3b_double_3x3_0_s"
	type: "Convolution"
	bottom: "conv_3b_double_3x3_reduce_s"
	top: "conv_3b_double_3x3_0_s"
	param {
		lr_mult: 1
		decay_mult: 1
		name: "conv_3b_double_3x3_0_w"
	}
	param {
		lr_mult: 2
		decay_mult: 0
		name: "conv_3b_double_3x3_0_b"
	}
	convolution_param { 
		weight_filler {
			type: "xavier"
		}
		bias_filler {
			type: "constant"
			value: 0.2
		}
		 num_output: 144
		 kernel_size: 3
		 stride: 1
		 pad: 1
	}
}

layer {
	name: "bn_3b_double_3x3_0_s"
	type: "BatchNorm"
	bottom: "conv_3b_double_3x3_0_s"
	top: "conv_3b_double_3x3_0_s"
	batch_norm_param {

	}
}

layer {
	name: "scale_conv_3b_double_3x3_0_s"
	bottom: "conv_3b_double_3x3_0_s"
	top: "conv_3b_double_3x3_0_s"
	type: "Scale"
	scale_param {
		filler {
			value: 1
		}
		bias_filler {
			value: 0
		}
				bias_term: true
	}
}

layer {
	name: "relu_3b_double_3x3_0_s"
	type: "ReLU"
	bottom: "conv_3b_double_3x3_0_s"
	top: "conv_3b_double_3x3_0_s"
}

layer {
	name: "conv_3b_double_3x3_1_s"
	type: "Convolution"
	bottom: "conv_3b_double_3x3_0_s"
	top: "conv_3b_double_3x3_1_s"
	param {
		lr_mult: 1
		decay_mult: 1
		name: "conv_3b_double_3x3_1_w"
	}
	param {
		lr_mult: 2
		decay_mult: 0
		name: "conv_3b_double_3x3_1_b"
	}
	convolution_param { 
		weight_filler {
			type: "xavier"
		}
		bias_filler {
			type: "constant"
			value: 0.2
		}
		 num_output: 144
		 kernel_size: 3
		 stride: 1
		 pad: 1
	}
}

layer {
	name: "bn_3b_double_3x3_1_s"
	type: "BatchNorm"
	bottom: "conv_3b_double_3x3_1_s"
	top: "conv_3b_double_3x3_1_s"
	batch_norm_param {

	}
}

layer {
	name: "scale_conv_3b_double_3x3_1_s"
	bottom: "conv_3b_double_3x3_1_s"
	top: "conv_3b_double_3x3_1_s"
	type: "Scale"
	scale_param {
		filler {
			value: 1
		}
		bias_filler {
			value: 0
		}
				bias_term: true
	}
}

layer {
	name: "relu_3b_double_3x3_1_s"
	type: "ReLU"
	bottom: "conv_3b_double_3x3_1_s"
	top: "conv_3b_double_3x3_1_s"
}

layer {
	name: "ave_pool_3b_pool_s"
	type: "Pooling"
	bottom: "ch_concat_3a_chconcat_s"
	top: "ave_pool_3b_pool_s"
	pooling_param {
		 pool: AVE
		 kernel_size: 3
		 stride: 1
		 pad: 1
	}
}

layer {
	name: "conv_3b_proj_s"
	type: "Convolution"
	bottom: "ave_pool_3b_pool_s"
	top: "conv_3b_proj_s"
	param {
		lr_mult: 1
		decay_mult: 1
		name: "conv_3b_proj_w"
	}
	param {
		lr_mult: 2
		decay_mult: 0
		name: "conv_3b_proj_b"
	}
	convolution_param { 
		weight_filler {
			type: "xavier"
		}
		bias_filler {
			type: "constant"
			value: 0.2
		}
		 num_output: 96
		 kernel_size: 1
		 stride: 1
		 pad: 0
	}
}

layer {
	name: "bn_3b_proj_s"
	type: "BatchNorm"
	bottom: "conv_3b_proj_s"
	top: "conv_3b_proj_s"
	batch_norm_param {

	}
}

layer {
	name: "scale_conv_3b_proj_s"
	bottom: "conv_3b_proj_s"
	top: "conv_3b_proj_s"
	type: "Scale"
	scale_param {
		filler {
			value: 1
		}
		bias_filler {
			value: 0
		}
				bias_term: true
	}
}

layer {
	name: "relu_3b_proj_s"
	type: "ReLU"
	bottom: "conv_3b_proj_s"
	top: "conv_3b_proj_s"
}

layer {
	name: "ch_concat_3b_chconcat_s"
	type: "Concat"
	bottom: "conv_3b_1x1_s"
	bottom: "conv_3b_3x3_s"
	bottom: "conv_3b_double_3x3_1_s"
	bottom: "conv_3b_proj_s"
	top: "ch_concat_3b_chconcat_s"
}

layer {
	name: "conv_3c_3x3_reduce_s"
	type: "Convolution"
	bottom: "ch_concat_3b_chconcat_s"
	top: "conv_3c_3x3_reduce_s"
	param {
		lr_mult: 1
		decay_mult: 1
		name: "conv_3c_3x3_reduce_w"
	}
	param {
		lr_mult: 2
		decay_mult: 0
		name: "conv_3c_3x3_reduce_b"
	}
	convolution_param { 
		weight_filler {
			type: "xavier"
		}
		bias_filler {
			type: "constant"
			value: 0.2
		}
		 num_output: 192
		 kernel_size: 1
		 stride: 1
		 pad: 0
	}
}

layer {
	name: "bn_3c_3x3_reduce_s"
	type: "BatchNorm"
	bottom: "conv_3c_3x3_reduce_s"
	top: "conv_3c_3x3_reduce_s"
	batch_norm_param {

	}
}

layer {
	name: "scale_conv_3c_3x3_reduce_s"
	bottom: "conv_3c_3x3_reduce_s"
	top: "conv_3c_3x3_reduce_s"
	type: "Scale"
	scale_param {
		filler {
			value: 1
		}
		bias_filler {
			value: 0
		}
				bias_term: true
	}
}

layer {
	name: "relu_3c_3x3_reduce_s"
	type: "ReLU"
	bottom: "conv_3c_3x3_reduce_s"
	top: "conv_3c_3x3_reduce_s"
}

layer {
	name: "conv_3c_3x3_s"
	type: "Convolution"
	bottom: "conv_3c_3x3_reduce_s"
	top: "conv_3c_3x3_s"
	param {
		lr_mult: 1
		decay_mult: 1
		name: "conv_3c_3x3_w"
	}
	param {
		lr_mult: 2
		decay_mult: 0
		name: "conv_3c_3x3_b"
	}
	convolution_param { 
		weight_filler {
			type: "xavier"
		}
		bias_filler {
			type: "constant"
			value: 0.2
		}
		 num_output: 240
		 kernel_size: 3
		 stride: 2
		 pad: 1
	}
}

layer {
	name: "bn_3c_3x3_s"
	type: "BatchNorm"
	bottom: "conv_3c_3x3_s"
	top: "conv_3c_3x3_s"
	batch_norm_param {

	}
}

layer {
	name: "scale_conv_3c_3x3_s"
	bottom: "conv_3c_3x3_s"
	top: "conv_3c_3x3_s"
	type: "Scale"
	scale_param {
		filler {
			value: 1
		}
		bias_filler {
			value: 0
		}
				bias_term: true
	}
}

layer {
	name: "relu_3c_3x3_s"
	type: "ReLU"
	bottom: "conv_3c_3x3_s"
	top: "conv_3c_3x3_s"
}

layer {
	name: "conv_3c_double_3x3_reduce_s"
	type: "Convolution"
	bottom: "ch_concat_3b_chconcat_s"
	top: "conv_3c_double_3x3_reduce_s"
	param {
		lr_mult: 1
		decay_mult: 1
		name: "conv_3c_double_3x3_reduce_w"
	}
	param {
		lr_mult: 2
		decay_mult: 0
		name: "conv_3c_double_3x3_reduce_b"
	}
	convolution_param { 
		weight_filler {
			type: "xavier"
		}
		bias_filler {
			type: "constant"
			value: 0.2
		}
		 num_output: 96
		 kernel_size: 1
		 stride: 1
		 pad: 0
	}
}

layer {
	name: "bn_3c_double_3x3_reduce_s"
	type: "BatchNorm"
	bottom: "conv_3c_double_3x3_reduce_s"
	top: "conv_3c_double_3x3_reduce_s"
	batch_norm_param {

	}
}

layer {
	name: "scale_conv_3c_double_3x3_reduce_s"
	bottom: "conv_3c_double_3x3_reduce_s"
	top: "conv_3c_double_3x3_reduce_s"
	type: "Scale"
	scale_param {
		filler {
			value: 1
		}
		bias_filler {
			value: 0
		}
				bias_term: true
	}
}

layer {
	name: "relu_3c_double_3x3_reduce_s"
	type: "ReLU"
	bottom: "conv_3c_double_3x3_reduce_s"
	top: "conv_3c_double_3x3_reduce_s"
}

layer {
	name: "conv_3c_double_3x3_0_s"
	type: "Convolution"
	bottom: "conv_3c_double_3x3_reduce_s"
	top: "conv_3c_double_3x3_0_s"
	param {
		lr_mult: 1
		decay_mult: 1
		name: "conv_3c_double_3x3_0_w"
	}
	param {
		lr_mult: 2
		decay_mult: 0
		name: "conv_3c_double_3x3_0_b"
	}
	convolution_param { 
		weight_filler {
			type: "xavier"
		}
		bias_filler {
			type: "constant"
			value: 0.2
		}
		 num_output: 144
		 kernel_size: 3
		 stride: 1
		 pad: 1
	}
}

layer {
	name: "bn_3c_double_3x3_0_s"
	type: "BatchNorm"
	bottom: "conv_3c_double_3x3_0_s"
	top: "conv_3c_double_3x3_0_s"
	batch_norm_param {

	}
}

layer {
	name: "scale_conv_3c_double_3x3_0_s"
	bottom: "conv_3c_double_3x3_0_s"
	top: "conv_3c_double_3x3_0_s"
	type: "Scale"
	scale_param {
		filler {
			value: 1
		}
		bias_filler {
			value: 0
		}
				bias_term: true
	}
}

layer {
	name: "relu_3c_double_3x3_0_s"
	type: "ReLU"
	bottom: "conv_3c_double_3x3_0_s"
	top: "conv_3c_double_3x3_0_s"
}

layer {
	name: "conv_3c_double_3x3_1_s"
	type: "Convolution"
	bottom: "conv_3c_double_3x3_0_s"
	top: "conv_3c_double_3x3_1_s"
	param {
		lr_mult: 1
		decay_mult: 1
		name: "conv_3c_double_3x3_1_w"
	}
	param {
		lr_mult: 2
		decay_mult: 0
		name: "conv_3c_double_3x3_1_b"
	}
	convolution_param { 
		weight_filler {
			type: "xavier"
		}
		bias_filler {
			type: "constant"
			value: 0.2
		}
		 num_output: 144
		 kernel_size: 3
		 stride: 2
		 pad: 1
	}
}

layer {
	name: "bn_3c_double_3x3_1_s"
	type: "BatchNorm"
	bottom: "conv_3c_double_3x3_1_s"
	top: "conv_3c_double_3x3_1_s"
	batch_norm_param {

	}
}

layer {
	name: "scale_conv_3c_double_3x3_1_s"
	bottom: "conv_3c_double_3x3_1_s"
	top: "conv_3c_double_3x3_1_s"
	type: "Scale"
	scale_param {
		filler {
			value: 1
		}
		bias_filler {
			value: 0
		}
				bias_term: true
	}
}

layer {
	name: "relu_3c_double_3x3_1_s"
	type: "ReLU"
	bottom: "conv_3c_double_3x3_1_s"
	top: "conv_3c_double_3x3_1_s"
}

layer {
	name: "max_pool_3c_pool_s"
	type: "Pooling"
	bottom: "ch_concat_3b_chconcat_s"
	top: "max_pool_3c_pool_s"
	pooling_param {
		 pool: MAX
		 kernel_size: 3
		 stride: 2
		 pad: 0
	}
}

layer {
	name: "ch_concat_3c_chconcat_s"
	type: "Concat"
	bottom: "conv_3c_3x3_s"
	bottom: "conv_3c_double_3x3_1_s"
	bottom: "max_pool_3c_pool_s"
	top: "ch_concat_3c_chconcat_s"
}

layer {
	name: "conv_4a_1x1_s"
	type: "Convolution"
	bottom: "ch_concat_3c_chconcat_s"
	top: "conv_4a_1x1_s"
	param {
		lr_mult: 1
		decay_mult: 1
		name: "conv_4a_1x1_w"
	}
	param {
		lr_mult: 2
		decay_mult: 0
		name: "conv_4a_1x1_b"
	}
	convolution_param { 
		weight_filler {
			type: "xavier"
		}
		bias_filler {
			type: "constant"
			value: 0.2
		}
		 num_output: 224
		 kernel_size: 1
		 stride: 1
		 pad: 0
	}
}

layer {
	name: "bn_4a_1x1_s"
	type: "BatchNorm"
	bottom: "conv_4a_1x1_s"
	top: "conv_4a_1x1_s"
	batch_norm_param {

	}
}

layer {
	name: "scale_conv_4a_1x1_s"
	bottom: "conv_4a_1x1_s"
	top: "conv_4a_1x1_s"
	type: "Scale"
	scale_param {
		filler {
			value: 1
		}
		bias_filler {
			value: 0
		}
				bias_term: true
	}
}

layer {
	name: "relu_4a_1x1_s"
	type: "ReLU"
	bottom: "conv_4a_1x1_s"
	top: "conv_4a_1x1_s"
}

layer {
	name: "conv_4a_3x3_reduce_s"
	type: "Convolution"
	bottom: "ch_concat_3c_chconcat_s"
	top: "conv_4a_3x3_reduce_s"
	param {
		lr_mult: 1
		decay_mult: 1
		name: "conv_4a_3x3_reduce_w"
	}
	param {
		lr_mult: 2
		decay_mult: 0
		name: "conv_4a_3x3_reduce_b"
	}
	convolution_param { 
		weight_filler {
			type: "xavier"
		}
		bias_filler {
			type: "constant"
			value: 0.2
		}
		 num_output: 64
		 kernel_size: 1
		 stride: 1
		 pad: 0
	}
}

layer {
	name: "bn_4a_3x3_reduce_s"
	type: "BatchNorm"
	bottom: "conv_4a_3x3_reduce_s"
	top: "conv_4a_3x3_reduce_s"
	batch_norm_param {

	}
}

layer {
	name: "scale_conv_4a_3x3_reduce_s"
	bottom: "conv_4a_3x3_reduce_s"
	top: "conv_4a_3x3_reduce_s"
	type: "Scale"
	scale_param {
		filler {
			value: 1
		}
		bias_filler {
			value: 0
		}
				bias_term: true
	}
}

layer {
	name: "relu_4a_3x3_reduce_s"
	type: "ReLU"
	bottom: "conv_4a_3x3_reduce_s"
	top: "conv_4a_3x3_reduce_s"
}

layer {
	name: "conv_4a_3x3_s"
	type: "Convolution"
	bottom: "conv_4a_3x3_reduce_s"
	top: "conv_4a_3x3_s"
	param {
		lr_mult: 1
		decay_mult: 1
		name: "conv_4a_3x3_w"
	}
	param {
		lr_mult: 2
		decay_mult: 0
		name: "conv_4a_3x3_b"
	}
	convolution_param { 
		weight_filler {
			type: "xavier"
		}
		bias_filler {
			type: "constant"
			value: 0.2
		}
		 num_output: 96
		 kernel_size: 3
		 stride: 1
		 pad: 1
	}
}

layer {
	name: "bn_4a_3x3_s"
	type: "BatchNorm"
	bottom: "conv_4a_3x3_s"
	top: "conv_4a_3x3_s"
	batch_norm_param {

	}
}

layer {
	name: "scale_conv_4a_3x3_s"
	bottom: "conv_4a_3x3_s"
	top: "conv_4a_3x3_s"
	type: "Scale"
	scale_param {
		filler {
			value: 1
		}
		bias_filler {
			value: 0
		}
				bias_term: true
	}
}

layer {
	name: "relu_4a_3x3_s"
	type: "ReLU"
	bottom: "conv_4a_3x3_s"
	top: "conv_4a_3x3_s"
}

layer {
	name: "conv_4a_double_3x3_reduce_s"
	type: "Convolution"
	bottom: "ch_concat_3c_chconcat_s"
	top: "conv_4a_double_3x3_reduce_s"
	param {
		lr_mult: 1
		decay_mult: 1
		name: "conv_4a_double_3x3_reduce_w"
	}
	param {
		lr_mult: 2
		decay_mult: 0
		name: "conv_4a_double_3x3_reduce_b"
	}
	convolution_param { 
		weight_filler {
			type: "xavier"
		}
		bias_filler {
			type: "constant"
			value: 0.2
		}
		 num_output: 96
		 kernel_size: 1
		 stride: 1
		 pad: 0
	}
}

layer {
	name: "bn_4a_double_3x3_reduce_s"
	type: "BatchNorm"
	bottom: "conv_4a_double_3x3_reduce_s"
	top: "conv_4a_double_3x3_reduce_s"
	batch_norm_param {

	}
}

layer {
	name: "scale_conv_4a_double_3x3_reduce_s"
	bottom: "conv_4a_double_3x3_reduce_s"
	top: "conv_4a_double_3x3_reduce_s"
	type: "Scale"
	scale_param {
		filler {
			value: 1
		}
		bias_filler {
			value: 0
		}
				bias_term: true
	}
}

layer {
	name: "relu_4a_double_3x3_reduce_s"
	type: "ReLU"
	bottom: "conv_4a_double_3x3_reduce_s"
	top: "conv_4a_double_3x3_reduce_s"
}

layer {
	name: "conv_4a_double_3x3_0_s"
	type: "Convolution"
	bottom: "conv_4a_double_3x3_reduce_s"
	top: "conv_4a_double_3x3_0_s"
	param {
		lr_mult: 1
		decay_mult: 1
		name: "conv_4a_double_3x3_0_w"
	}
	param {
		lr_mult: 2
		decay_mult: 0
		name: "conv_4a_double_3x3_0_b"
	}
	convolution_param { 
		weight_filler {
			type: "xavier"
		}
		bias_filler {
			type: "constant"
			value: 0.2
		}
		 num_output: 128
		 kernel_size: 3
		 stride: 1
		 pad: 1
	}
}

layer {
	name: "bn_4a_double_3x3_0_s"
	type: "BatchNorm"
	bottom: "conv_4a_double_3x3_0_s"
	top: "conv_4a_double_3x3_0_s"
	batch_norm_param {

	}
}

layer {
	name: "scale_conv_4a_double_3x3_0_s"
	bottom: "conv_4a_double_3x3_0_s"
	top: "conv_4a_double_3x3_0_s"
	type: "Scale"
	scale_param {
		filler {
			value: 1
		}
		bias_filler {
			value: 0
		}
				bias_term: true
	}
}

layer {
	name: "relu_4a_double_3x3_0_s"
	type: "ReLU"
	bottom: "conv_4a_double_3x3_0_s"
	top: "conv_4a_double_3x3_0_s"
}

layer {
	name: "conv_4a_double_3x3_1_s"
	type: "Convolution"
	bottom: "conv_4a_double_3x3_0_s"
	top: "conv_4a_double_3x3_1_s"
	param {
		lr_mult: 1
		decay_mult: 1
		name: "conv_4a_double_3x3_1_w"
	}
	param {
		lr_mult: 2
		decay_mult: 0
		name: "conv_4a_double_3x3_1_b"
	}
	convolution_param { 
		weight_filler {
			type: "xavier"
		}
		bias_filler {
			type: "constant"
			value: 0.2
		}
		 num_output: 128
		 kernel_size: 3
		 stride: 1
		 pad: 1
	}
}

layer {
	name: "bn_4a_double_3x3_1_s"
	type: "BatchNorm"
	bottom: "conv_4a_double_3x3_1_s"
	top: "conv_4a_double_3x3_1_s"
	batch_norm_param {

	}
}

layer {
	name: "scale_conv_4a_double_3x3_1_s"
	bottom: "conv_4a_double_3x3_1_s"
	top: "conv_4a_double_3x3_1_s"
	type: "Scale"
	scale_param {
		filler {
			value: 1
		}
		bias_filler {
			value: 0
		}
				bias_term: true
	}
}

layer {
	name: "relu_4a_double_3x3_1_s"
	type: "ReLU"
	bottom: "conv_4a_double_3x3_1_s"
	top: "conv_4a_double_3x3_1_s"
}

layer {
	name: "ave_pool_4a_pool_s"
	type: "Pooling"
	bottom: "ch_concat_3c_chconcat_s"
	top: "ave_pool_4a_pool_s"
	pooling_param {
		 pool: AVE
		 kernel_size: 3
		 stride: 1
		 pad: 1
	}
}

layer {
	name: "conv_4a_proj_s"
	type: "Convolution"
	bottom: "ave_pool_4a_pool_s"
	top: "conv_4a_proj_s"
	param {
		lr_mult: 1
		decay_mult: 1
		name: "conv_4a_proj_w"
	}
	param {
		lr_mult: 2
		decay_mult: 0
		name: "conv_4a_proj_b"
	}
	convolution_param { 
		weight_filler {
			type: "xavier"
		}
		bias_filler {
			type: "constant"
			value: 0.2
		}
		 num_output: 128
		 kernel_size: 1
		 stride: 1
		 pad: 0
	}
}

layer {
	name: "bn_4a_proj_s"
	type: "BatchNorm"
	bottom: "conv_4a_proj_s"
	top: "conv_4a_proj_s"
	batch_norm_param {

	}
}

layer {
	name: "scale_conv_4a_proj_s"
	bottom: "conv_4a_proj_s"
	top: "conv_4a_proj_s"
	type: "Scale"
	scale_param {
		filler {
			value: 1
		}
		bias_filler {
			value: 0
		}
				bias_term: true
	}
}

layer {
	name: "relu_4a_proj_s"
	type: "ReLU"
	bottom: "conv_4a_proj_s"
	top: "conv_4a_proj_s"
}

layer {
	name: "ch_concat_4a_chconcat_s"
	type: "Concat"
	bottom: "conv_4a_1x1_s"
	bottom: "conv_4a_3x3_s"
	bottom: "conv_4a_double_3x3_1_s"
	bottom: "conv_4a_proj_s"
	top: "ch_concat_4a_chconcat_s"
}

layer {
	name: "conv_4b_1x1_s"
	type: "Convolution"
	bottom: "ch_concat_4a_chconcat_s"
	top: "conv_4b_1x1_s"
	param {
		lr_mult: 1
		decay_mult: 1
		name: "conv_4b_1x1_w"
	}
	param {
		lr_mult: 2
		decay_mult: 0
		name: "conv_4b_1x1_b"
	}
	convolution_param { 
		weight_filler {
			type: "xavier"
		}
		bias_filler {
			type: "constant"
			value: 0.2
		}
		 num_output: 192
		 kernel_size: 1
		 stride: 1
		 pad: 0
	}
}

layer {
	name: "bn_4b_1x1_s"
	type: "BatchNorm"
	bottom: "conv_4b_1x1_s"
	top: "conv_4b_1x1_s"
	batch_norm_param {

	}
}

layer {
	name: "scale_conv_4b_1x1_s"
	bottom: "conv_4b_1x1_s"
	top: "conv_4b_1x1_s"
	type: "Scale"
	scale_param {
		filler {
			value: 1
		}
		bias_filler {
			value: 0
		}
				bias_term: true
	}
}

layer {
	name: "relu_4b_1x1_s"
	type: "ReLU"
	bottom: "conv_4b_1x1_s"
	top: "conv_4b_1x1_s"
}

layer {
	name: "conv_4b_3x3_reduce_s"
	type: "Convolution"
	bottom: "ch_concat_4a_chconcat_s"
	top: "conv_4b_3x3_reduce_s"
	param {
		lr_mult: 1
		decay_mult: 1
		name: "conv_4b_3x3_reduce_w"
	}
	param {
		lr_mult: 2
		decay_mult: 0
		name: "conv_4b_3x3_reduce_b"
	}
	convolution_param { 
		weight_filler {
			type: "xavier"
		}
		bias_filler {
			type: "constant"
			value: 0.2
		}
		 num_output: 96
		 kernel_size: 1
		 stride: 1
		 pad: 0
	}
}

layer {
	name: "bn_4b_3x3_reduce_s"
	type: "BatchNorm"
	bottom: "conv_4b_3x3_reduce_s"
	top: "conv_4b_3x3_reduce_s"
	batch_norm_param {

	}
}

layer {
	name: "scale_conv_4b_3x3_reduce_s"
	bottom: "conv_4b_3x3_reduce_s"
	top: "conv_4b_3x3_reduce_s"
	type: "Scale"
	scale_param {
		filler {
			value: 1
		}
		bias_filler {
			value: 0
		}
				bias_term: true
	}
}

layer {
	name: "relu_4b_3x3_reduce_s"
	type: "ReLU"
	bottom: "conv_4b_3x3_reduce_s"
	top: "conv_4b_3x3_reduce_s"
}

layer {
	name: "conv_4b_3x3_s"
	type: "Convolution"
	bottom: "conv_4b_3x3_reduce_s"
	top: "conv_4b_3x3_s"
	param {
		lr_mult: 1
		decay_mult: 1
		name: "conv_4b_3x3_w"
	}
	param {
		lr_mult: 2
		decay_mult: 0
		name: "conv_4b_3x3_b"
	}
	convolution_param { 
		weight_filler {
			type: "xavier"
		}
		bias_filler {
			type: "constant"
			value: 0.2
		}
		 num_output: 128
		 kernel_size: 3
		 stride: 1
		 pad: 1
	}
}

layer {
	name: "bn_4b_3x3_s"
	type: "BatchNorm"
	bottom: "conv_4b_3x3_s"
	top: "conv_4b_3x3_s"
	batch_norm_param {

	}
}

layer {
	name: "scale_conv_4b_3x3_s"
	bottom: "conv_4b_3x3_s"
	top: "conv_4b_3x3_s"
	type: "Scale"
	scale_param {
		filler {
			value: 1
		}
		bias_filler {
			value: 0
		}
				bias_term: true
	}
}

layer {
	name: "relu_4b_3x3_s"
	type: "ReLU"
	bottom: "conv_4b_3x3_s"
	top: "conv_4b_3x3_s"
}

layer {
	name: "conv_4b_double_3x3_reduce_s"
	type: "Convolution"
	bottom: "ch_concat_4a_chconcat_s"
	top: "conv_4b_double_3x3_reduce_s"
	param {
		lr_mult: 1
		decay_mult: 1
		name: "conv_4b_double_3x3_reduce_w"
	}
	param {
		lr_mult: 2
		decay_mult: 0
		name: "conv_4b_double_3x3_reduce_b"
	}
	convolution_param { 
		weight_filler {
			type: "xavier"
		}
		bias_filler {
			type: "constant"
			value: 0.2
		}
		 num_output: 96
		 kernel_size: 1
		 stride: 1
		 pad: 0
	}
}

layer {
	name: "bn_4b_double_3x3_reduce_s"
	type: "BatchNorm"
	bottom: "conv_4b_double_3x3_reduce_s"
	top: "conv_4b_double_3x3_reduce_s"
	batch_norm_param {

	}
}

layer {
	name: "scale_conv_4b_double_3x3_reduce_s"
	bottom: "conv_4b_double_3x3_reduce_s"
	top: "conv_4b_double_3x3_reduce_s"
	type: "Scale"
	scale_param {
		filler {
			value: 1
		}
		bias_filler {
			value: 0
		}
				bias_term: true
	}
}

layer {
	name: "relu_4b_double_3x3_reduce_s"
	type: "ReLU"
	bottom: "conv_4b_double_3x3_reduce_s"
	top: "conv_4b_double_3x3_reduce_s"
}

layer {
	name: "conv_4b_double_3x3_0_s"
	type: "Convolution"
	bottom: "conv_4b_double_3x3_reduce_s"
	top: "conv_4b_double_3x3_0_s"
	param {
		lr_mult: 1
		decay_mult: 1
		name: "conv_4b_double_3x3_0_w"
	}
	param {
		lr_mult: 2
		decay_mult: 0
		name: "conv_4b_double_3x3_0_b"
	}
	convolution_param { 
		weight_filler {
			type: "xavier"
		}
		bias_filler {
			type: "constant"
			value: 0.2
		}
		 num_output: 128
		 kernel_size: 3
		 stride: 1
		 pad: 1
	}
}

layer {
	name: "bn_4b_double_3x3_0_s"
	type: "BatchNorm"
	bottom: "conv_4b_double_3x3_0_s"
	top: "conv_4b_double_3x3_0_s"
	batch_norm_param {

	}
}

layer {
	name: "scale_conv_4b_double_3x3_0_s"
	bottom: "conv_4b_double_3x3_0_s"
	top: "conv_4b_double_3x3_0_s"
	type: "Scale"
	scale_param {
		filler {
			value: 1
		}
		bias_filler {
			value: 0
		}
				bias_term: true
	}
}

layer {
	name: "relu_4b_double_3x3_0_s"
	type: "ReLU"
	bottom: "conv_4b_double_3x3_0_s"
	top: "conv_4b_double_3x3_0_s"
}

layer {
	name: "conv_4b_double_3x3_1_s"
	type: "Convolution"
	bottom: "conv_4b_double_3x3_0_s"
	top: "conv_4b_double_3x3_1_s"
	param {
		lr_mult: 1
		decay_mult: 1
		name: "conv_4b_double_3x3_1_w"
	}
	param {
		lr_mult: 2
		decay_mult: 0
		name: "conv_4b_double_3x3_1_b"
	}
	convolution_param { 
		weight_filler {
			type: "xavier"
		}
		bias_filler {
			type: "constant"
			value: 0.2
		}
		 num_output: 128
		 kernel_size: 3
		 stride: 1
		 pad: 1
	}
}

layer {
	name: "bn_4b_double_3x3_1_s"
	type: "BatchNorm"
	bottom: "conv_4b_double_3x3_1_s"
	top: "conv_4b_double_3x3_1_s"
	batch_norm_param {

	}
}

layer {
	name: "scale_conv_4b_double_3x3_1_s"
	bottom: "conv_4b_double_3x3_1_s"
	top: "conv_4b_double_3x3_1_s"
	type: "Scale"
	scale_param {
		filler {
			value: 1
		}
		bias_filler {
			value: 0
		}
				bias_term: true
	}
}

layer {
	name: "relu_4b_double_3x3_1_s"
	type: "ReLU"
	bottom: "conv_4b_double_3x3_1_s"
	top: "conv_4b_double_3x3_1_s"
}

layer {
	name: "ave_pool_4b_pool_s"
	type: "Pooling"
	bottom: "ch_concat_4a_chconcat_s"
	top: "ave_pool_4b_pool_s"
	pooling_param {
		 pool: AVE
		 kernel_size: 3
		 stride: 1
		 pad: 1
	}
}

layer {
	name: "conv_4b_proj_s"
	type: "Convolution"
	bottom: "ave_pool_4b_pool_s"
	top: "conv_4b_proj_s"
	param {
		lr_mult: 1
		decay_mult: 1
		name: "conv_4b_proj_w"
	}
	param {
		lr_mult: 2
		decay_mult: 0
		name: "conv_4b_proj_b"
	}
	convolution_param { 
		weight_filler {
			type: "xavier"
		}
		bias_filler {
			type: "constant"
			value: 0.2
		}
		 num_output: 128
		 kernel_size: 1
		 stride: 1
		 pad: 0
	}
}

layer {
	name: "bn_4b_proj_s"
	type: "BatchNorm"
	bottom: "conv_4b_proj_s"
	top: "conv_4b_proj_s"
	batch_norm_param {

	}
}

layer {
	name: "scale_conv_4b_proj_s"
	bottom: "conv_4b_proj_s"
	top: "conv_4b_proj_s"
	type: "Scale"
	scale_param {
		filler {
			value: 1
		}
		bias_filler {
			value: 0
		}
				bias_term: true
	}
}

layer {
	name: "relu_4b_proj_s"
	type: "ReLU"
	bottom: "conv_4b_proj_s"
	top: "conv_4b_proj_s"
}

layer {
	name: "ch_concat_4b_chconcat_s"
	type: "Concat"
	bottom: "conv_4b_1x1_s"
	bottom: "conv_4b_3x3_s"
	bottom: "conv_4b_double_3x3_1_s"
	bottom: "conv_4b_proj_s"
	top: "ch_concat_4b_chconcat_s"
}

layer {
	name: "conv_4c_1x1_s"
	type: "Convolution"
	bottom: "ch_concat_4b_chconcat_s"
	top: "conv_4c_1x1_s"
	param {
		lr_mult: 1
		decay_mult: 1
		name: "conv_4c_1x1_w"
	}
	param {
		lr_mult: 2
		decay_mult: 0
		name: "conv_4c_1x1_b"
	}
	convolution_param { 
		weight_filler {
			type: "xavier"
		}
		bias_filler {
			type: "constant"
			value: 0.2
		}
		 num_output: 160
		 kernel_size: 1
		 stride: 1
		 pad: 0
	}
}

layer {
	name: "bn_4c_1x1_s"
	type: "BatchNorm"
	bottom: "conv_4c_1x1_s"
	top: "conv_4c_1x1_s"
	batch_norm_param {

	}
}

layer {
	name: "scale_conv_4c_1x1_s"
	bottom: "conv_4c_1x1_s"
	top: "conv_4c_1x1_s"
	type: "Scale"
	scale_param {
		filler {
			value: 1
		}
		bias_filler {
			value: 0
		}
				bias_term: true
	}
}

layer {
	name: "relu_4c_1x1_s"
	type: "ReLU"
	bottom: "conv_4c_1x1_s"
	top: "conv_4c_1x1_s"
}

layer {
	name: "conv_4c_3x3_reduce_s"
	type: "Convolution"
	bottom: "ch_concat_4b_chconcat_s"
	top: "conv_4c_3x3_reduce_s"
	param {
		lr_mult: 1
		decay_mult: 1
		name: "conv_4c_3x3_reduce_w"
	}
	param {
		lr_mult: 2
		decay_mult: 0
		name: "conv_4c_3x3_reduce_b"
	}
	convolution_param { 
		weight_filler {
			type: "xavier"
		}
		bias_filler {
			type: "constant"
			value: 0.2
		}
		 num_output: 128
		 kernel_size: 1
		 stride: 1
		 pad: 0
	}
}

layer {
	name: "bn_4c_3x3_reduce_s"
	type: "BatchNorm"
	bottom: "conv_4c_3x3_reduce_s"
	top: "conv_4c_3x3_reduce_s"
	batch_norm_param {

	}
}

layer {
	name: "scale_conv_4c_3x3_reduce_s"
	bottom: "conv_4c_3x3_reduce_s"
	top: "conv_4c_3x3_reduce_s"
	type: "Scale"
	scale_param {
		filler {
			value: 1
		}
		bias_filler {
			value: 0
		}
				bias_term: true
	}
}

layer {
	name: "relu_4c_3x3_reduce_s"
	type: "ReLU"
	bottom: "conv_4c_3x3_reduce_s"
	top: "conv_4c_3x3_reduce_s"
}

layer {
	name: "conv_4c_3x3_s"
	type: "Convolution"
	bottom: "conv_4c_3x3_reduce_s"
	top: "conv_4c_3x3_s"
	param {
		lr_mult: 1
		decay_mult: 1
		name: "conv_4c_3x3_w"
	}
	param {
		lr_mult: 2
		decay_mult: 0
		name: "conv_4c_3x3_b"
	}
	convolution_param { 
		weight_filler {
			type: "xavier"
		}
		bias_filler {
			type: "constant"
			value: 0.2
		}
		 num_output: 160
		 kernel_size: 3
		 stride: 1
		 pad: 1
	}
}

layer {
	name: "bn_4c_3x3_s"
	type: "BatchNorm"
	bottom: "conv_4c_3x3_s"
	top: "conv_4c_3x3_s"
	batch_norm_param {

	}
}

layer {
	name: "scale_conv_4c_3x3_s"
	bottom: "conv_4c_3x3_s"
	top: "conv_4c_3x3_s"
	type: "Scale"
	scale_param {
		filler {
			value: 1
		}
		bias_filler {
			value: 0
		}
				bias_term: true
	}
}

layer {
	name: "relu_4c_3x3_s"
	type: "ReLU"
	bottom: "conv_4c_3x3_s"
	top: "conv_4c_3x3_s"
}

layer {
	name: "conv_4c_double_3x3_reduce_s"
	type: "Convolution"
	bottom: "ch_concat_4b_chconcat_s"
	top: "conv_4c_double_3x3_reduce_s"
	param {
		lr_mult: 1
		decay_mult: 1
		name: "conv_4c_double_3x3_reduce_w"
	}
	param {
		lr_mult: 2
		decay_mult: 0
		name: "conv_4c_double_3x3_reduce_b"
	}
	convolution_param { 
		weight_filler {
			type: "xavier"
		}
		bias_filler {
			type: "constant"
			value: 0.2
		}
		 num_output: 128
		 kernel_size: 1
		 stride: 1
		 pad: 0
	}
}

layer {
	name: "bn_4c_double_3x3_reduce_s"
	type: "BatchNorm"
	bottom: "conv_4c_double_3x3_reduce_s"
	top: "conv_4c_double_3x3_reduce_s"
	batch_norm_param {

	}
}

layer {
	name: "scale_conv_4c_double_3x3_reduce_s"
	bottom: "conv_4c_double_3x3_reduce_s"
	top: "conv_4c_double_3x3_reduce_s"
	type: "Scale"
	scale_param {
		filler {
			value: 1
		}
		bias_filler {
			value: 0
		}
				bias_term: true
	}
}

layer {
	name: "relu_4c_double_3x3_reduce_s"
	type: "ReLU"
	bottom: "conv_4c_double_3x3_reduce_s"
	top: "conv_4c_double_3x3_reduce_s"
}

layer {
	name: "conv_4c_double_3x3_0_s"
	type: "Convolution"
	bottom: "conv_4c_double_3x3_reduce_s"
	top: "conv_4c_double_3x3_0_s"
	param {
		lr_mult: 1
		decay_mult: 1
		name: "conv_4c_double_3x3_0_w"
	}
	param {
		lr_mult: 2
		decay_mult: 0
		name: "conv_4c_double_3x3_0_b"
	}
	convolution_param { 
		weight_filler {
			type: "xavier"
		}
		bias_filler {
			type: "constant"
			value: 0.2
		}
		 num_output: 160
		 kernel_size: 3
		 stride: 1
		 pad: 1
	}
}

layer {
	name: "bn_4c_double_3x3_0_s"
	type: "BatchNorm"
	bottom: "conv_4c_double_3x3_0_s"
	top: "conv_4c_double_3x3_0_s"
	batch_norm_param {

	}
}

layer {
	name: "scale_conv_4c_double_3x3_0_s"
	bottom: "conv_4c_double_3x3_0_s"
	top: "conv_4c_double_3x3_0_s"
	type: "Scale"
	scale_param {
		filler {
			value: 1
		}
		bias_filler {
			value: 0
		}
				bias_term: true
	}
}

layer {
	name: "relu_4c_double_3x3_0_s"
	type: "ReLU"
	bottom: "conv_4c_double_3x3_0_s"
	top: "conv_4c_double_3x3_0_s"
}

layer {
	name: "conv_4c_double_3x3_1_s"
	type: "Convolution"
	bottom: "conv_4c_double_3x3_0_s"
	top: "conv_4c_double_3x3_1_s"
	param {
		lr_mult: 1
		decay_mult: 1
		name: "conv_4c_double_3x3_1_w"
	}
	param {
		lr_mult: 2
		decay_mult: 0
		name: "conv_4c_double_3x3_1_b"
	}
	convolution_param { 
		weight_filler {
			type: "xavier"
		}
		bias_filler {
			type: "constant"
			value: 0.2
		}
		 num_output: 160
		 kernel_size: 3
		 stride: 1
		 pad: 1
	}
}

layer {
	name: "bn_4c_double_3x3_1_s"
	type: "BatchNorm"
	bottom: "conv_4c_double_3x3_1_s"
	top: "conv_4c_double_3x3_1_s"
	batch_norm_param {

	}
}

layer {
	name: "scale_conv_4c_double_3x3_1_s"
	bottom: "conv_4c_double_3x3_1_s"
	top: "conv_4c_double_3x3_1_s"
	type: "Scale"
	scale_param {
		filler {
			value: 1
		}
		bias_filler {
			value: 0
		}
				bias_term: true
	}
}

layer {
	name: "relu_4c_double_3x3_1_s"
	type: "ReLU"
	bottom: "conv_4c_double_3x3_1_s"
	top: "conv_4c_double_3x3_1_s"
}

layer {
	name: "ave_pool_4c_pool_s"
	type: "Pooling"
	bottom: "ch_concat_4b_chconcat_s"
	top: "ave_pool_4c_pool_s"
	pooling_param {
		 pool: AVE
		 kernel_size: 3
		 stride: 1
		 pad: 1
	}
}

layer {
	name: "conv_4c_proj_s"
	type: "Convolution"
	bottom: "ave_pool_4c_pool_s"
	top: "conv_4c_proj_s"
	param {
		lr_mult: 1
		decay_mult: 1
		name: "conv_4c_proj_w"
	}
	param {
		lr_mult: 2
		decay_mult: 0
		name: "conv_4c_proj_b"
	}
	convolution_param { 
		weight_filler {
			type: "xavier"
		}
		bias_filler {
			type: "constant"
			value: 0.2
		}
		 num_output: 128
		 kernel_size: 1
		 stride: 1
		 pad: 0
	}
}

layer {
	name: "bn_4c_proj_s"
	type: "BatchNorm"
	bottom: "conv_4c_proj_s"
	top: "conv_4c_proj_s"
	batch_norm_param {

	}
}

layer {
	name: "scale_conv_4c_proj_s"
	bottom: "conv_4c_proj_s"
	top: "conv_4c_proj_s"
	type: "Scale"
	scale_param {
		filler {
			value: 1
		}
		bias_filler {
			value: 0
		}
				bias_term: true
	}
}

layer {
	name: "relu_4c_proj_s"
	type: "ReLU"
	bottom: "conv_4c_proj_s"
	top: "conv_4c_proj_s"
}

layer {
	name: "ch_concat_4c_chconcat_s"
	type: "Concat"
	bottom: "conv_4c_1x1_s"
	bottom: "conv_4c_3x3_s"
	bottom: "conv_4c_double_3x3_1_s"
	bottom: "conv_4c_proj_s"
	top: "ch_concat_4c_chconcat_s"
}

layer {
	name: "conv_4d_1x1_s"
	type: "Convolution"
	bottom: "ch_concat_4c_chconcat_s"
	top: "conv_4d_1x1_s"
	param {
		lr_mult: 1
		decay_mult: 1
		name: "conv_4d_1x1_w"
	}
	param {
		lr_mult: 2
		decay_mult: 0
		name: "conv_4d_1x1_b"
	}
	convolution_param { 
		weight_filler {
			type: "xavier"
		}
		bias_filler {
			type: "constant"
			value: 0.2
		}
		 num_output: 96
		 kernel_size: 1
		 stride: 1
		 pad: 0
	}
}

layer {
	name: "bn_4d_1x1_s"
	type: "BatchNorm"
	bottom: "conv_4d_1x1_s"
	top: "conv_4d_1x1_s"
	batch_norm_param {

	}
}

layer {
	name: "scale_conv_4d_1x1_s"
	bottom: "conv_4d_1x1_s"
	top: "conv_4d_1x1_s"
	type: "Scale"
	scale_param {
		filler {
			value: 1
		}
		bias_filler {
			value: 0
		}
				bias_term: true
	}
}

layer {
	name: "relu_4d_1x1_s"
	type: "ReLU"
	bottom: "conv_4d_1x1_s"
	top: "conv_4d_1x1_s"
}

layer {
	name: "conv_4d_3x3_reduce_s"
	type: "Convolution"
	bottom: "ch_concat_4c_chconcat_s"
	top: "conv_4d_3x3_reduce_s"
	param {
		lr_mult: 1
		decay_mult: 1
		name: "conv_4d_3x3_reduce_w"
	}
	param {
		lr_mult: 2
		decay_mult: 0
		name: "conv_4d_3x3_reduce_b"
	}
	convolution_param { 
		weight_filler {
			type: "xavier"
		}
		bias_filler {
			type: "constant"
			value: 0.2
		}
		 num_output: 128
		 kernel_size: 1
		 stride: 1
		 pad: 0
	}
}

layer {
	name: "bn_4d_3x3_reduce_s"
	type: "BatchNorm"
	bottom: "conv_4d_3x3_reduce_s"
	top: "conv_4d_3x3_reduce_s"
	batch_norm_param {

	}
}

layer {
	name: "scale_conv_4d_3x3_reduce_s"
	bottom: "conv_4d_3x3_reduce_s"
	top: "conv_4d_3x3_reduce_s"
	type: "Scale"
	scale_param {
		filler {
			value: 1
		}
		bias_filler {
			value: 0
		}
				bias_term: true
	}
}

layer {
	name: "relu_4d_3x3_reduce_s"
	type: "ReLU"
	bottom: "conv_4d_3x3_reduce_s"
	top: "conv_4d_3x3_reduce_s"
}

layer {
	name: "conv_4d_3x3_s"
	type: "Convolution"
	bottom: "conv_4d_3x3_reduce_s"
	top: "conv_4d_3x3_s"
	param {
		lr_mult: 1
		decay_mult: 1
		name: "conv_4d_3x3_w"
	}
	param {
		lr_mult: 2
		decay_mult: 0
		name: "conv_4d_3x3_b"
	}
	convolution_param { 
		weight_filler {
			type: "xavier"
		}
		bias_filler {
			type: "constant"
			value: 0.2
		}
		 num_output: 192
		 kernel_size: 3
		 stride: 1
		 pad: 1
	}
}

layer {
	name: "bn_4d_3x3_s"
	type: "BatchNorm"
	bottom: "conv_4d_3x3_s"
	top: "conv_4d_3x3_s"
	batch_norm_param {

	}
}

layer {
	name: "scale_conv_4d_3x3_s"
	bottom: "conv_4d_3x3_s"
	top: "conv_4d_3x3_s"
	type: "Scale"
	scale_param {
		filler {
			value: 1
		}
		bias_filler {
			value: 0
		}
				bias_term: true
	}
}

layer {
	name: "relu_4d_3x3_s"
	type: "ReLU"
	bottom: "conv_4d_3x3_s"
	top: "conv_4d_3x3_s"
}

layer {
	name: "conv_4d_double_3x3_reduce_s"
	type: "Convolution"
	bottom: "ch_concat_4c_chconcat_s"
	top: "conv_4d_double_3x3_reduce_s"
	param {
		lr_mult: 1
		decay_mult: 1
		name: "conv_4d_double_3x3_reduce_w"
	}
	param {
		lr_mult: 2
		decay_mult: 0
		name: "conv_4d_double_3x3_reduce_b"
	}
	convolution_param { 
		weight_filler {
			type: "xavier"
		}
		bias_filler {
			type: "constant"
			value: 0.2
		}
		 num_output: 160
		 kernel_size: 1
		 stride: 1
		 pad: 0
	}
}

layer {
	name: "bn_4d_double_3x3_reduce_s"
	type: "BatchNorm"
	bottom: "conv_4d_double_3x3_reduce_s"
	top: "conv_4d_double_3x3_reduce_s"
	batch_norm_param {

	}
}

layer {
	name: "scale_conv_4d_double_3x3_reduce_s"
	bottom: "conv_4d_double_3x3_reduce_s"
	top: "conv_4d_double_3x3_reduce_s"
	type: "Scale"
	scale_param {
		filler {
			value: 1
		}
		bias_filler {
			value: 0
		}
				bias_term: true
	}
}

layer {
	name: "relu_4d_double_3x3_reduce_s"
	type: "ReLU"
	bottom: "conv_4d_double_3x3_reduce_s"
	top: "conv_4d_double_3x3_reduce_s"
}

layer {
	name: "conv_4d_double_3x3_0_s"
	type: "Convolution"
	bottom: "conv_4d_double_3x3_reduce_s"
	top: "conv_4d_double_3x3_0_s"
	param {
		lr_mult: 1
		decay_mult: 1
		name: "conv_4d_double_3x3_0_w"
	}
	param {
		lr_mult: 2
		decay_mult: 0
		name: "conv_4d_double_3x3_0_b"
	}
	convolution_param { 
		weight_filler {
			type: "xavier"
		}
		bias_filler {
			type: "constant"
			value: 0.2
		}
		 num_output: 96
		 kernel_size: 3
		 stride: 1
		 pad: 1
	}
}

layer {
	name: "bn_4d_double_3x3_0_s"
	type: "BatchNorm"
	bottom: "conv_4d_double_3x3_0_s"
	top: "conv_4d_double_3x3_0_s"
	batch_norm_param {

	}
}

layer {
	name: "scale_conv_4d_double_3x3_0_s"
	bottom: "conv_4d_double_3x3_0_s"
	top: "conv_4d_double_3x3_0_s"
	type: "Scale"
	scale_param {
		filler {
			value: 1
		}
		bias_filler {
			value: 0
		}
				bias_term: true
	}
}

layer {
	name: "relu_4d_double_3x3_0_s"
	type: "ReLU"
	bottom: "conv_4d_double_3x3_0_s"
	top: "conv_4d_double_3x3_0_s"
}

layer {
	name: "conv_4d_double_3x3_1_s"
	type: "Convolution"
	bottom: "conv_4d_double_3x3_0_s"
	top: "conv_4d_double_3x3_1_s"
	param {
		lr_mult: 1
		decay_mult: 1
		name: "conv_4d_double_3x3_1_w"
	}
	param {
		lr_mult: 2
		decay_mult: 0
		name: "conv_4d_double_3x3_1_b"
	}
	convolution_param { 
		weight_filler {
			type: "xavier"
		}
		bias_filler {
			type: "constant"
			value: 0.2
		}
		 num_output: 96
		 kernel_size: 3
		 stride: 1
		 pad: 1
	}
}

layer {
	name: "bn_4d_double_3x3_1_s"
	type: "BatchNorm"
	bottom: "conv_4d_double_3x3_1_s"
	top: "conv_4d_double_3x3_1_s"
	batch_norm_param {

	}
}

layer {
	name: "scale_conv_4d_double_3x3_1_s"
	bottom: "conv_4d_double_3x3_1_s"
	top: "conv_4d_double_3x3_1_s"
	type: "Scale"
	scale_param {
		filler {
			value: 1
		}
		bias_filler {
			value: 0
		}
				bias_term: true
	}
}

layer {
	name: "relu_4d_double_3x3_1_s"
	type: "ReLU"
	bottom: "conv_4d_double_3x3_1_s"
	top: "conv_4d_double_3x3_1_s"
}

layer {
	name: "ave_pool_4d_pool_s"
	type: "Pooling"
	bottom: "ch_concat_4c_chconcat_s"
	top: "ave_pool_4d_pool_s"
	pooling_param {
		 pool: AVE
		 kernel_size: 3
		 stride: 1
		 pad: 1
	}
}

layer {
	name: "conv_4d_proj_s"
	type: "Convolution"
	bottom: "ave_pool_4d_pool_s"
	top: "conv_4d_proj_s"
	param {
		lr_mult: 1
		decay_mult: 1
		name: "conv_4d_proj_w"
	}
	param {
		lr_mult: 2
		decay_mult: 0
		name: "conv_4d_proj_b"
	}
	convolution_param { 
		weight_filler {
			type: "xavier"
		}
		bias_filler {
			type: "constant"
			value: 0.2
		}
		 num_output: 128
		 kernel_size: 1
		 stride: 1
		 pad: 0
	}
}

layer {
	name: "bn_4d_proj_s"
	type: "BatchNorm"
	bottom: "conv_4d_proj_s"
	top: "conv_4d_proj_s"
	batch_norm_param {

	}
}

layer {
	name: "scale_conv_4d_proj_s"
	bottom: "conv_4d_proj_s"
	top: "conv_4d_proj_s"
	type: "Scale"
	scale_param {
		filler {
			value: 1
		}
		bias_filler {
			value: 0
		}
				bias_term: true
	}
}

layer {
	name: "relu_4d_proj_s"
	type: "ReLU"
	bottom: "conv_4d_proj_s"
	top: "conv_4d_proj_s"
}

layer {
	name: "ch_concat_4d_chconcat_s"
	type: "Concat"
	bottom: "conv_4d_1x1_s"
	bottom: "conv_4d_3x3_s"
	bottom: "conv_4d_double_3x3_1_s"
	bottom: "conv_4d_proj_s"
	top: "ch_concat_4d_chconcat_s"
}

layer {
	name: "conv_4e_3x3_reduce_s"
	type: "Convolution"
	bottom: "ch_concat_4d_chconcat_s"
	top: "conv_4e_3x3_reduce_s"
	param {
		lr_mult: 1
		decay_mult: 1
		name: "conv_4e_3x3_reduce_w"
	}
	param {
		lr_mult: 2
		decay_mult: 0
		name: "conv_4e_3x3_reduce_b"
	}
	convolution_param { 
		weight_filler {
			type: "xavier"
		}
		bias_filler {
			type: "constant"
			value: 0.2
		}
		 num_output: 128
		 kernel_size: 1
		 stride: 1
		 pad: 0
	}
}

layer {
	name: "bn_4e_3x3_reduce_s"
	type: "BatchNorm"
	bottom: "conv_4e_3x3_reduce_s"
	top: "conv_4e_3x3_reduce_s"
	batch_norm_param {

	}
}

layer {
	name: "scale_conv_4e_3x3_reduce_s"
	bottom: "conv_4e_3x3_reduce_s"
	top: "conv_4e_3x3_reduce_s"
	type: "Scale"
	scale_param {
		filler {
			value: 1
		}
		bias_filler {
			value: 0
		}
				bias_term: true
	}
}

layer {
	name: "relu_4e_3x3_reduce_s"
	type: "ReLU"
	bottom: "conv_4e_3x3_reduce_s"
	top: "conv_4e_3x3_reduce_s"
}

layer {
	name: "conv_4e_3x3_s"
	type: "Convolution"
	bottom: "conv_4e_3x3_reduce_s"
	top: "conv_4e_3x3_s"
	param {
		lr_mult: 1
		decay_mult: 1
		name: "conv_4e_3x3_w"
	}
	param {
		lr_mult: 2
		decay_mult: 0
		name: "conv_4e_3x3_b"
	}
	convolution_param { 
		weight_filler {
			type: "xavier"
		}
		bias_filler {
			type: "constant"
			value: 0.2
		}
		 num_output: 192
		 kernel_size: 3
		 stride: 2
		 pad: 1
	}
}

layer {
	name: "bn_4e_3x3_s"
	type: "BatchNorm"
	bottom: "conv_4e_3x3_s"
	top: "conv_4e_3x3_s"
	batch_norm_param {

	}
}

layer {
	name: "scale_conv_4e_3x3_s"
	bottom: "conv_4e_3x3_s"
	top: "conv_4e_3x3_s"
	type: "Scale"
	scale_param {
		filler {
			value: 1
		}
		bias_filler {
			value: 0
		}
				bias_term: true
	}
}

layer {
	name: "relu_4e_3x3_s"
	type: "ReLU"
	bottom: "conv_4e_3x3_s"
	top: "conv_4e_3x3_s"
}

layer {
	name: "conv_4e_double_3x3_reduce_s"
	type: "Convolution"
	bottom: "ch_concat_4d_chconcat_s"
	top: "conv_4e_double_3x3_reduce_s"
	param {
		lr_mult: 1
		decay_mult: 1
		name: "conv_4e_double_3x3_reduce_w"
	}
	param {
		lr_mult: 2
		decay_mult: 0
		name: "conv_4e_double_3x3_reduce_b"
	}
	convolution_param { 
		weight_filler {
			type: "xavier"
		}
		bias_filler {
			type: "constant"
			value: 0.2
		}
		 num_output: 192
		 kernel_size: 1
		 stride: 1
		 pad: 0
	}
}

layer {
	name: "bn_4e_double_3x3_reduce_s"
	type: "BatchNorm"
	bottom: "conv_4e_double_3x3_reduce_s"
	top: "conv_4e_double_3x3_reduce_s"
	batch_norm_param {

	}
}

layer {
	name: "scale_conv_4e_double_3x3_reduce_s"
	bottom: "conv_4e_double_3x3_reduce_s"
	top: "conv_4e_double_3x3_reduce_s"
	type: "Scale"
	scale_param {
		filler {
			value: 1
		}
		bias_filler {
			value: 0
		}
				bias_term: true
	}
}

layer {
	name: "relu_4e_double_3x3_reduce_s"
	type: "ReLU"
	bottom: "conv_4e_double_3x3_reduce_s"
	top: "conv_4e_double_3x3_reduce_s"
}

layer {
	name: "conv_4e_double_3x3_0_s"
	type: "Convolution"
	bottom: "conv_4e_double_3x3_reduce_s"
	top: "conv_4e_double_3x3_0_s"
	param {
		lr_mult: 1
		decay_mult: 1
		name: "conv_4e_double_3x3_0_w"
	}
	param {
		lr_mult: 2
		decay_mult: 0
		name: "conv_4e_double_3x3_0_b"
	}
	convolution_param { 
		weight_filler {
			type: "xavier"
		}
		bias_filler {
			type: "constant"
			value: 0.2
		}
		 num_output: 256
		 kernel_size: 3
		 stride: 1
		 pad: 1
	}
}

layer {
	name: "bn_4e_double_3x3_0_s"
	type: "BatchNorm"
	bottom: "conv_4e_double_3x3_0_s"
	top: "conv_4e_double_3x3_0_s"
	batch_norm_param {

	}
}

layer {
	name: "scale_conv_4e_double_3x3_0_s"
	bottom: "conv_4e_double_3x3_0_s"
	top: "conv_4e_double_3x3_0_s"
	type: "Scale"
	scale_param {
		filler {
			value: 1
		}
		bias_filler {
			value: 0
		}
				bias_term: true
	}
}

layer {
	name: "relu_4e_double_3x3_0_s"
	type: "ReLU"
	bottom: "conv_4e_double_3x3_0_s"
	top: "conv_4e_double_3x3_0_s"
}

layer {
	name: "conv_4e_double_3x3_1_s"
	type: "Convolution"
	bottom: "conv_4e_double_3x3_0_s"
	top: "conv_4e_double_3x3_1_s"
	param {
		lr_mult: 1
		decay_mult: 1
		name: "conv_4e_double_3x3_1_w"
	}
	param {
		lr_mult: 2
		decay_mult: 0
		name: "conv_4e_double_3x3_1_b"
	}
	convolution_param { 
		weight_filler {
			type: "xavier"
		}
		bias_filler {
			type: "constant"
			value: 0.2
		}
		 num_output: 256
		 kernel_size: 3
		 stride: 2
		 pad: 1
	}
}

layer {
	name: "bn_4e_double_3x3_1_s"
	type: "BatchNorm"
	bottom: "conv_4e_double_3x3_1_s"
	top: "conv_4e_double_3x3_1_s"
	batch_norm_param {

	}
}

layer {
	name: "scale_conv_4e_double_3x3_1_s"
	bottom: "conv_4e_double_3x3_1_s"
	top: "conv_4e_double_3x3_1_s"
	type: "Scale"
	scale_param {
		filler {
			value: 1
		}
		bias_filler {
			value: 0
		}
				bias_term: true
	}
}

layer {
	name: "relu_4e_double_3x3_1_s"
	type: "ReLU"
	bottom: "conv_4e_double_3x3_1_s"
	top: "conv_4e_double_3x3_1_s"
}

layer {
	name: "max_pool_4e_pool_s"
	type: "Pooling"
	bottom: "ch_concat_4d_chconcat_s"
	top: "max_pool_4e_pool_s"
	pooling_param {
		 pool: MAX
		 kernel_size: 3
		 stride: 2
		 pad: 0
	}
}

layer {
	name: "ch_concat_4e_chconcat_s"
	type: "Concat"
	bottom: "conv_4e_3x3_s"
	bottom: "conv_4e_double_3x3_1_s"
	bottom: "max_pool_4e_pool_s"
	top: "ch_concat_4e_chconcat_s"
}

layer {
	name: "conv_5a_1x1_s"
	type: "Convolution"
	bottom: "ch_concat_4e_chconcat_s"
	top: "conv_5a_1x1_s"
	param {
		lr_mult: 1
		decay_mult: 1
		name: "conv_5a_1x1_w"
	}
	param {
		lr_mult: 2
		decay_mult: 0
		name: "conv_5a_1x1_b"
	}
	convolution_param { 
		weight_filler {
			type: "xavier"
		}
		bias_filler {
			type: "constant"
			value: 0.2
		}
		 num_output: 352
		 kernel_size: 1
		 stride: 1
		 pad: 0
	}
}

layer {
	name: "bn_5a_1x1_s"
	type: "BatchNorm"
	bottom: "conv_5a_1x1_s"
	top: "conv_5a_1x1_s"
	batch_norm_param {

	}
}

layer {
	name: "scale_conv_5a_1x1_s"
	bottom: "conv_5a_1x1_s"
	top: "conv_5a_1x1_s"
	type: "Scale"
	scale_param {
		filler {
			value: 1
		}
		bias_filler {
			value: 0
		}
				bias_term: true
	}
}

layer {
	name: "relu_5a_1x1_s"
	type: "ReLU"
	bottom: "conv_5a_1x1_s"
	top: "conv_5a_1x1_s"
}

layer {
	name: "conv_5a_3x3_reduce_s"
	type: "Convolution"
	bottom: "ch_concat_4e_chconcat_s"
	top: "conv_5a_3x3_reduce_s"
	param {
		lr_mult: 1
		decay_mult: 1
		name: "conv_5a_3x3_reduce_w"
	}
	param {
		lr_mult: 2
		decay_mult: 0
		name: "conv_5a_3x3_reduce_b"
	}
	convolution_param { 
		weight_filler {
			type: "xavier"
		}
		bias_filler {
			type: "constant"
			value: 0.2
		}
		 num_output: 192
		 kernel_size: 1
		 stride: 1
		 pad: 0
	}
}

layer {
	name: "bn_5a_3x3_reduce_s"
	type: "BatchNorm"
	bottom: "conv_5a_3x3_reduce_s"
	top: "conv_5a_3x3_reduce_s"
	batch_norm_param {

	}
}

layer {
	name: "scale_conv_5a_3x3_reduce_s"
	bottom: "conv_5a_3x3_reduce_s"
	top: "conv_5a_3x3_reduce_s"
	type: "Scale"
	scale_param {
		filler {
			value: 1
		}
		bias_filler {
			value: 0
		}
				bias_term: true
	}
}

layer {
	name: "relu_5a_3x3_reduce_s"
	type: "ReLU"
	bottom: "conv_5a_3x3_reduce_s"
	top: "conv_5a_3x3_reduce_s"
}

layer {
	name: "conv_5a_3x3_s"
	type: "Convolution"
	bottom: "conv_5a_3x3_reduce_s"
	top: "conv_5a_3x3_s"
	param {
		lr_mult: 1
		decay_mult: 1
		name: "conv_5a_3x3_w"
	}
	param {
		lr_mult: 2
		decay_mult: 0
		name: "conv_5a_3x3_b"
	}
	convolution_param { 
		weight_filler {
			type: "xavier"
		}
		bias_filler {
			type: "constant"
			value: 0.2
		}
		 num_output: 320
		 kernel_size: 3
		 stride: 1
		 pad: 1
	}
}

layer {
	name: "bn_5a_3x3_s"
	type: "BatchNorm"
	bottom: "conv_5a_3x3_s"
	top: "conv_5a_3x3_s"
	batch_norm_param {

	}
}

layer {
	name: "scale_conv_5a_3x3_s"
	bottom: "conv_5a_3x3_s"
	top: "conv_5a_3x3_s"
	type: "Scale"
	scale_param {
		filler {
			value: 1
		}
		bias_filler {
			value: 0
		}
				bias_term: true
	}
}

layer {
	name: "relu_5a_3x3_s"
	type: "ReLU"
	bottom: "conv_5a_3x3_s"
	top: "conv_5a_3x3_s"
}

layer {
	name: "conv_5a_double_3x3_reduce_s"
	type: "Convolution"
	bottom: "ch_concat_4e_chconcat_s"
	top: "conv_5a_double_3x3_reduce_s"
	param {
		lr_mult: 1
		decay_mult: 1
		name: "conv_5a_double_3x3_reduce_w"
	}
	param {
		lr_mult: 2
		decay_mult: 0
		name: "conv_5a_double_3x3_reduce_b"
	}
	convolution_param { 
		weight_filler {
			type: "xavier"
		}
		bias_filler {
			type: "constant"
			value: 0.2
		}
		 num_output: 160
		 kernel_size: 1
		 stride: 1
		 pad: 0
	}
}

layer {
	name: "bn_5a_double_3x3_reduce_s"
	type: "BatchNorm"
	bottom: "conv_5a_double_3x3_reduce_s"
	top: "conv_5a_double_3x3_reduce_s"
	batch_norm_param {

	}
}

layer {
	name: "scale_conv_5a_double_3x3_reduce_s"
	bottom: "conv_5a_double_3x3_reduce_s"
	top: "conv_5a_double_3x3_reduce_s"
	type: "Scale"
	scale_param {
		filler {
			value: 1
		}
		bias_filler {
			value: 0
		}
				bias_term: true
	}
}

layer {
	name: "relu_5a_double_3x3_reduce_s"
	type: "ReLU"
	bottom: "conv_5a_double_3x3_reduce_s"
	top: "conv_5a_double_3x3_reduce_s"
}

layer {
	name: "conv_5a_double_3x3_0_s"
	type: "Convolution"
	bottom: "conv_5a_double_3x3_reduce_s"
	top: "conv_5a_double_3x3_0_s"
	param {
		lr_mult: 1
		decay_mult: 1
		name: "conv_5a_double_3x3_0_w"
	}
	param {
		lr_mult: 2
		decay_mult: 0
		name: "conv_5a_double_3x3_0_b"
	}
	convolution_param { 
		weight_filler {
			type: "xavier"
		}
		bias_filler {
			type: "constant"
			value: 0.2
		}
		 num_output: 224
		 kernel_size: 3
		 stride: 1
		 pad: 1
	}
}

layer {
	name: "bn_5a_double_3x3_0_s"
	type: "BatchNorm"
	bottom: "conv_5a_double_3x3_0_s"
	top: "conv_5a_double_3x3_0_s"
	batch_norm_param {

	}
}

layer {
	name: "scale_conv_5a_double_3x3_0_s"
	bottom: "conv_5a_double_3x3_0_s"
	top: "conv_5a_double_3x3_0_s"
	type: "Scale"
	scale_param {
		filler {
			value: 1
		}
		bias_filler {
			value: 0
		}
				bias_term: true
	}
}

layer {
	name: "relu_5a_double_3x3_0_s"
	type: "ReLU"
	bottom: "conv_5a_double_3x3_0_s"
	top: "conv_5a_double_3x3_0_s"
}

layer {
	name: "conv_5a_double_3x3_1_s"
	type: "Convolution"
	bottom: "conv_5a_double_3x3_0_s"
	top: "conv_5a_double_3x3_1_s"
	param {
		lr_mult: 1
		decay_mult: 1
		name: "conv_5a_double_3x3_1_w"
	}
	param {
		lr_mult: 2
		decay_mult: 0
		name: "conv_5a_double_3x3_1_b"
	}
	convolution_param { 
		weight_filler {
			type: "xavier"
		}
		bias_filler {
			type: "constant"
			value: 0.2
		}
		 num_output: 224
		 kernel_size: 3
		 stride: 1
		 pad: 1
	}
}

layer {
	name: "bn_5a_double_3x3_1_s"
	type: "BatchNorm"
	bottom: "conv_5a_double_3x3_1_s"
	top: "conv_5a_double_3x3_1_s"
	batch_norm_param {

	}
}

layer {
	name: "scale_conv_5a_double_3x3_1_s"
	bottom: "conv_5a_double_3x3_1_s"
	top: "conv_5a_double_3x3_1_s"
	type: "Scale"
	scale_param {
		filler {
			value: 1
		}
		bias_filler {
			value: 0
		}
				bias_term: true
	}
}

layer {
	name: "relu_5a_double_3x3_1_s"
	type: "ReLU"
	bottom: "conv_5a_double_3x3_1_s"
	top: "conv_5a_double_3x3_1_s"
}

layer {
	name: "ave_pool_5a_pool_s"
	type: "Pooling"
	bottom: "ch_concat_4e_chconcat_s"
	top: "ave_pool_5a_pool_s"
	pooling_param {
		 pool: AVE
		 kernel_size: 3
		 stride: 1
		 pad: 1
	}
}

layer {
	name: "conv_5a_proj_s"
	type: "Convolution"
	bottom: "ave_pool_5a_pool_s"
	top: "conv_5a_proj_s"
	param {
		lr_mult: 1
		decay_mult: 1
		name: "conv_5a_proj_w"
	}
	param {
		lr_mult: 2
		decay_mult: 0
		name: "conv_5a_proj_b"
	}
	convolution_param { 
		weight_filler {
			type: "xavier"
		}
		bias_filler {
			type: "constant"
			value: 0.2
		}
		 num_output: 128
		 kernel_size: 1
		 stride: 1
		 pad: 0
	}
}

layer {
	name: "bn_5a_proj_s"
	type: "BatchNorm"
	bottom: "conv_5a_proj_s"
	top: "conv_5a_proj_s"
	batch_norm_param {

	}
}

layer {
	name: "scale_conv_5a_proj_s"
	bottom: "conv_5a_proj_s"
	top: "conv_5a_proj_s"
	type: "Scale"
	scale_param {
		filler {
			value: 1
		}
		bias_filler {
			value: 0
		}
				bias_term: true
	}
}

layer {
	name: "relu_5a_proj_s"
	type: "ReLU"
	bottom: "conv_5a_proj_s"
	top: "conv_5a_proj_s"
}

layer {
	name: "ch_concat_5a_chconcat_s"
	type: "Concat"
	bottom: "conv_5a_1x1_s"
	bottom: "conv_5a_3x3_s"
	bottom: "conv_5a_double_3x3_1_s"
	bottom: "conv_5a_proj_s"
	top: "ch_concat_5a_chconcat_s"
}

layer {
	name: "conv_5b_1x1_s"
	type: "Convolution"
	bottom: "ch_concat_5a_chconcat_s"
	top: "conv_5b_1x1_s"
	param {
		lr_mult: 1
		decay_mult: 1
		name: "conv_5b_1x1_w"
	}
	param {
		lr_mult: 2
		decay_mult: 0
		name: "conv_5b_1x1_b"
	}
	convolution_param { 
		weight_filler {
			type: "xavier"
		}
		bias_filler {
			type: "constant"
			value: 0.2
		}
		 num_output: 352
		 kernel_size: 1
		 stride: 1
		 pad: 0
	}
}

layer {
	name: "bn_5b_1x1_s"
	type: "BatchNorm"
	bottom: "conv_5b_1x1_s"
	top: "conv_5b_1x1_s"
	batch_norm_param {

	}
}

layer {
	name: "scale_conv_5b_1x1_s"
	bottom: "conv_5b_1x1_s"
	top: "conv_5b_1x1_s"
	type: "Scale"
	scale_param {
		filler {
			value: 1
		}
		bias_filler {
			value: 0
		}
				bias_term: true
	}
}

layer {
	name: "relu_5b_1x1_s"
	type: "ReLU"
	bottom: "conv_5b_1x1_s"
	top: "conv_5b_1x1_s"
}

layer {
	name: "conv_5b_3x3_reduce_s"
	type: "Convolution"
	bottom: "ch_concat_5a_chconcat_s"
	top: "conv_5b_3x3_reduce_s"
	param {
		lr_mult: 1
		decay_mult: 1
		name: "conv_5b_3x3_reduce_w"
	}
	param {
		lr_mult: 2
		decay_mult: 0
		name: "conv_5b_3x3_reduce_b"
	}
	convolution_param { 
		weight_filler {
			type: "xavier"
		}
		bias_filler {
			type: "constant"
			value: 0.2
		}
		 num_output: 192
		 kernel_size: 1
		 stride: 1
		 pad: 0
	}
}

layer {
	name: "bn_5b_3x3_reduce_s"
	type: "BatchNorm"
	bottom: "conv_5b_3x3_reduce_s"
	top: "conv_5b_3x3_reduce_s"
	batch_norm_param {

	}
}

layer {
	name: "scale_conv_5b_3x3_reduce_s"
	bottom: "conv_5b_3x3_reduce_s"
	top: "conv_5b_3x3_reduce_s"
	type: "Scale"
	scale_param {
		filler {
			value: 1
		}
		bias_filler {
			value: 0
		}
				bias_term: true
	}
}

layer {
	name: "relu_5b_3x3_reduce_s"
	type: "ReLU"
	bottom: "conv_5b_3x3_reduce_s"
	top: "conv_5b_3x3_reduce_s"
}

layer {
	name: "conv_5b_3x3_s"
	type: "Convolution"
	bottom: "conv_5b_3x3_reduce_s"
	top: "conv_5b_3x3_s"
	param {
		lr_mult: 1
		decay_mult: 1
		name: "conv_5b_3x3_w"
	}
	param {
		lr_mult: 2
		decay_mult: 0
		name: "conv_5b_3x3_b"
	}
	convolution_param { 
		weight_filler {
			type: "xavier"
		}
		bias_filler {
			type: "constant"
			value: 0.2
		}
		 num_output: 320
		 kernel_size: 3
		 stride: 1
		 pad: 1
	}
}

layer {
	name: "bn_5b_3x3_s"
	type: "BatchNorm"
	bottom: "conv_5b_3x3_s"
	top: "conv_5b_3x3_s"
	batch_norm_param {

	}
}

layer {
	name: "scale_conv_5b_3x3_s"
	bottom: "conv_5b_3x3_s"
	top: "conv_5b_3x3_s"
	type: "Scale"
	scale_param {
		filler {
			value: 1
		}
		bias_filler {
			value: 0
		}
				bias_term: true
	}
}

layer {
	name: "relu_5b_3x3_s"
	type: "ReLU"
	bottom: "conv_5b_3x3_s"
	top: "conv_5b_3x3_s"
}

layer {
	name: "conv_5b_double_3x3_reduce_s"
	type: "Convolution"
	bottom: "ch_concat_5a_chconcat_s"
	top: "conv_5b_double_3x3_reduce_s"
	param {
		lr_mult: 1
		decay_mult: 1
		name: "conv_5b_double_3x3_reduce_w"
	}
	param {
		lr_mult: 2
		decay_mult: 0
		name: "conv_5b_double_3x3_reduce_b"
	}
	convolution_param { 
		weight_filler {
			type: "xavier"
		}
		bias_filler {
			type: "constant"
			value: 0.2
		}
		 num_output: 192
		 kernel_size: 1
		 stride: 1
		 pad: 0
	}
}

layer {
	name: "bn_5b_double_3x3_reduce_s"
	type: "BatchNorm"
	bottom: "conv_5b_double_3x3_reduce_s"
	top: "conv_5b_double_3x3_reduce_s"
	batch_norm_param {

	}
}

layer {
	name: "scale_conv_5b_double_3x3_reduce_s"
	bottom: "conv_5b_double_3x3_reduce_s"
	top: "conv_5b_double_3x3_reduce_s"
	type: "Scale"
	scale_param {
		filler {
			value: 1
		}
		bias_filler {
			value: 0
		}
				bias_term: true
	}
}

layer {
	name: "relu_5b_double_3x3_reduce_s"
	type: "ReLU"
	bottom: "conv_5b_double_3x3_reduce_s"
	top: "conv_5b_double_3x3_reduce_s"
}

layer {
	name: "conv_5b_double_3x3_0_s"
	type: "Convolution"
	bottom: "conv_5b_double_3x3_reduce_s"
	top: "conv_5b_double_3x3_0_s"
	param {
		lr_mult: 1
		decay_mult: 1
		name: "conv_5b_double_3x3_0_w"
	}
	param {
		lr_mult: 2
		decay_mult: 0
		name: "conv_5b_double_3x3_0_b"
	}
	convolution_param { 
		weight_filler {
			type: "xavier"
		}
		bias_filler {
			type: "constant"
			value: 0.2
		}
		 num_output: 224
		 kernel_size: 3
		 stride: 1
		 pad: 1
	}
}

layer {
	name: "bn_5b_double_3x3_0_s"
	type: "BatchNorm"
	bottom: "conv_5b_double_3x3_0_s"
	top: "conv_5b_double_3x3_0_s"
	batch_norm_param {

	}
}

layer {
	name: "scale_conv_5b_double_3x3_0_s"
	bottom: "conv_5b_double_3x3_0_s"
	top: "conv_5b_double_3x3_0_s"
	type: "Scale"
	scale_param {
		filler {
			value: 1
		}
		bias_filler {
			value: 0
		}
				bias_term: true
	}
}

layer {
	name: "relu_5b_double_3x3_0_s"
	type: "ReLU"
	bottom: "conv_5b_double_3x3_0_s"
	top: "conv_5b_double_3x3_0_s"
}

layer {
	name: "conv_5b_double_3x3_1_s"
	type: "Convolution"
	bottom: "conv_5b_double_3x3_0_s"
	top: "conv_5b_double_3x3_1_s"
	param {
		lr_mult: 1
		decay_mult: 1
		name: "conv_5b_double_3x3_1_w"
	}
	param {
		lr_mult: 2
		decay_mult: 0
		name: "conv_5b_double_3x3_1_b"
	}
	convolution_param { 
		weight_filler {
			type: "xavier"
		}
		bias_filler {
			type: "constant"
			value: 0.2
		}
		 num_output: 224
		 kernel_size: 3
		 stride: 1
		 pad: 1
	}
}

layer {
	name: "bn_5b_double_3x3_1_s"
	type: "BatchNorm"
	bottom: "conv_5b_double_3x3_1_s"
	top: "conv_5b_double_3x3_1_s"
	batch_norm_param {

	}
}

layer {
	name: "scale_conv_5b_double_3x3_1_s"
	bottom: "conv_5b_double_3x3_1_s"
	top: "conv_5b_double_3x3_1_s"
	type: "Scale"
	scale_param {
		filler {
			value: 1
		}
		bias_filler {
			value: 0
		}
				bias_term: true
	}
}

layer {
	name: "relu_5b_double_3x3_1_s"
	type: "ReLU"
	bottom: "conv_5b_double_3x3_1_s"
	top: "conv_5b_double_3x3_1_s"
}

layer {
	name: "max_pool_5b_pool_s"
	type: "Pooling"
	bottom: "ch_concat_5a_chconcat_s"
	top: "max_pool_5b_pool_s"
	pooling_param {
		 pool: MAX
		 kernel_size: 3
		 stride: 1
		 pad: 1
	}
}

layer {
	name: "conv_5b_proj_s"
	type: "Convolution"
	bottom: "max_pool_5b_pool_s"
	top: "conv_5b_proj_s"
	param {
		lr_mult: 1
		decay_mult: 1
		name: "conv_5b_proj_w"
	}
	param {
		lr_mult: 2
		decay_mult: 0
		name: "conv_5b_proj_b"
	}
	convolution_param { 
		weight_filler {
			type: "xavier"
		}
		bias_filler {
			type: "constant"
			value: 0.2
		}
		 num_output: 128
		 kernel_size: 1
		 stride: 1
		 pad: 0
	}
}

layer {
	name: "bn_5b_proj_s"
	type: "BatchNorm"
	bottom: "conv_5b_proj_s"
	top: "conv_5b_proj_s"
	batch_norm_param {

	}
}

layer {
	name: "scale_conv_5b_proj_s"
	bottom: "conv_5b_proj_s"
	top: "conv_5b_proj_s"
	type: "Scale"
	scale_param {
		filler {
			value: 1
		}
		bias_filler {
			value: 0
		}
				bias_term: true
	}
}

layer {
	name: "relu_5b_proj_s"
	type: "ReLU"
	bottom: "conv_5b_proj_s"
	top: "conv_5b_proj_s"
}

layer {
	name: "ch_concat_5b_chconcat_s"
	type: "Concat"
	bottom: "conv_5b_1x1_s"
	bottom: "conv_5b_3x3_s"
	bottom: "conv_5b_double_3x3_1_s"
	bottom: "conv_5b_proj_s"
	top: "ch_concat_5b_chconcat_s"
}

# ================================================================================================
# ======== Loss
# ================================================================================================

layer {
	name: "global_pool_s"
	type: "Pooling"
	bottom: "ch_concat_5b_chconcat_s"
	top: "global_pool_s"
	pooling_param {
		 global_pooling : true
		 pool: AVE
	}
}

layer {
	name: "fc1_b_s"
	type: "InnerProduct"
	bottom: "global_pool_s"
	top: "fc1_b_s"
	param {
		lr_mult: 1
		decay_mult: 1
		name: "Loss/InnerProduct_Loss_fc1_w"
	}
	param {
		lr_mult: 2
		decay_mult: 0
		name: "Loss/InnerProduct_Loss_fc1_b"
	}
	inner_product_param {
		num_output: 1000
		weight_filler {
			type: "xavier"
		}
		bias_filler {
			type: "constant"
			value: 0
		}
	}
}

# ================================================================================================
# ================================================================================================
# ======== NETWORK: 3
# ================================================================================================
# ================================================================================================

# ================================================================================================
# ======== conv_conv1
# ================================================================================================

layer {
	name: "conv_conv1_t"
	type: "Convolution"
	bottom: "data_3"
	top: "conv_conv1_t"
	param {
		lr_mult: 1
		decay_mult: 1
		name: "conv_conv1_w"
	}
	param {
		lr_mult: 2
		decay_mult: 0
		name: "conv_conv1_b"
	}
	convolution_param { 
		weight_filler {
			type: "xavier"
		}
		bias_filler {
			type: "constant"
			value: 0.2
		}
		 num_output: 96
		 kernel_size: 7
		 stride: 2
		 pad: 3
	}
}

layer {
	name: "bn_conv1_t"
	type: "BatchNorm"
	bottom: "conv_conv1_t"
	top: "conv_conv1_t"
	batch_norm_param {

	}
}

layer {
	name: "scale_conv_conv1_t"
	bottom: "conv_conv1_t"
	top: "conv_conv1_t"
	type: "Scale"
	scale_param {
		filler {
			value: 1
		}
		bias_filler {
			value: 0
		}
				bias_term: true
	}
}

layer {
	name: "relu_conv1_t"
	type: "ReLU"
	bottom: "conv_conv1_t"
	top: "conv_conv1_t"
}

layer {
	name: "pool1_t"
	type: "Pooling"
	bottom: "conv_conv1_t"
	top: "pool1_t"
	pooling_param {
		 pool: MAX
		 kernel_size: 3
		 stride: 2
		 pad: 0
	}
}

layer {
	name: "conv_conv2red_t"
	type: "Convolution"
	bottom: "pool1_t"
	top: "conv_conv2red_t"
	param {
		lr_mult: 1
		decay_mult: 1
		name: "conv_conv2red_w"
	}
	param {
		lr_mult: 2
		decay_mult: 0
		name: "conv_conv2red_b"
	}
	convolution_param { 
		weight_filler {
			type: "xavier"
		}
		bias_filler {
			type: "constant"
			value: 0.2
		}
		 num_output: 128
		 kernel_size: 1
		 stride: 1
		 pad: 0
	}
}

layer {
	name: "bn_conv2red_t"
	type: "BatchNorm"
	bottom: "conv_conv2red_t"
	top: "conv_conv2red_t"
	batch_norm_param {

	}
}

layer {
	name: "scale_conv_conv2red_t"
	bottom: "conv_conv2red_t"
	top: "conv_conv2red_t"
	type: "Scale"
	scale_param {
		filler {
			value: 1
		}
		bias_filler {
			value: 0
		}
				bias_term: true
	}
}

layer {
	name: "relu_conv2red_t"
	type: "ReLU"
	bottom: "conv_conv2red_t"
	top: "conv_conv2red_t"
}

layer {
	name: "conv_conv2_t"
	type: "Convolution"
	bottom: "conv_conv2red_t"
	top: "conv_conv2_t"
	param {
		lr_mult: 1
		decay_mult: 1
		name: "conv_conv2_w"
	}
	param {
		lr_mult: 2
		decay_mult: 0
		name: "conv_conv2_b"
	}
	convolution_param { 
		weight_filler {
			type: "xavier"
		}
		bias_filler {
			type: "constant"
			value: 0.2
		}
		 num_output: 288
		 kernel_size: 3
		 stride: 1
		 pad: 1
	}
}

layer {
	name: "bn_conv2_t"
	type: "BatchNorm"
	bottom: "conv_conv2_t"
	top: "conv_conv2_t"
	batch_norm_param {

	}
}

layer {
	name: "scale_conv_conv2_t"
	bottom: "conv_conv2_t"
	top: "conv_conv2_t"
	type: "Scale"
	scale_param {
		filler {
			value: 1
		}
		bias_filler {
			value: 0
		}
				bias_term: true
	}
}

layer {
	name: "relu_conv2_t"
	type: "ReLU"
	bottom: "conv_conv2_t"
	top: "conv_conv2_t"
}

layer {
	name: "pool2_t"
	type: "Pooling"
	bottom: "conv_conv2_t"
	top: "pool2_t"
	pooling_param {
		 pool: MAX
		 kernel_size: 3
		 stride: 2
		 pad: 0
	}
}

layer {
	name: "conv_3a_1x1_t"
	type: "Convolution"
	bottom: "pool2_t"
	top: "conv_3a_1x1_t"
	param {
		lr_mult: 1
		decay_mult: 1
		name: "conv_3a_1x1_w"
	}
	param {
		lr_mult: 2
		decay_mult: 0
		name: "conv_3a_1x1_b"
	}
	convolution_param { 
		weight_filler {
			type: "xavier"
		}
		bias_filler {
			type: "constant"
			value: 0.2
		}
		 num_output: 96
		 kernel_size: 1
		 stride: 1
		 pad: 0
	}
}

layer {
	name: "bn_3a_1x1_t"
	type: "BatchNorm"
	bottom: "conv_3a_1x1_t"
	top: "conv_3a_1x1_t"
	batch_norm_param {

	}
}

layer {
	name: "scale_conv_3a_1x1_t"
	bottom: "conv_3a_1x1_t"
	top: "conv_3a_1x1_t"
	type: "Scale"
	scale_param {
		filler {
			value: 1
		}
		bias_filler {
			value: 0
		}
				bias_term: true
	}
}

layer {
	name: "relu_3a_1x1_t"
	type: "ReLU"
	bottom: "conv_3a_1x1_t"
	top: "conv_3a_1x1_t"
}

layer {
	name: "conv_3a_3x3_reduce_t"
	type: "Convolution"
	bottom: "pool2_t"
	top: "conv_3a_3x3_reduce_t"
	param {
		lr_mult: 1
		decay_mult: 1
		name: "conv_3a_3x3_reduce_w"
	}
	param {
		lr_mult: 2
		decay_mult: 0
		name: "conv_3a_3x3_reduce_b"
	}
	convolution_param { 
		weight_filler {
			type: "xavier"
		}
		bias_filler {
			type: "constant"
			value: 0.2
		}
		 num_output: 96
		 kernel_size: 1
		 stride: 1
		 pad: 0
	}
}

layer {
	name: "bn_3a_3x3_reduce_t"
	type: "BatchNorm"
	bottom: "conv_3a_3x3_reduce_t"
	top: "conv_3a_3x3_reduce_t"
	batch_norm_param {

	}
}

layer {
	name: "scale_conv_3a_3x3_reduce_t"
	bottom: "conv_3a_3x3_reduce_t"
	top: "conv_3a_3x3_reduce_t"
	type: "Scale"
	scale_param {
		filler {
			value: 1
		}
		bias_filler {
			value: 0
		}
				bias_term: true
	}
}

layer {
	name: "relu_3a_3x3_reduce_t"
	type: "ReLU"
	bottom: "conv_3a_3x3_reduce_t"
	top: "conv_3a_3x3_reduce_t"
}

layer {
	name: "conv_3a_3x3_t"
	type: "Convolution"
	bottom: "conv_3a_3x3_reduce_t"
	top: "conv_3a_3x3_t"
	param {
		lr_mult: 1
		decay_mult: 1
		name: "conv_3a_3x3_w"
	}
	param {
		lr_mult: 2
		decay_mult: 0
		name: "conv_3a_3x3_b"
	}
	convolution_param { 
		weight_filler {
			type: "xavier"
		}
		bias_filler {
			type: "constant"
			value: 0.2
		}
		 num_output: 96
		 kernel_size: 3
		 stride: 1
		 pad: 1
	}
}

layer {
	name: "bn_3a_3x3_t"
	type: "BatchNorm"
	bottom: "conv_3a_3x3_t"
	top: "conv_3a_3x3_t"
	batch_norm_param {

	}
}

layer {
	name: "scale_conv_3a_3x3_t"
	bottom: "conv_3a_3x3_t"
	top: "conv_3a_3x3_t"
	type: "Scale"
	scale_param {
		filler {
			value: 1
		}
		bias_filler {
			value: 0
		}
				bias_term: true
	}
}

layer {
	name: "relu_3a_3x3_t"
	type: "ReLU"
	bottom: "conv_3a_3x3_t"
	top: "conv_3a_3x3_t"
}

layer {
	name: "conv_3a_double_3x3_reduce_t"
	type: "Convolution"
	bottom: "pool2_t"
	top: "conv_3a_double_3x3_reduce_t"
	param {
		lr_mult: 1
		decay_mult: 1
		name: "conv_3a_double_3x3_reduce_w"
	}
	param {
		lr_mult: 2
		decay_mult: 0
		name: "conv_3a_double_3x3_reduce_b"
	}
	convolution_param { 
		weight_filler {
			type: "xavier"
		}
		bias_filler {
			type: "constant"
			value: 0.2
		}
		 num_output: 96
		 kernel_size: 1
		 stride: 1
		 pad: 0
	}
}

layer {
	name: "bn_3a_double_3x3_reduce_t"
	type: "BatchNorm"
	bottom: "conv_3a_double_3x3_reduce_t"
	top: "conv_3a_double_3x3_reduce_t"
	batch_norm_param {

	}
}

layer {
	name: "scale_conv_3a_double_3x3_reduce_t"
	bottom: "conv_3a_double_3x3_reduce_t"
	top: "conv_3a_double_3x3_reduce_t"
	type: "Scale"
	scale_param {
		filler {
			value: 1
		}
		bias_filler {
			value: 0
		}
				bias_term: true
	}
}

layer {
	name: "relu_3a_double_3x3_reduce_t"
	type: "ReLU"
	bottom: "conv_3a_double_3x3_reduce_t"
	top: "conv_3a_double_3x3_reduce_t"
}

layer {
	name: "conv_3a_double_3x3_0_t"
	type: "Convolution"
	bottom: "conv_3a_double_3x3_reduce_t"
	top: "conv_3a_double_3x3_0_t"
	param {
		lr_mult: 1
		decay_mult: 1
		name: "conv_3a_double_3x3_0_w"
	}
	param {
		lr_mult: 2
		decay_mult: 0
		name: "conv_3a_double_3x3_0_b"
	}
	convolution_param { 
		weight_filler {
			type: "xavier"
		}
		bias_filler {
			type: "constant"
			value: 0.2
		}
		 num_output: 144
		 kernel_size: 3
		 stride: 1
		 pad: 1
	}
}

layer {
	name: "bn_3a_double_3x3_0_t"
	type: "BatchNorm"
	bottom: "conv_3a_double_3x3_0_t"
	top: "conv_3a_double_3x3_0_t"
	batch_norm_param {

	}
}

layer {
	name: "scale_conv_3a_double_3x3_0_t"
	bottom: "conv_3a_double_3x3_0_t"
	top: "conv_3a_double_3x3_0_t"
	type: "Scale"
	scale_param {
		filler {
			value: 1
		}
		bias_filler {
			value: 0
		}
				bias_term: true
	}
}

layer {
	name: "relu_3a_double_3x3_0_t"
	type: "ReLU"
	bottom: "conv_3a_double_3x3_0_t"
	top: "conv_3a_double_3x3_0_t"
}

layer {
	name: "conv_3a_double_3x3_1_t"
	type: "Convolution"
	bottom: "conv_3a_double_3x3_0_t"
	top: "conv_3a_double_3x3_1_t"
	param {
		lr_mult: 1
		decay_mult: 1
		name: "conv_3a_double_3x3_1_w"
	}
	param {
		lr_mult: 2
		decay_mult: 0
		name: "conv_3a_double_3x3_1_b"
	}
	convolution_param { 
		weight_filler {
			type: "xavier"
		}
		bias_filler {
			type: "constant"
			value: 0.2
		}
		 num_output: 144
		 kernel_size: 3
		 stride: 1
		 pad: 1
	}
}

layer {
	name: "bn_3a_double_3x3_1_t"
	type: "BatchNorm"
	bottom: "conv_3a_double_3x3_1_t"
	top: "conv_3a_double_3x3_1_t"
	batch_norm_param {

	}
}

layer {
	name: "scale_conv_3a_double_3x3_1_t"
	bottom: "conv_3a_double_3x3_1_t"
	top: "conv_3a_double_3x3_1_t"
	type: "Scale"
	scale_param {
		filler {
			value: 1
		}
		bias_filler {
			value: 0
		}
				bias_term: true
	}
}

layer {
	name: "relu_3a_double_3x3_1_t"
	type: "ReLU"
	bottom: "conv_3a_double_3x3_1_t"
	top: "conv_3a_double_3x3_1_t"
}

layer {
	name: "ave_pool_3a_pool_t"
	type: "Pooling"
	bottom: "pool2_t"
	top: "ave_pool_3a_pool_t"
	pooling_param {
		 pool: AVE
		 kernel_size: 3
		 stride: 1
		 pad: 1
	}
}

layer {
	name: "conv_3a_proj_t"
	type: "Convolution"
	bottom: "ave_pool_3a_pool_t"
	top: "conv_3a_proj_t"
	param {
		lr_mult: 1
		decay_mult: 1
		name: "conv_3a_proj_w"
	}
	param {
		lr_mult: 2
		decay_mult: 0
		name: "conv_3a_proj_b"
	}
	convolution_param { 
		weight_filler {
			type: "xavier"
		}
		bias_filler {
			type: "constant"
			value: 0.2
		}
		 num_output: 48
		 kernel_size: 1
		 stride: 1
		 pad: 0
	}
}

layer {
	name: "bn_3a_proj_t"
	type: "BatchNorm"
	bottom: "conv_3a_proj_t"
	top: "conv_3a_proj_t"
	batch_norm_param {

	}
}

layer {
	name: "scale_conv_3a_proj_t"
	bottom: "conv_3a_proj_t"
	top: "conv_3a_proj_t"
	type: "Scale"
	scale_param {
		filler {
			value: 1
		}
		bias_filler {
			value: 0
		}
				bias_term: true
	}
}

layer {
	name: "relu_3a_proj_t"
	type: "ReLU"
	bottom: "conv_3a_proj_t"
	top: "conv_3a_proj_t"
}

layer {
	name: "ch_concat_3a_chconcat_t"
	type: "Concat"
	bottom: "conv_3a_1x1_t"
	bottom: "conv_3a_3x3_t"
	bottom: "conv_3a_double_3x3_1_t"
	bottom: "conv_3a_proj_t"
	top: "ch_concat_3a_chconcat_t"
}

layer {
	name: "conv_3b_1x1_t"
	type: "Convolution"
	bottom: "ch_concat_3a_chconcat_t"
	top: "conv_3b_1x1_t"
	param {
		lr_mult: 1
		decay_mult: 1
		name: "conv_3b_1x1_w"
	}
	param {
		lr_mult: 2
		decay_mult: 0
		name: "conv_3b_1x1_b"
	}
	convolution_param { 
		weight_filler {
			type: "xavier"
		}
		bias_filler {
			type: "constant"
			value: 0.2
		}
		 num_output: 96
		 kernel_size: 1
		 stride: 1
		 pad: 0
	}
}

layer {
	name: "bn_3b_1x1_t"
	type: "BatchNorm"
	bottom: "conv_3b_1x1_t"
	top: "conv_3b_1x1_t"
	batch_norm_param {

	}
}

layer {
	name: "scale_conv_3b_1x1_t"
	bottom: "conv_3b_1x1_t"
	top: "conv_3b_1x1_t"
	type: "Scale"
	scale_param {
		filler {
			value: 1
		}
		bias_filler {
			value: 0
		}
				bias_term: true
	}
}

layer {
	name: "relu_3b_1x1_t"
	type: "ReLU"
	bottom: "conv_3b_1x1_t"
	top: "conv_3b_1x1_t"
}

layer {
	name: "conv_3b_3x3_reduce_t"
	type: "Convolution"
	bottom: "ch_concat_3a_chconcat_t"
	top: "conv_3b_3x3_reduce_t"
	param {
		lr_mult: 1
		decay_mult: 1
		name: "conv_3b_3x3_reduce_w"
	}
	param {
		lr_mult: 2
		decay_mult: 0
		name: "conv_3b_3x3_reduce_b"
	}
	convolution_param { 
		weight_filler {
			type: "xavier"
		}
		bias_filler {
			type: "constant"
			value: 0.2
		}
		 num_output: 96
		 kernel_size: 1
		 stride: 1
		 pad: 0
	}
}

layer {
	name: "bn_3b_3x3_reduce_t"
	type: "BatchNorm"
	bottom: "conv_3b_3x3_reduce_t"
	top: "conv_3b_3x3_reduce_t"
	batch_norm_param {

	}
}

layer {
	name: "scale_conv_3b_3x3_reduce_t"
	bottom: "conv_3b_3x3_reduce_t"
	top: "conv_3b_3x3_reduce_t"
	type: "Scale"
	scale_param {
		filler {
			value: 1
		}
		bias_filler {
			value: 0
		}
				bias_term: true
	}
}

layer {
	name: "relu_3b_3x3_reduce_t"
	type: "ReLU"
	bottom: "conv_3b_3x3_reduce_t"
	top: "conv_3b_3x3_reduce_t"
}

layer {
	name: "conv_3b_3x3_t"
	type: "Convolution"
	bottom: "conv_3b_3x3_reduce_t"
	top: "conv_3b_3x3_t"
	param {
		lr_mult: 1
		decay_mult: 1
		name: "conv_3b_3x3_w"
	}
	param {
		lr_mult: 2
		decay_mult: 0
		name: "conv_3b_3x3_b"
	}
	convolution_param { 
		weight_filler {
			type: "xavier"
		}
		bias_filler {
			type: "constant"
			value: 0.2
		}
		 num_output: 144
		 kernel_size: 3
		 stride: 1
		 pad: 1
	}
}

layer {
	name: "bn_3b_3x3_t"
	type: "BatchNorm"
	bottom: "conv_3b_3x3_t"
	top: "conv_3b_3x3_t"
	batch_norm_param {

	}
}

layer {
	name: "scale_conv_3b_3x3_t"
	bottom: "conv_3b_3x3_t"
	top: "conv_3b_3x3_t"
	type: "Scale"
	scale_param {
		filler {
			value: 1
		}
		bias_filler {
			value: 0
		}
				bias_term: true
	}
}

layer {
	name: "relu_3b_3x3_t"
	type: "ReLU"
	bottom: "conv_3b_3x3_t"
	top: "conv_3b_3x3_t"
}

layer {
	name: "conv_3b_double_3x3_reduce_t"
	type: "Convolution"
	bottom: "ch_concat_3a_chconcat_t"
	top: "conv_3b_double_3x3_reduce_t"
	param {
		lr_mult: 1
		decay_mult: 1
		name: "conv_3b_double_3x3_reduce_w"
	}
	param {
		lr_mult: 2
		decay_mult: 0
		name: "conv_3b_double_3x3_reduce_b"
	}
	convolution_param { 
		weight_filler {
			type: "xavier"
		}
		bias_filler {
			type: "constant"
			value: 0.2
		}
		 num_output: 96
		 kernel_size: 1
		 stride: 1
		 pad: 0
	}
}

layer {
	name: "bn_3b_double_3x3_reduce_t"
	type: "BatchNorm"
	bottom: "conv_3b_double_3x3_reduce_t"
	top: "conv_3b_double_3x3_reduce_t"
	batch_norm_param {

	}
}

layer {
	name: "scale_conv_3b_double_3x3_reduce_t"
	bottom: "conv_3b_double_3x3_reduce_t"
	top: "conv_3b_double_3x3_reduce_t"
	type: "Scale"
	scale_param {
		filler {
			value: 1
		}
		bias_filler {
			value: 0
		}
				bias_term: true
	}
}

layer {
	name: "relu_3b_double_3x3_reduce_t"
	type: "ReLU"
	bottom: "conv_3b_double_3x3_reduce_t"
	top: "conv_3b_double_3x3_reduce_t"
}

layer {
	name: "conv_3b_double_3x3_0_t"
	type: "Convolution"
	bottom: "conv_3b_double_3x3_reduce_t"
	top: "conv_3b_double_3x3_0_t"
	param {
		lr_mult: 1
		decay_mult: 1
		name: "conv_3b_double_3x3_0_w"
	}
	param {
		lr_mult: 2
		decay_mult: 0
		name: "conv_3b_double_3x3_0_b"
	}
	convolution_param { 
		weight_filler {
			type: "xavier"
		}
		bias_filler {
			type: "constant"
			value: 0.2
		}
		 num_output: 144
		 kernel_size: 3
		 stride: 1
		 pad: 1
	}
}

layer {
	name: "bn_3b_double_3x3_0_t"
	type: "BatchNorm"
	bottom: "conv_3b_double_3x3_0_t"
	top: "conv_3b_double_3x3_0_t"
	batch_norm_param {

	}
}

layer {
	name: "scale_conv_3b_double_3x3_0_t"
	bottom: "conv_3b_double_3x3_0_t"
	top: "conv_3b_double_3x3_0_t"
	type: "Scale"
	scale_param {
		filler {
			value: 1
		}
		bias_filler {
			value: 0
		}
				bias_term: true
	}
}

layer {
	name: "relu_3b_double_3x3_0_t"
	type: "ReLU"
	bottom: "conv_3b_double_3x3_0_t"
	top: "conv_3b_double_3x3_0_t"
}

layer {
	name: "conv_3b_double_3x3_1_t"
	type: "Convolution"
…
	name: "relu_3c_double_3x3_1_t"
	type: "ReLU"
	bottom: "conv_3c_double_3x3_1_t"
	top: "conv_3c_double_3x3_1_t"
}

layer {
	name: "max_pool_3c_pool_t"
	type: "Pooling"
	bottom: "ch_concat_3b_chconcat_t"
	top: "max_pool_3c_pool_t"
	pooling_param {
		 pool: MAX
		 kernel_size: 3
		 stride: 2
		 pad: 0
	}
}

layer {
	name: "ch_concat_3c_chconcat_t"
	type: "Concat"
	bottom: "conv_3c_3x3_t"
	bottom: "conv_3c_double_3x3_1_t"
	bottom: "max_pool_3c_pool_t"
	top: "ch_concat_3c_chconcat_t"
}

layer {
	name: "conv_4a_1x1_t"
	type: "Convolution"
	bottom: "ch_concat_3c_chconcat_t"
	top: "conv_4a_1x1_t"
	param {
		lr_mult: 1
		decay_mult: 1
		name: "conv_4a_1x1_w"
	}
	param {
		lr_mult: 2
		decay_mult: 0
		name: "conv_4a_1x1_b"
	}
	convolution_param { 
		weight_filler {
			type: "xavier"
		}
		bias_filler {
			type: "constant"
			value: 0.2
		}
		 num_output: 224
		 kernel_size: 1
		 stride: 1
		 pad: 0
	}
}

layer {
	name: "bn_4a_1x1_t"
	type: "BatchNorm"
	bottom: "conv_4a_1x1_t"
	top: "conv_4a_1x1_t"
	batch_norm_param {

	}
}

layer {
	name: "scale_conv_4a_1x1_t"
	bottom: "conv_4a_1x1_t"
	top: "conv_4a_1x1_t"
	type: "Scale"
	scale_param {
		filler {
			value: 1
		}
		bias_filler {
			value: 0
		}
				bias_term: true
	}
}

layer {
	name: "relu_4a_1x1_t"
	type: "ReLU"
	bottom: "conv_4a_1x1_t"
	top: "conv_4a_1x1_t"
}

layer {
	name: "conv_4a_3x3_reduce_t"
	type: "Convolution"
	bottom: "ch_concat_3c_chconcat_t"
	top: "conv_4a_3x3_reduce_t"
	param {
		lr_mult: 1
		decay_mult: 1
		name: "conv_4a_3x3_reduce_w"
	}
	param {
		lr_mult: 2
		decay_mult: 0
		name: "conv_4a_3x3_reduce_b"
	}
	convolution_param { 
		weight_filler {
			type: "xavier"
		}
		bias_filler {
			type: "constant"
			value: 0.2
		}
		 num_output: 64
		 kernel_size: 1
		 stride: 1
		 pad: 0
	}
}

layer {
	name: "bn_4a_3x3_reduce_t"
	type: "BatchNorm"
	bottom: "conv_4a_3x3_reduce_t"
	top: "conv_4a_3x3_reduce_t"
	batch_norm_param {

	}
}

layer {
	name: "scale_conv_4a_3x3_reduce_t"
	bottom: "conv_4a_3x3_reduce_t"
	top: "conv_4a_3x3_reduce_t"
	type: "Scale"
	scale_param {
		filler {
			value: 1
		}
		bias_filler {
			value: 0
		}
				bias_term: true
	}
}

layer {
	name: "relu_4a_3x3_reduce_t"
	type: "ReLU"
	bottom: "conv_4a_3x3_reduce_t"
	top: "conv_4a_3x3_reduce_t"
}

layer {
	name: "conv_4a_3x3_t"
	type: "Convolution"
	bottom: "conv_4a_3x3_reduce_t"
	top: "conv_4a_3x3_t"
	param {
		lr_mult: 1
		decay_mult: 1
		name: "conv_4a_3x3_w"
	}
	param {
		lr_mult: 2
		decay_mult: 0
		name: "conv_4a_3x3_b"
	}
	convolution_param { 
		weight_filler {
			type: "xavier"
		}
		bias_filler {
			type: "constant"
			value: 0.2
		}
		 num_output: 96
		 kernel_size: 3
		 stride: 1
		 pad: 1
	}
}

layer {
	name: "bn_4a_3x3_t"
	type: "BatchNorm"
	bottom: "conv_4a_3x3_t"
	top: "conv_4a_3x3_t"
	batch_norm_param {

	}
}

layer {
	name: "scale_conv_4a_3x3_t"
	bottom: "conv_4a_3x3_t"
	top: "conv_4a_3x3_t"
	type: "Scale"
	scale_param {
		filler {
			value: 1
		}
		bias_filler {
			value: 0
		}
				bias_term: true
	}
}

layer {
	name: "relu_4a_3x3_t"
	type: "ReLU"
	bottom: "conv_4a_3x3_t"
	top: "conv_4a_3x3_t"
}

layer {
	name: "conv_4a_double_3x3_reduce_t"
	type: "Convolution"
	bottom: "ch_concat_3c_chconcat_t"
	top: "conv_4a_double_3x3_reduce_t"
	param {
		lr_mult: 1
		decay_mult: 1
		name: "conv_4a_double_3x3_reduce_w"
	}
	param {
		lr_mult: 2
		decay_mult: 0
		name: "conv_4a_double_3x3_reduce_b"
	}
	convolution_param { 
		weight_filler {
			type: "xavier"
		}
		bias_filler {
			type: "constant"
			value: 0.2
		}
		 num_output: 96
		 kernel_size: 1
		 stride: 1
		 pad: 0
	}
}

layer {
	name: "bn_4a_double_3x3_reduce_t"
	type: "BatchNorm"
	bottom: "conv_4a_double_3x3_reduce_t"
	top: "conv_4a_double_3x3_reduce_t"
	batch_norm_param {

	}
}

layer {
	name: "scale_conv_4a_double_3x3_reduce_t"
	bottom: "conv_4a_double_3x3_reduce_t"
	top: "conv_4a_double_3x3_reduce_t"
	type: "Scale"
	scale_param {
		filler {
			value: 1
		}
		bias_filler {
			value: 0
		}
				bias_term: true
	}
}

layer {
	name: "relu_4a_double_3x3_reduce_t"
	type: "ReLU"
	bottom: "conv_4a_double_3x3_reduce_t"
	top: "conv_4a_double_3x3_reduce_t"
}

layer {
	name: "conv_4a_double_3x3_0_t"
	type: "Convolution"
	bottom: "conv_4a_double_3x3_reduce_t"
	top: "conv_4a_double_3x3_0_t"
	param {
		lr_mult: 1
		decay_mult: 1
		name: "conv_4a_double_3x3_0_w"
	}
	param {
		lr_mult: 2
		decay_mult: 0
		name: "conv_4a_double_3x3_0_b"
	}
	convolution_param { 
		weight_filler {
			type: "xavier"
		}
		bias_filler {
			type: "constant"
			value: 0.2
		}
		 num_output: 128
		 kernel_size: 3
		 stride: 1
		 pad: 1
	}
}

layer {
	name: "bn_4a_double_3x3_0_t"
	type: "BatchNorm"
	bottom: "conv_4a_double_3x3_0_t"
	top: "conv_4a_double_3x3_0_t"
	batch_norm_param {

	}
}

layer {
	name: "scale_conv_4a_double_3x3_0_t"
	bottom: "conv_4a_double_3x3_0_t"
	top: "conv_4a_double_3x3_0_t"
	type: "Scale"
	scale_param {
		filler {
			value: 1
		}
		bias_filler {
			value: 0
		}
				bias_term: true
	}
}

layer {
	name: "relu_4a_double_3x3_0_t"
	type: "ReLU"
	bottom: "conv_4a_double_3x3_0_t"
	top: "conv_4a_double_3x3_0_t"
}

layer {
	name: "conv_4a_double_3x3_1_t"
	type: "Convolution"
	bottom: "conv_4a_double_3x3_0_t"
	top: "conv_4a_double_3x3_1_t"
	param {
		lr_mult: 1
		decay_mult: 1
		name: "conv_4a_double_3x3_1_w"
	}
	param {
		lr_mult: 2
		decay_mult: 0
		name: "conv_4a_double_3x3_1_b"
	}
	convolution_param { 
		weight_filler {
			type: "xavier"
		}
		bias_filler {
			type: "constant"
			value: 0.2
		}
		 num_output: 128
		 kernel_size: 3
		 stride: 1
		 pad: 1
	}
}

layer {
	name: "bn_4a_double_3x3_1_t"
	type: "BatchNorm"
	bottom: "conv_4a_double_3x3_1_t"
	top: "conv_4a_double_3x3_1_t"
	batch_norm_param {

	}
}

layer {
	name: "scale_conv_4a_double_3x3_1_t"
	bottom: "conv_4a_double_3x3_1_t"
	top: "conv_4a_double_3x3_1_t"
	type: "Scale"
	scale_param {
		filler {
			value: 1
		}
		bias_filler {
			value: 0
		}
				bias_term: true
	}
}

layer {
	name: "relu_4a_double_3x3_1_t"
	type: "ReLU"
	bottom: "conv_4a_double_3x3_1_t"
	top: "conv_4a_double_3x3_1_t"
}

layer {
	name: "ave_pool_4a_pool_t"
	type: "Pooling"
	bottom: "ch_concat_3c_chconcat_t"
	top: "ave_pool_4a_pool_t"
	pooling_param {
		 pool: AVE
		 kernel_size: 3
		 stride: 1
		 pad: 1
	}
}

layer {
	name: "conv_4a_proj_t"
	type: "Convolution"
	bottom: "ave_pool_4a_pool_t"
	top: "conv_4a_proj_t"
	param {
		lr_mult: 1
		decay_mult: 1
		name: "conv_4a_proj_w"
	}
	param {
		lr_mult: 2
		decay_mult: 0
		name: "conv_4a_proj_b"
	}
	convolution_param { 
		weight_filler {
			type: "xavier"
		}
		bias_filler {
			type: "constant"
			value: 0.2
		}
		 num_output: 128
		 kernel_size: 1
		 stride: 1
		 pad: 0
	}
}

layer {
	name: "bn_4a_proj_t"
	type: "BatchNorm"
	bottom: "conv_4a_proj_t"
	top: "conv_4a_proj_t"
	batch_norm_param {

	}
}

layer {
	name: "scale_conv_4a_proj_t"
	bottom: "conv_4a_proj_t"
	top: "conv_4a_proj_t"
	type: "Scale"
	scale_param {
		filler {
			value: 1
		}
		bias_filler {
			value: 0
		}
				bias_term: true
	}
}

layer {
	name: "relu_4a_proj_t"
	type: "ReLU"
	bottom: "conv_4a_proj_t"
	top: "conv_4a_proj_t"
}

layer {
	name: "ch_concat_4a_chconcat_t"
	type: "Concat"
	bottom: "conv_4a_1x1_t"
	bottom: "conv_4a_3x3_t"
	bottom: "conv_4a_double_3x3_1_t"
	bottom: "conv_4a_proj_t"
	top: "ch_concat_4a_chconcat_t"
}

layer {
	name: "conv_4b_1x1_t"
	type: "Convolution"
	bottom: "ch_concat_4a_chconcat_t"
	top: "conv_4b_1x1_t"
	param {
		lr_mult: 1
		decay_mult: 1
		name: "conv_4b_1x1_w"
	}
	param {
		lr_mult: 2
		decay_mult: 0
		name: "conv_4b_1x1_b"
	}
	convolution_param { 
		weight_filler {
			type: "xavier"
		}
		bias_filler {
			type: "constant"
			value: 0.2
		}
		 num_output: 192
		 kernel_size: 1
		 stride: 1
		 pad: 0
	}
}

layer {
	name: "bn_4b_1x1_t"
	type: "BatchNorm"
	bottom: "conv_4b_1x1_t"
	top: "conv_4b_1x1_t"
	batch_norm_param {

	}
}

layer {
	name: "scale_conv_4b_1x1_t"
	bottom: "conv_4b_1x1_t"
	top: "conv_4b_1x1_t"
	type: "Scale"
	scale_param {
		filler {
			value: 1
		}
		bias_filler {
			value: 0
		}
				bias_term: true
	}
}

layer {
	name: "relu_4b_1x1_t"
	type: "ReLU"
	bottom: "conv_4b_1x1_t"
	top: "conv_4b_1x1_t"
}

layer {
	name: "conv_4b_3x3_reduce_t"
	type: "Convolution"
	bottom: "ch_concat_4a_chconcat_t"
	top: "conv_4b_3x3_reduce_t"
	param {
		lr_mult: 1
		decay_mult: 1
		name: "conv_4b_3x3_reduce_w"
	}
	param {
		lr_mult: 2
		decay_mult: 0
		name: "conv_4b_3x3_reduce_b"
	}
	convolution_param { 
		weight_filler {
			type: "xavier"
		}
		bias_filler {
			type: "constant"
			value: 0.2
		}
		 num_output: 96
		 kernel_size: 1
		 stride: 1
		 pad: 0
	}
}

layer {
	name: "bn_4b_3x3_reduce_t"
	type: "BatchNorm"
	bottom: "conv_4b_3x3_reduce_t"
	top: "conv_4b_3x3_reduce_t"
	batch_norm_param {

	}
}

layer {
	name: "scale_conv_4b_3x3_reduce_t"
	bottom: "conv_4b_3x3_reduce_t"
	top: "conv_4b_3x3_reduce_t"
	type: "Scale"
	scale_param {
		filler {
			value: 1
		}
		bias_filler {
			value: 0
		}
				bias_term: true
	}
}

layer {
	name: "relu_4b_3x3_reduce_t"
	type: "ReLU"
	bottom: "conv_4b_3x3_reduce_t"
	top: "conv_4b_3x3_reduce_t"
}

layer {
	name: "conv_4b_3x3_t"
	type: "Convolution"
	bottom: "conv_4b_3x3_reduce_t"
	top: "conv_4b_3x3_t"
	param {
		lr_mult: 1
		decay_mult: 1
		name: "conv_4b_3x3_w"
	}
	param {
		lr_mult: 2
		decay_mult: 0
		name: "conv_4b_3x3_b"
	}
	convolution_param { 
		weight_filler {
			type: "xavier"
		}
		bias_filler {
			type: "constant"
			value: 0.2
		}
		 num_output: 128
		 kernel_size: 3
		 stride: 1
		 pad: 1
	}
}

layer {
	name: "bn_4b_3x3_t"
	type: "BatchNorm"
	bottom: "conv_4b_3x3_t"
	top: "conv_4b_3x3_t"
	batch_norm_param {

	}
}

layer {
	name: "scale_conv_4b_3x3_t"
	bottom: "conv_4b_3x3_t"
	top: "conv_4b_3x3_t"
	type: "Scale"
	scale_param {
		filler {
			value: 1
		}
		bias_filler {
			value: 0
		}
				bias_term: true
	}
}

layer {
	name: "relu_4b_3x3_t"
	type: "ReLU"
	bottom: "conv_4b_3x3_t"
	top: "conv_4b_3x3_t"
}

layer {
	name: "conv_4b_double_3x3_reduce_t"
	type: "Convolution"
	bottom: "ch_concat_4a_chconcat_t"
	top: "conv_4b_double_3x3_reduce_t"
	param {
		lr_mult: 1
		decay_mult: 1
		name: "conv_4b_double_3x3_reduce_w"
	}
	param {
		lr_mult: 2
		decay_mult: 0
		name: "conv_4b_double_3x3_reduce_b"
	}
	convolution_param { 
		weight_filler {
			type: "xavier"
		}
		bias_filler {
			type: "constant"
			value: 0.2
		}
		 num_output: 96
		 kernel_size: 1
		 stride: 1
		 pad: 0
	}
}

layer {
	name: "bn_4b_double_3x3_reduce_t"
	type: "BatchNorm"
	bottom: "conv_4b_double_3x3_reduce_t"
	top: "conv_4b_double_3x3_reduce_t"
	batch_norm_param {

	}
}

layer {
	name: "scale_conv_4b_double_3x3_reduce_t"
	bottom: "conv_4b_double_3x3_reduce_t"
	top: "conv_4b_double_3x3_reduce_t"
	type: "Scale"
	scale_param {
		filler {
			value: 1
		}
		bias_filler {
			value: 0
		}
				bias_term: true
	}
}

layer {
	name: "relu_4b_double_3x3_reduce_t"
	type: "ReLU"
	bottom: "conv_4b_double_3x3_reduce_t"
	top: "conv_4b_double_3x3_reduce_t"
}

layer {
	name: "conv_4b_double_3x3_0_t"
	type: "Convolution"
	bottom: "conv_4b_double_3x3_reduce_t"
	top: "conv_4b_double_3x3_0_t"
	param {
		lr_mult: 1
		decay_mult: 1
		name: "conv_4b_double_3x3_0_w"
	}
	param {
		lr_mult: 2
		decay_mult: 0
		name: "conv_4b_double_3x3_0_b"
	}
	convolution_param { 
		weight_filler {
			type: "xavier"
		}
		bias_filler {
			type: "constant"
			value: 0.2
		}
		 num_output: 128
		 kernel_size: 3
		 stride: 1
		 pad: 1
	}
}

layer {
	name: "bn_4b_double_3x3_0_t"
	type: "BatchNorm"
	bottom: "conv_4b_double_3x3_0_t"
	top: "conv_4b_double_3x3_0_t"
	batch_norm_param {

	}
}

layer {
	name: "scale_conv_4b_double_3x3_0_t"
	bottom: "conv_4b_double_3x3_0_t"
	top: "conv_4b_double_3x3_0_t"
	type: "Scale"
	scale_param {
		filler {
			value: 1
		}
		bias_filler {
			value: 0
		}
				bias_term: true
	}
}

layer {
	name: "relu_4b_double_3x3_0_t"
	type: "ReLU"
	bottom: "conv_4b_double_3x3_0_t"
	top: "conv_4b_double_3x3_0_t"
}

layer {
	name: "conv_4b_double_3x3_1_t"
	type: "Convolution"
	bottom: "conv_4b_double_3x3_0_t"
	top: "conv_4b_double_3x3_1_t"
	param {
		lr_mult: 1
		decay_mult: 1
		name: "conv_4b_double_3x3_1_w"
	}
	param {
		lr_mult: 2
		decay_mult: 0
		name: "conv_4b_double_3x3_1_b"
	}
	convolution_param { 
		weight_filler {
			type: "xavier"
		}
		bias_filler {
			type: "constant"
			value: 0.2
		}
		 num_output: 128
		 kernel_size: 3
		 stride: 1
		 pad: 1
	}
}

layer {
	name: "bn_4b_double_3x3_1_t"
	type: "BatchNorm"
	bottom: "conv_4b_double_3x3_1_t"
	top: "conv_4b_double_3x3_1_t"
	batch_norm_param {

	}
}

layer {
	name: "scale_conv_4b_double_3x3_1_t"
	bottom: "conv_4b_double_3x3_1_t"
	top: "conv_4b_double_3x3_1_t"
	type: "Scale"
	scale_param {
		filler {
			value: 1
		}
		bias_filler {
			value: 0
		}
				bias_term: true
	}
}

layer {
	name: "relu_4b_double_3x3_1_t"
	type: "ReLU"
	bottom: "conv_4b_double_3x3_1_t"
	top: "conv_4b_double_3x3_1_t"
}

layer {
	name: "ave_pool_4b_pool_t"
	type: "Pooling"
	bottom: "ch_concat_4a_chconcat_t"
	top: "ave_pool_4b_pool_t"
	pooling_param {
		 pool: AVE
		 kernel_size: 3
		 stride: 1
		 pad: 1
	}
}

layer {
	name: "conv_4b_proj_t"
	type: "Convolution"
	bottom: "ave_pool_4b_pool_t"
	top: "conv_4b_proj_t"
	param {
		lr_mult: 1
		decay_mult: 1
		name: "conv_4b_proj_w"
	}
	param {
		lr_mult: 2
		decay_mult: 0
		name: "conv_4b_proj_b"
	}
	convolution_param { 
		weight_filler {
			type: "xavier"
		}
		bias_filler {
			type: "constant"
			value: 0.2
		}
		 num_output: 128
		 kernel_size: 1
		 stride: 1
		 pad: 0
	}
}

layer {
	name: "bn_4b_proj_t"
	type: "BatchNorm"
	bottom: "conv_4b_proj_t"
	top: "conv_4b_proj_t"
	batch_norm_param {

	}
}

layer {
	name: "scale_conv_4b_proj_t"
	bottom: "conv_4b_proj_t"
	top: "conv_4b_proj_t"
	type: "Scale"
	scale_param {
		filler {
			value: 1
		}
		bias_filler {
			value: 0
		}
				bias_term: true
	}
}

layer {
	name: "relu_4b_proj_t"
	type: "ReLU"
	bottom: "conv_4b_proj_t"
	top: "conv_4b_proj_t"
}

layer {
	name: "ch_concat_4b_chconcat_t"
	type: "Concat"
	bottom: "conv_4b_1x1_t"
	bottom: "conv_4b_3x3_t"
	bottom: "conv_4b_double_3x3_1_t"
	bottom: "conv_4b_proj_t"
	top: "ch_concat_4b_chconcat_t"
}

layer {
	name: "conv_4c_1x1_t"
	type: "Convolution"
	bottom: "ch_concat_4b_chconcat_t"
	top: "conv_4c_1x1_t"
	param {
		lr_mult: 1
		decay_mult: 1
		name: "conv_4c_1x1_w"
	}
	param {
		lr_mult: 2
		decay_mult: 0
		name: "conv_4c_1x1_b"
	}
	convolution_param { 
		weight_filler {
			type: "xavier"
		}
		bias_filler {
			type: "constant"
			value: 0.2
		}
		 num_output: 160
		 kernel_size: 1
		 stride: 1
		 pad: 0
	}
}

layer {
	name: "bn_4c_1x1_t"
	type: "BatchNorm"
	bottom: "conv_4c_1x1_t"
	top: "conv_4c_1x1_t"
	batch_norm_param {

	}
}

layer {
	name: "scale_conv_4c_1x1_t"
	bottom: "conv_4c_1x1_t"
	top: "conv_4c_1x1_t"
	type: "Scale"
	scale_param {
		filler {
			value: 1
		}
		bias_filler {
			value: 0
		}
				bias_term: true
	}
}

layer {
	name: "relu_4c_1x1_t"
	type: "ReLU"
	bottom: "conv_4c_1x1_t"
	top: "conv_4c_1x1_t"
}

layer {
	name: "conv_4c_3x3_reduce_t"
	type: "Convolution"
	bottom: "ch_concat_4b_chconcat_t"
	top: "conv_4c_3x3_reduce_t"
	param {
		lr_mult: 1
		decay_mult: 1
		name: "conv_4c_3x3_reduce_w"
	}
	param {
		lr_mult: 2
		decay_mult: 0
		name: "conv_4c_3x3_reduce_b"
	}
	convolution_param { 
		weight_filler {
			type: "xavier"
		}
		bias_filler {
			type: "constant"
			value: 0.2
		}
		 num_output: 128
		 kernel_size: 1
		 stride: 1
		 pad: 0
	}
}

layer {
	name: "bn_4c_3x3_reduce_t"
	type: "BatchNorm"
	bottom: "conv_4c_3x3_reduce_t"
	top: "conv_4c_3x3_reduce_t"
	batch_norm_param {

	}
}

layer {
	name: "scale_conv_4c_3x3_reduce_t"
	bottom: "conv_4c_3x3_reduce_t"
	top: "conv_4c_3x3_reduce_t"
	type: "Scale"
	scale_param {
		filler {
			value: 1
		}
		bias_filler {
			value: 0
		}
				bias_term: true
	}
}

layer {
	name: "relu_4c_3x3_reduce_t"
	type: "ReLU"
	bottom: "conv_4c_3x3_reduce_t"
	top: "conv_4c_3x3_reduce_t"
}

layer {
	name: "conv_4c_3x3_t"
	type: "Convolution"
	bottom: "conv_4c_3x3_reduce_t"
	top: "conv_4c_3x3_t"
	param {
		lr_mult: 1
		decay_mult: 1
		name: "conv_4c_3x3_w"
	}
	param {
		lr_mult: 2
		decay_mult: 0
		name: "conv_4c_3x3_b"
	}
	convolution_param { 
		weight_filler {
			type: "xavier"
		}
		bias_filler {
			type: "constant"
			value: 0.2
		}
		 num_output: 160
		 kernel_size: 3
		 stride: 1
		 pad: 1
	}
}

layer {
	name: "bn_4c_3x3_t"
	type: "BatchNorm"
	bottom: "conv_4c_3x3_t"
	top: "conv_4c_3x3_t"
	batch_norm_param {

	}
}

layer {
	name: "scale_conv_4c_3x3_t"
	bottom: "conv_4c_3x3_t"
	top: "conv_4c_3x3_t"
	type: "Scale"
	scale_param {
		filler {
			value: 1
		}
		bias_filler {
			value: 0
		}
				bias_term: true
	}
}

layer {
	name: "relu_4c_3x3_t"
	type: "ReLU"
	bottom: "conv_4c_3x3_t"
	top: "conv_4c_3x3_t"
}

layer {
	name: "conv_4c_double_3x3_reduce_t"
	type: "Convolution"
	bottom: "ch_concat_4b_chconcat_t"
	top: "conv_4c_double_3x3_reduce_t"
	param {
		lr_mult: 1
		decay_mult: 1
		name: "conv_4c_double_3x3_reduce_w"
	}
	param {
		lr_mult: 2
		decay_mult: 0
		name: "conv_4c_double_3x3_reduce_b"
	}
	convolution_param { 
		weight_filler {
			type: "xavier"
		}
		bias_filler {
			type: "constant"
			value: 0.2
		}
		 num_output: 128
		 kernel_size: 1
		 stride: 1
		 pad: 0
	}
}

layer {
	name: "bn_4c_double_3x3_reduce_t"
	type: "BatchNorm"
	bottom: "conv_4c_double_3x3_reduce_t"
	top: "conv_4c_double_3x3_reduce_t"
	batch_norm_param {

	}
}

layer {
	name: "scale_conv_4c_double_3x3_reduce_t"
	bottom: "conv_4c_double_3x3_reduce_t"
	top: "conv_4c_double_3x3_reduce_t"
	type: "Scale"
	scale_param {
		filler {
			value: 1
		}
		bias_filler {
			value: 0
		}
				bias_term: true
	}
}

layer {
	name: "relu_4c_double_3x3_reduce_t"
	type: "ReLU"
	bottom: "conv_4c_double_3x3_reduce_t"
	top: "conv_4c_double_3x3_reduce_t"
}

layer {
	name: "conv_4c_double_3x3_0_t"
	type: "Convolution"
	bottom: "conv_4c_double_3x3_reduce_t"
	top: "conv_4c_double_3x3_0_t"
	param {
		lr_mult: 1
		decay_mult: 1
		name: "conv_4c_double_3x3_0_w"
	}
	param {
		lr_mult: 2
		decay_mult: 0
		name: "conv_4c_double_3x3_0_b"
	}
	convolution_param { 
		weight_filler {
			type: "xavier"
		}
		bias_filler {
			type: "constant"
			value: 0.2
		}
		 num_output: 160
		 kernel_size: 3
		 stride: 1
		 pad: 1
	}
}

layer {
	name: "bn_4c_double_3x3_0_t"
	type: "BatchNorm"
	bottom: "conv_4c_double_3x3_0_t"
	top: "conv_4c_double_3x3_0_t"
	batch_norm_param {

	}
}

layer {
	name: "scale_conv_4c_double_3x3_0_t"
	bottom: "conv_4c_double_3x3_0_t"
	top: "conv_4c_double_3x3_0_t"
	type: "Scale"
	scale_param {
		filler {
			value: 1
		}
		bias_filler {
			value: 0
		}
				bias_term: true
	}
}

layer {
	name: "relu_4c_double_3x3_0_t"
	type: "ReLU"
	bottom: "conv_4c_double_3x3_0_t"
	top: "conv_4c_double_3x3_0_t"
}

layer {
	name: "conv_4c_double_3x3_1_t"
	type: "Convolution"
	bottom: "conv_4c_double_3x3_0_t"
	top: "conv_4c_double_3x3_1_t"
	param {
		lr_mult: 1
		decay_mult: 1
		name: "conv_4c_double_3x3_1_w"
	}
	param {
		lr_mult: 2
		decay_mult: 0
		name: "conv_4c_double_3x3_1_b"
	}
	convolution_param { 
		weight_filler {
			type: "xavier"
		}
		bias_filler {
			type: "constant"
			value: 0.2
		}
		 num_output: 160
		 kernel_size: 3
		 stride: 1
		 pad: 1
	}
}

layer {
	name: "bn_4c_double_3x3_1_t"
	type: "BatchNorm"
	bottom: "conv_4c_double_3x3_1_t"
	top: "conv_4c_double_3x3_1_t"
	batch_norm_param {

	}
}

layer {
	name: "scale_conv_4c_double_3x3_1_t"
	bottom: "conv_4c_double_3x3_1_t"
	top: "conv_4c_double_3x3_1_t"
	type: "Scale"
	scale_param {
		filler {
			value: 1
		}
		bias_filler {
			value: 0
		}
				bias_term: true
	}
}

layer {
	name: "relu_4c_double_3x3_1_t"
	type: "ReLU"
	bottom: "conv_4c_double_3x3_1_t"
	top: "conv_4c_double_3x3_1_t"
}

layer {
	name: "ave_pool_4c_pool_t"
	type: "Pooling"
	bottom: "ch_concat_4b_chconcat_t"
	top: "ave_pool_4c_pool_t"
	pooling_param {
		 pool: AVE
		 kernel_size: 3
		 stride: 1
		 pad: 1
	}
}

layer {
	name: "conv_4c_proj_t"
	type: "Convolution"
	bottom: "ave_pool_4c_pool_t"
	top: "conv_4c_proj_t"
	param {
		lr_mult: 1
		decay_mult: 1
		name: "conv_4c_proj_w"
	}
	param {
		lr_mult: 2
		decay_mult: 0
		name: "conv_4c_proj_b"
	}
	convolution_param { 
		weight_filler {
			type: "xavier"
		}
		bias_filler {
			type: "constant"
			value: 0.2
		}
		 num_output: 128
		 kernel_size: 1
		 stride: 1
		 pad: 0
	}
}

layer {
	name: "bn_4c_proj_t"
	type: "BatchNorm"
	bottom: "conv_4c_proj_t"
	top: "conv_4c_proj_t"
	batch_norm_param {

	}
}

layer {
	name: "scale_conv_4c_proj_t"
	bottom: "conv_4c_proj_t"
	top: "conv_4c_proj_t"
	type: "Scale"
	scale_param {
		filler {
			value: 1
		}
		bias_filler {
			value: 0
		}
				bias_term: true
	}
}

layer {
	name: "relu_4c_proj_t"
	type: "ReLU"
	bottom: "conv_4c_proj_t"
	top: "conv_4c_proj_t"
}

layer {
	name: "ch_concat_4c_chconcat_t"
	type: "Concat"
	bottom: "conv_4c_1x1_t"
	bottom: "conv_4c_3x3_t"
	bottom: "conv_4c_double_3x3_1_t"
	bottom: "conv_4c_proj_t"
	top: "ch_concat_4c_chconcat_t"
}

layer {
	name: "conv_4d_1x1_t"
	type: "Convolution"
	bottom: "ch_concat_4c_chconcat_t"
	top: "conv_4d_1x1_t"
	param {
		lr_mult: 1
		decay_mult: 1
		name: "conv_4d_1x1_w"
	}
	param {
		lr_mult: 2
		decay_mult: 0
		name: "conv_4d_1x1_b"
	}
	convolution_param { 
		weight_filler {
			type: "xavier"
		}
		bias_filler {
			type: "constant"
			value: 0.2
		}
		 num_output: 96
		 kernel_size: 1
		 stride: 1
		 pad: 0
	}
}

layer {
	name: "bn_4d_1x1_t"
	type: "BatchNorm"
	bottom: "conv_4d_1x1_t"
	top: "conv_4d_1x1_t"
	batch_norm_param {

	}
}

layer {
	name: "scale_conv_4d_1x1_t"
	bottom: "conv_4d_1x1_t"
	top: "conv_4d_1x1_t"
	type: "Scale"
	scale_param {
		filler {
			value: 1
		}
		bias_filler {
			value: 0
		}
				bias_term: true
	}
}

layer {
	name: "relu_4d_1x1_t"
	type: "ReLU"
	bottom: "conv_4d_1x1_t"
	top: "conv_4d_1x1_t"
}

layer {
	name: "conv_4d_3x3_reduce_t"
	type: "Convolution"
	bottom: "ch_concat_4c_chconcat_t"
	top: "conv_4d_3x3_reduce_t"
	param {
		lr_mult: 1
		decay_mult: 1
		name: "conv_4d_3x3_reduce_w"
	}
	param {
		lr_mult: 2
		decay_mult: 0
		name: "conv_4d_3x3_reduce_b"
	}
	convolution_param { 
		weight_filler {
			type: "xavier"
		}
		bias_filler {
			type: "constant"
			value: 0.2
		}
		 num_output: 128
		 kernel_size: 1
		 stride: 1
		 pad: 0
	}
}

layer {
	name: "bn_4d_3x3_reduce_t"
	type: "BatchNorm"
	bottom: "conv_4d_3x3_reduce_t"
	top: "conv_4d_3x3_reduce_t"
	batch_norm_param {

	}
}

layer {
	name: "scale_conv_4d_3x3_reduce_t"
	bottom: "conv_4d_3x3_reduce_t"
	top: "conv_4d_3x3_reduce_t"
	type: "Scale"
	scale_param {
		filler {
			value: 1
		}
		bias_filler {
			value: 0
		}
				bias_term: true
	}
}

layer {
	name: "relu_4d_3x3_reduce_t"
	type: "ReLU"
	bottom: "conv_4d_3x3_reduce_t"
	top: "conv_4d_3x3_reduce_t"
}

layer {
	name: "conv_4d_3x3_t"
	type: "Convolution"
	bottom: "conv_4d_3x3_reduce_t"
	top: "conv_4d_3x3_t"
	param {
		lr_mult: 1
		decay_mult: 1
		name: "conv_4d_3x3_w"
	}
	param {
		lr_mult: 2
		decay_mult: 0
		name: "conv_4d_3x3_b"
	}
	convolution_param { 
		weight_filler {
			type: "xavier"
		}
		bias_filler {
			type: "constant"
			value: 0.2
		}
		 num_output: 192
		 kernel_size: 3
		 stride: 1
		 pad: 1
	}
}

layer {
	name: "bn_4d_3x3_t"
	type: "BatchNorm"
	bottom: "conv_4d_3x3_t"
	top: "conv_4d_3x3_t"
	batch_norm_param {

	}
}

layer {
	name: "scale_conv_4d_3x3_t"
	bottom: "conv_4d_3x3_t"
	top: "conv_4d_3x3_t"
	type: "Scale"
	scale_param {
		filler {
			value: 1
		}
		bias_filler {
			value: 0
		}
				bias_term: true
	}
}

layer {
	name: "relu_4d_3x3_t"
	type: "ReLU"
	bottom: "conv_4d_3x3_t"
	top: "conv_4d_3x3_t"
}

layer {
	name: "conv_4d_double_3x3_reduce_t"
	type: "Convolution"
	bottom: "ch_concat_4c_chconcat_t"
	top: "conv_4d_double_3x3_reduce_t"
	param {
		lr_mult: 1
		decay_mult: 1
		name: "conv_4d_double_3x3_reduce_w"
	}
	param {
		lr_mult: 2
		decay_mult: 0
		name: "conv_4d_double_3x3_reduce_b"
	}
	convolution_param { 
		weight_filler {
			type: "xavier"
		}
		bias_filler {
			type: "constant"
			value: 0.2
		}
		 num_output: 160
		 kernel_size: 1
		 stride: 1
		 pad: 0
	}
}

layer {
	name: "bn_4d_double_3x3_reduce_t"
	type: "BatchNorm"
	bottom: "conv_4d_double_3x3_reduce_t"
	top: "conv_4d_double_3x3_reduce_t"
	batch_norm_param {

	}
}

layer {
	name: "scale_conv_4d_double_3x3_reduce_t"
	bottom: "conv_4d_double_3x3_reduce_t"
	top: "conv_4d_double_3x3_reduce_t"
	type: "Scale"
	scale_param {
		filler {
			value: 1
		}
		bias_filler {
			value: 0
		}
				bias_term: true
	}
}

layer {
	name: "relu_4d_double_3x3_reduce_t"
	type: "ReLU"
	bottom: "conv_4d_double_3x3_reduce_t"
	top: "conv_4d_double_3x3_reduce_t"
}

layer {
	name: "conv_4d_double_3x3_0_t"
	type: "Convolution"
	bottom: "conv_4d_double_3x3_reduce_t"
	top: "conv_4d_double_3x3_0_t"
	param {
		lr_mult: 1
		decay_mult: 1
		name: "conv_4d_double_3x3_0_w"
	}
	param {
		lr_mult: 2
		decay_mult: 0
		name: "conv_4d_double_3x3_0_b"
	}
	convolution_param { 
		weight_filler {
			type: "xavier"
		}
		bias_filler {
			type: "constant"
			value: 0.2
		}
		 num_output: 96
		 kernel_size: 3
		 stride: 1
		 pad: 1
	}
}

layer {
	name: "bn_4d_double_3x3_0_t"
	type: "BatchNorm"
	bottom: "conv_4d_double_3x3_0_t"
	top: "conv_4d_double_3x3_0_t"
	batch_norm_param {

	}
}

layer {
	name: "scale_conv_4d_double_3x3_0_t"
	bottom: "conv_4d_double_3x3_0_t"
	top: "conv_4d_double_3x3_0_t"
	type: "Scale"
	scale_param {
		filler {
			value: 1
		}
		bias_filler {
			value: 0
		}
				bias_term: true
	}
}

layer {
	name: "relu_4d_double_3x3_0_t"
	type: "ReLU"
	bottom: "conv_4d_double_3x3_0_t"
	top: "conv_4d_double_3x3_0_t"
}

layer {
	name: "conv_4d_double_3x3_1_t"
	type: "Convolution"
	bottom: "conv_4d_double_3x3_0_t"
	top: "conv_4d_double_3x3_1_t"
	param {
		lr_mult: 1
		decay_mult: 1
		name: "conv_4d_double_3x3_1_w"
	}
	param {
		lr_mult: 2
		decay_mult: 0
		name: "conv_4d_double_3x3_1_b"
	}
	convolution_param { 
		weight_filler {
			type: "xavier"
		}
		bias_filler {
			type: "constant"
			value: 0.2
		}
		 num_output: 96
		 kernel_size: 3
		 stride: 1
		 pad: 1
	}
}

layer {
	name: "bn_4d_double_3x3_1_t"
	type: "BatchNorm"
	bottom: "conv_4d_double_3x3_1_t"
	top: "conv_4d_double_3x3_1_t"
	batch_norm_param {

	}
}

layer {
	name: "scale_conv_4d_double_3x3_1_t"
	bottom: "conv_4d_double_3x3_1_t"
	top: "conv_4d_double_3x3_1_t"
	type: "Scale"
	scale_param {
		filler {
			value: 1
		}
		bias_filler {
			value: 0
		}
				bias_term: true
	}
}

layer {
	name: "relu_4d_double_3x3_1_t"
	type: "ReLU"
	bottom: "conv_4d_double_3x3_1_t"
	top: "conv_4d_double_3x3_1_t"
}

layer {
	name: "ave_pool_4d_pool_t"
	type: "Pooling"
	bottom: "ch_concat_4c_chconcat_t"
	top: "ave_pool_4d_pool_t"
	pooling_param {
		 pool: AVE
		 kernel_size: 3
		 stride: 1
		 pad: 1
	}
}

layer {
	name: "conv_4d_proj_t"
	type: "Convolution"
	bottom: "ave_pool_4d_pool_t"
	top: "conv_4d_proj_t"
	param {
		lr_mult: 1
		decay_mult: 1
		name: "conv_4d_proj_w"
	}
	param {
		lr_mult: 2
		decay_mult: 0
		name: "conv_4d_proj_b"
	}
	convolution_param { 
		weight_filler {
			type: "xavier"
		}
		bias_filler {
			type: "constant"
			value: 0.2
		}
		 num_output: 128
		 kernel_size: 1
		 stride: 1
		 pad: 0
	}
}

layer {
	name: "bn_4d_proj_t"
	type: "BatchNorm"
	bottom: "conv_4d_proj_t"
	top: "conv_4d_proj_t"
	batch_norm_param {

	}
}

layer {
	name: "scale_conv_4d_proj_t"
	bottom: "conv_4d_proj_t"
	top: "conv_4d_proj_t"
	type: "Scale"
	scale_param {
		filler {
			value: 1
		}
		bias_filler {
			value: 0
		}
				bias_term: true
	}
}

layer {
	name: "relu_4d_proj_t"
	type: "ReLU"
	bottom: "conv_4d_proj_t"
	top: "conv_4d_proj_t"
}

layer {
	name: "ch_concat_4d_chconcat_t"
	type: "Concat"
	bottom: "conv_4d_1x1_t"
	bottom: "conv_4d_3x3_t"
	bottom: "conv_4d_double_3x3_1_t"
	bottom: "conv_4d_proj_t"
	top: "ch_concat_4d_chconcat_t"
}

layer {
	name: "conv_4e_3x3_reduce_t"
	type: "Convolution"
	bottom: "ch_concat_4d_chconcat_t"
	top: "conv_4e_3x3_reduce_t"
	param {
		lr_mult: 1
		decay_mult: 1
		name: "conv_4e_3x3_reduce_w"
	}
	param {
		lr_mult: 2
		decay_mult: 0
		name: "conv_4e_3x3_reduce_b"
	}
	convolution_param { 
		weight_filler {
			type: "xavier"
		}
		bias_filler {
			type: "constant"
			value: 0.2
		}
		 num_output: 128
		 kernel_size: 1
		 stride: 1
		 pad: 0
	}
}

layer {
	name: "bn_4e_3x3_reduce_t"
	type: "BatchNorm"
	bottom: "conv_4e_3x3_reduce_t"
	top: "conv_4e_3x3_reduce_t"
	batch_norm_param {

	}
}

layer {
	name: "scale_conv_4e_3x3_reduce_t"
	bottom: "conv_4e_3x3_reduce_t"
	top: "conv_4e_3x3_reduce_t"
	type: "Scale"
	scale_param {
		filler {
			value: 1
		}
		bias_filler {
			value: 0
		}
				bias_term: true
	}
}

layer {
	name: "relu_4e_3x3_reduce_t"
	type: "ReLU"
	bottom: "conv_4e_3x3_reduce_t"
	top: "conv_4e_3x3_reduce_t"
}

layer {
	name: "conv_4e_3x3_t"
	type: "Convolution"
	bottom: "conv_4e_3x3_reduce_t"
	top: "conv_4e_3x3_t"
	param {
		lr_mult: 1
		decay_mult: 1
		name: "conv_4e_3x3_w"
	}
	param {
		lr_mult: 2
		decay_mult: 0
		name: "conv_4e_3x3_b"
	}
	convolution_param { 
		weight_filler {
			type: "xavier"
		}
		bias_filler {
			type: "constant"
			value: 0.2
		}
		 num_output: 192
		 kernel_size: 3
		 stride: 2
		 pad: 1
	}
}

layer {
	name: "bn_4e_3x3_t"
	type: "BatchNorm"
	bottom: "conv_4e_3x3_t"
	top: "conv_4e_3x3_t"
	batch_norm_param {

	}
}

layer {
	name: "scale_conv_4e_3x3_t"
	bottom: "conv_4e_3x3_t"
	top: "conv_4e_3x3_t"
	type: "Scale"
	scale_param {
		filler {
			value: 1
		}
		bias_filler {
			value: 0
		}
				bias_term: true
	}
}

layer {
	name: "relu_4e_3x3_t"
	type: "ReLU"
	bottom: "conv_4e_3x3_t"
	top: "conv_4e_3x3_t"
}

layer {
	name: "conv_4e_double_3x3_reduce_t"
	type: "Convolution"
	bottom: "ch_concat_4d_chconcat_t"
	top: "conv_4e_double_3x3_reduce_t"
	param {
		lr_mult: 1
		decay_mult: 1
		name: "conv_4e_double_3x3_reduce_w"
	}
	param {
		lr_mult: 2
		decay_mult: 0
		name: "conv_4e_double_3x3_reduce_b"
	}
	convolution_param { 
		weight_filler {
			type: "xavier"
		}
		bias_filler {
			type: "constant"
			value: 0.2
		}
		 num_output: 192
		 kernel_size: 1
		 stride: 1
		 pad: 0
	}
}

layer {
	name: "bn_4e_double_3x3_reduce_t"
	type: "BatchNorm"
	bottom: "conv_4e_double_3x3_reduce_t"
	top: "conv_4e_double_3x3_reduce_t"
	batch_norm_param {

	}
}

layer {
	name: "scale_conv_4e_double_3x3_reduce_t"
	bottom: "conv_4e_double_3x3_reduce_t"
	top: "conv_4e_double_3x3_reduce_t"
	type: "Scale"
	scale_param {
		filler {
			value: 1
		}
		bias_filler {
			value: 0
		}
				bias_term: true
	}
}

layer {
	name: "relu_4e_double_3x3_reduce_t"
	type: "ReLU"
	bottom: "conv_4e_double_3x3_reduce_t"
	top: "conv_4e_double_3x3_reduce_t"
}

layer {
	name: "conv_4e_double_3x3_0_t"
	type: "Convolution"
	bottom: "conv_4e_double_3x3_reduce_t"
	top: "conv_4e_double_3x3_0_t"
	param {
		lr_mult: 1
		decay_mult: 1
		name: "conv_4e_double_3x3_0_w"
	}
	param {
		lr_mult: 2
		decay_mult: 0
		name: "conv_4e_double_3x3_0_b"
	}
	convolution_param { 
		weight_filler {
			type: "xavier"
		}
		bias_filler {
			type: "constant"
			value: 0.2
		}
		 num_output: 256
		 kernel_size: 3
		 stride: 1
		 pad: 1
	}
}

layer {
	name: "bn_4e_double_3x3_0_t"
	type: "BatchNorm"
	bottom: "conv_4e_double_3x3_0_t"
	top: "conv_4e_double_3x3_0_t"
	batch_norm_param {

	}
}

layer {
	name: "scale_conv_4e_double_3x3_0_t"
	bottom: "conv_4e_double_3x3_0_t"
	top: "conv_4e_double_3x3_0_t"
	type: "Scale"
	scale_param {
		filler {
			value: 1
		}
		bias_filler {
			value: 0
		}
				bias_term: true
	}
}

layer {
	name: "relu_4e_double_3x3_0_t"
	type: "ReLU"
	bottom: "conv_4e_double_3x3_0_t"
	top: "conv_4e_double_3x3_0_t"
}

layer {
	name: "conv_4e_double_3x3_1_t"
	type: "Convolution"
	bottom: "conv_4e_double_3x3_0_t"
	top: "conv_4e_double_3x3_1_t"
	param {
		lr_mult: 1
		decay_mult: 1
		name: "conv_4e_double_3x3_1_w"
	}
	param {
		lr_mult: 2
		decay_mult: 0
		name: "conv_4e_double_3x3_1_b"
	}
	convolution_param { 
		weight_filler {
			type: "xavier"
		}
		bias_filler {
			type: "constant"
			value: 0.2
		}
		 num_output: 256
		 kernel_size: 3
		 stride: 2
		 pad: 1
	}
}

layer {
	name: "bn_4e_double_3x3_1_t"
	type: "BatchNorm"
	bottom: "conv_4e_double_3x3_1_t"
	top: "conv_4e_double_3x3_1_t"
	batch_norm_param {

	}
}

layer {
	name: "scale_conv_4e_double_3x3_1_t"
	bottom: "conv_4e_double_3x3_1_t"
	top: "conv_4e_double_3x3_1_t"
	type: "Scale"
	scale_param {
		filler {
			value: 1
		}
		bias_filler {
			value: 0
		}
				bias_term: true
	}
}

layer {
	name: "relu_4e_double_3x3_1_t"
	type: "ReLU"
	bottom: "conv_4e_double_3x3_1_t"
	top: "conv_4e_double_3x3_1_t"
}

layer {
	name: "max_pool_4e_pool_t"
	type: "Pooling"
	bottom: "ch_concat_4d_chconcat_t"
	top: "max_pool_4e_pool_t"
	pooling_param {
		 pool: MAX
		 kernel_size: 3
		 stride: 2
		 pad: 0
	}
}

layer {
	name: "ch_concat_4e_chconcat_t"
	type: "Concat"
	bottom: "conv_4e_3x3_t"
	bottom: "conv_4e_double_3x3_1_t"
	bottom: "max_pool_4e_pool_t"
	top: "ch_concat_4e_chconcat_t"
}

layer {
	name: "conv_5a_1x1_t"
	type: "Convolution"
	bottom: "ch_concat_4e_chconcat_t"
	top: "conv_5a_1x1_t"
	param {
		lr_mult: 1
		decay_mult: 1
		name: "conv_5a_1x1_w"
	}
	param {
		lr_mult: 2
		decay_mult: 0
		name: "conv_5a_1x1_b"
	}
	convolution_param { 
		weight_filler {
			type: "xavier"
		}
		bias_filler {
			type: "constant"
			value: 0.2
		}
		 num_output: 352
		 kernel_size: 1
		 stride: 1
		 pad: 0
	}
}

layer {
	name: "bn_5a_1x1_t"
	type: "BatchNorm"
	bottom: "conv_5a_1x1_t"
	top: "conv_5a_1x1_t"
	batch_norm_param {

	}
}

layer {
	name: "scale_conv_5a_1x1_t"
	bottom: "conv_5a_1x1_t"
	top: "conv_5a_1x1_t"
	type: "Scale"
	scale_param {
		filler {
			value: 1
		}
		bias_filler {
			value: 0
		}
				bias_term: true
	}
}

layer {
	name: "relu_5a_1x1_t"
	type: "ReLU"
	bottom: "conv_5a_1x1_t"
	top: "conv_5a_1x1_t"
}

layer {
	name: "conv_5a_3x3_reduce_t"
	type: "Convolution"
	bottom: "ch_concat_4e_chconcat_t"
	top: "conv_5a_3x3_reduce_t"
	param {
		lr_mult: 1
		decay_mult: 1
		name: "conv_5a_3x3_reduce_w"
	}
	param {
		lr_mult: 2
		decay_mult: 0
		name: "conv_5a_3x3_reduce_b"
	}
	convolution_param { 
		weight_filler {
			type: "xavier"
		}
		bias_filler {
			type: "constant"
			value: 0.2
		}
		 num_output: 192
		 kernel_size: 1
		 stride: 1
		 pad: 0
	}
}

layer {
	name: "bn_5a_3x3_reduce_t"
	type: "BatchNorm"
	bottom: "conv_5a_3x3_reduce_t"
	top: "conv_5a_3x3_reduce_t"
	batch_norm_param {

	}
}

layer {
	name: "scale_conv_5a_3x3_reduce_t"
	bottom: "conv_5a_3x3_reduce_t"
	top: "conv_5a_3x3_reduce_t"
	type: "Scale"
	scale_param {
		filler {
			value: 1
		}
		bias_filler {
			value: 0
		}
				bias_term: true
	}
}

layer {
	name: "relu_5a_3x3_reduce_t"
	type: "ReLU"
	bottom: "conv_5a_3x3_reduce_t"
	top: "conv_5a_3x3_reduce_t"
}

layer {
	name: "conv_5a_3x3_t"
	type: "Convolution"
	bottom: "conv_5a_3x3_reduce_t"
	top: "conv_5a_3x3_t"
	param {
		lr_mult: 1
		decay_mult: 1
		name: "conv_5a_3x3_w"
	}
	param {
		lr_mult: 2
		decay_mult: 0
		name: "conv_5a_3x3_b"
	}
	convolution_param { 
		weight_filler {
			type: "xavier"
		}
		bias_filler {
			type: "constant"
			value: 0.2
		}
		 num_output: 320
		 kernel_size: 3
		 stride: 1
		 pad: 1
	}
}

layer {
	name: "bn_5a_3x3_t"
	type: "BatchNorm"
	bottom: "conv_5a_3x3_t"
	top: "conv_5a_3x3_t"
	batch_norm_param {

	}
}

layer {
	name: "scale_conv_5a_3x3_t"
	bottom: "conv_5a_3x3_t"
	top: "conv_5a_3x3_t"
	type: "Scale"
	scale_param {
		filler {
			value: 1
		}
		bias_filler {
			value: 0
		}
				bias_term: true
	}
}

layer {
	name: "relu_5a_3x3_t"
	type: "ReLU"
	bottom: "conv_5a_3x3_t"
	top: "conv_5a_3x3_t"
}

layer {
	name: "conv_5a_double_3x3_reduce_t"
	type: "Convolution"
	bottom: "ch_concat_4e_chconcat_t"
	top: "conv_5a_double_3x3_reduce_t"
	param {
		lr_mult: 1
		decay_mult: 1
		name: "conv_5a_double_3x3_reduce_w"
	}
	param {
		lr_mult: 2
		decay_mult: 0
		name: "conv_5a_double_3x3_reduce_b"
	}
	convolution_param { 
		weight_filler {
			type: "xavier"
		}
		bias_filler {
			type: "constant"
			value: 0.2
		}
		 num_output: 160
		 kernel_size: 1
		 stride: 1
		 pad: 0
	}
}

layer {
	name: "bn_5a_double_3x3_reduce_t"
	type: "BatchNorm"
	bottom: "conv_5a_double_3x3_reduce_t"
	top: "conv_5a_double_3x3_reduce_t"
	batch_norm_param {

	}
}

layer {
	name: "scale_conv_5a_double_3x3_reduce_t"
	bottom: "conv_5a_double_3x3_reduce_t"
	top: "conv_5a_double_3x3_reduce_t"
	type: "Scale"
	scale_param {
		filler {
			value: 1
		}
		bias_filler {
			value: 0
		}
				bias_term: true
	}
}

layer {
	name: "relu_5a_double_3x3_reduce_t"
	type: "ReLU"
	bottom: "conv_5a_double_3x3_reduce_t"
	top: "conv_5a_double_3x3_reduce_t"
}

layer {
	name: "conv_5a_double_3x3_0_t"
	type: "Convolution"
	bottom: "conv_5a_double_3x3_reduce_t"
	top: "conv_5a_double_3x3_0_t"
	param {
		lr_mult: 1
		decay_mult: 1
		name: "conv_5a_double_3x3_0_w"
	}
	param {
		lr_mult: 2
		decay_mult: 0
		name: "conv_5a_double_3x3_0_b"
	}
	convolution_param { 
		weight_filler {
			type: "xavier"
		}
		bias_filler {
			type: "constant"
			value: 0.2
		}
		 num_output: 224
		 kernel_size: 3
		 stride: 1
		 pad: 1
	}
}

layer {
	name: "bn_5a_double_3x3_0_t"
	type: "BatchNorm"
	bottom: "conv_5a_double_3x3_0_t"
	top: "conv_5a_double_3x3_0_t"
	batch_norm_param {

	}
}

layer {
	name: "scale_conv_5a_double_3x3_0_t"
	bottom: "conv_5a_double_3x3_0_t"
	top: "conv_5a_double_3x3_0_t"
	type: "Scale"
	scale_param {
		filler {
			value: 1
		}
		bias_filler {
			value: 0
		}
				bias_term: true
	}
}

layer {
	name: "relu_5a_double_3x3_0_t"
	type: "ReLU"
	bottom: "conv_5a_double_3x3_0_t"
	top: "conv_5a_double_3x3_0_t"
}

layer {
	name: "conv_5a_double_3x3_1_t"
	type: "Convolution"
	bottom: "conv_5a_double_3x3_0_t"
	top: "conv_5a_double_3x3_1_t"
	param {
		lr_mult: 1
		decay_mult: 1
		name: "conv_5a_double_3x3_1_w"
	}
	param {
		lr_mult: 2
		decay_mult: 0
		name: "conv_5a_double_3x3_1_b"
	}
	convolution_param { 
		weight_filler {
			type: "xavier"
		}
		bias_filler {
			type: "constant"
			value: 0.2
		}
		 num_output: 224
		 kernel_size: 3
		 stride: 1
		 pad: 1
	}
}

layer {
	name: "bn_5a_double_3x3_1_t"
	type: "BatchNorm"
	bottom: "conv_5a_double_3x3_1_t"
	top: "conv_5a_double_3x3_1_t"
	batch_norm_param {

	}
}

layer {
	name: "scale_conv_5a_double_3x3_1_t"
	bottom: "conv_5a_double_3x3_1_t"
	top: "conv_5a_double_3x3_1_t"
	type: "Scale"
	scale_param {
		filler {
			value: 1
		}
		bias_filler {
			value: 0
		}
				bias_term: true
	}
}

layer {
	name: "relu_5a_double_3x3_1_t"
	type: "ReLU"
	bottom: "conv_5a_double_3x3_1_t"
	top: "conv_5a_double_3x3_1_t"
}

layer {
	name: "ave_pool_5a_pool_t"
	type: "Pooling"
	bottom: "ch_concat_4e_chconcat_t"
	top: "ave_pool_5a_pool_t"
	pooling_param {
		 pool: AVE
		 kernel_size: 3
		 stride: 1
		 pad: 1
	}
}

layer {
	name: "conv_5a_proj_t"
	type: "Convolution"
	bottom: "ave_pool_5a_pool_t"
	top: "conv_5a_proj_t"
	param {
		lr_mult: 1
		decay_mult: 1
		name: "conv_5a_proj_w"
	}
	param {
		lr_mult: 2
		decay_mult: 0
		name: "conv_5a_proj_b"
	}
	convolution_param { 
		weight_filler {
			type: "xavier"
		}
		bias_filler {
			type: "constant"
			value: 0.2
		}
		 num_output: 128
		 kernel_size: 1
		 stride: 1
		 pad: 0
	}
}

layer {
	name: "bn_5a_proj_t"
	type: "BatchNorm"
	bottom: "conv_5a_proj_t"
	top: "conv_5a_proj_t"
	batch_norm_param {

	}
}

layer {
	name: "scale_conv_5a_proj_t"
	bottom: "conv_5a_proj_t"
	top: "conv_5a_proj_t"
	type: "Scale"
	scale_param {
		filler {
			value: 1
		}
		bias_filler {
			value: 0
		}
				bias_term: true
	}
}

layer {
	name: "relu_5a_proj_t"
	type: "ReLU"
	bottom: "conv_5a_proj_t"
	top: "conv_5a_proj_t"
}

layer {
	name: "ch_concat_5a_chconcat_t"
	type: "Concat"
	bottom: "conv_5a_1x1_t"
	bottom: "conv_5a_3x3_t"
	bottom: "conv_5a_double_3x3_1_t"
	bottom: "conv_5a_proj_t"
	top: "ch_concat_5a_chconcat_t"
}

layer {
	name: "conv_5b_1x1_t"
	type: "Convolution"
	bottom: "ch_concat_5a_chconcat_t"
	top: "conv_5b_1x1_t"
	param {
		lr_mult: 1
		decay_mult: 1
		name: "conv_5b_1x1_w"
	}
	param {
		lr_mult: 2
		decay_mult: 0
		name: "conv_5b_1x1_b"
	}
	convolution_param { 
		weight_filler {
			type: "xavier"
		}
		bias_filler {
			type: "constant"
			value: 0.2
		}
		 num_output: 352
		 kernel_size: 1
		 stride: 1
		 pad: 0
	}
}

layer {
	name: "bn_5b_1x1_t"
	type: "BatchNorm"
	bottom: "conv_5b_1x1_t"
	top: "conv_5b_1x1_t"
	batch_norm_param {

	}
}

layer {
	name: "scale_conv_5b_1x1_t"
	bottom: "conv_5b_1x1_t"
	top: "conv_5b_1x1_t"
	type: "Scale"
	scale_param {
		filler {
			value: 1
		}
		bias_filler {
			value: 0
		}
				bias_term: true
	}
}

layer {
	name: "relu_5b_1x1_t"
	type: "ReLU"
	bottom: "conv_5b_1x1_t"
	top: "conv_5b_1x1_t"
}

layer {
	name: "conv_5b_3x3_reduce_t"
	type: "Convolution"
	bottom: "ch_concat_5a_chconcat_t"
	top: "conv_5b_3x3_reduce_t"
	param {
		lr_mult: 1
		decay_mult: 1
		name: "conv_5b_3x3_reduce_w"
	}
	param {
		lr_mult: 2
		decay_mult: 0
		name: "conv_5b_3x3_reduce_b"
	}
	convolution_param { 
		weight_filler {
			type: "xavier"
		}
		bias_filler {
			type: "constant"
			value: 0.2
		}
		 num_output: 192
		 kernel_size: 1
		 stride: 1
		 pad: 0
	}
}

layer {
	name: "bn_5b_3x3_reduce_t"
	type: "BatchNorm"
	bottom: "conv_5b_3x3_reduce_t"
	top: "conv_5b_3x3_reduce_t"
	batch_norm_param {

	}
}

layer {
	name: "scale_conv_5b_3x3_reduce_t"
	bottom: "conv_5b_3x3_reduce_t"
	top: "conv_5b_3x3_reduce_t"
	type: "Scale"
	scale_param {
		filler {
			value: 1
		}
		bias_filler {
			value: 0
		}
				bias_term: true
	}
}

layer {
	name: "relu_5b_3x3_reduce_t"
	type: "ReLU"
	bottom: "conv_5b_3x3_reduce_t"
	top: "conv_5b_3x3_reduce_t"
}

layer {
	name: "conv_5b_3x3_t"
	type: "Convolution"
	bottom: "conv_5b_3x3_reduce_t"
	top: "conv_5b_3x3_t"
	param {
		lr_mult: 1
		decay_mult: 1
		name: "conv_5b_3x3_w"
	}
	param {
		lr_mult: 2
		decay_mult: 0
		name: "conv_5b_3x3_b"
	}
	convolution_param { 
		weight_filler {
			type: "xavier"
		}
		bias_filler {
			type: "constant"
			value: 0.2
		}
		 num_output: 320
		 kernel_size: 3
		 stride: 1
		 pad: 1
	}
}

layer {
	name: "bn_5b_3x3_t"
	type: "BatchNorm"
	bottom: "conv_5b_3x3_t"
	top: "conv_5b_3x3_t"
	batch_norm_param {

	}
}

layer {
	name: "scale_conv_5b_3x3_t"
	bottom: "conv_5b_3x3_t"
	top: "conv_5b_3x3_t"
	type: "Scale"
	scale_param {
		filler {
			value: 1
		}
		bias_filler {
			value: 0
		}
				bias_term: true
	}
}

layer {
	name: "relu_5b_3x3_t"
	type: "ReLU"
	bottom: "conv_5b_3x3_t"
	top: "conv_5b_3x3_t"
}

layer {
	name: "conv_5b_double_3x3_reduce_t"
	type: "Convolution"
	bottom: "ch_concat_5a_chconcat_t"
	top: "conv_5b_double_3x3_reduce_t"
	param {
		lr_mult: 1
		decay_mult: 1
		name: "conv_5b_double_3x3_reduce_w"
	}
	param {
		lr_mult: 2
		decay_mult: 0
		name: "conv_5b_double_3x3_reduce_b"
	}
	convolution_param { 
		weight_filler {
			type: "xavier"
		}
		bias_filler {
			type: "constant"
			value: 0.2
		}
		 num_output: 192
		 kernel_size: 1
		 stride: 1
		 pad: 0
	}
}

layer {
	name: "bn_5b_double_3x3_reduce_t"
	type: "BatchNorm"
	bottom: "conv_5b_double_3x3_reduce_t"
	top: "conv_5b_double_3x3_reduce_t"
	batch_norm_param {

	}
}

layer {
	name: "scale_conv_5b_double_3x3_reduce_t"
	bottom: "conv_5b_double_3x3_reduce_t"
	top: "conv_5b_double_3x3_reduce_t"
	type: "Scale"
	scale_param {
		filler {
			value: 1
		}
		bias_filler {
			value: 0
		}
				bias_term: true
	}
}

layer {
	name: "relu_5b_double_3x3_reduce_t"
	type: "ReLU"
	bottom: "conv_5b_double_3x3_reduce_t"
	top: "conv_5b_double_3x3_reduce_t"
}

layer {
	name: "conv_5b_double_3x3_0_t"
	type: "Convolution"
	bottom: "conv_5b_double_3x3_reduce_t"
	top: "conv_5b_double_3x3_0_t"
	param {
		lr_mult: 1
		decay_mult: 1
		name: "conv_5b_double_3x3_0_w"
	}
	param {
		lr_mult: 2
		decay_mult: 0
		name: "conv_5b_double_3x3_0_b"
	}
	convolution_param { 
		weight_filler {
			type: "xavier"
		}
		bias_filler {
			type: "constant"
			value: 0.2
		}
		 num_output: 224
		 kernel_size: 3
		 stride: 1
		 pad: 1
	}
}

layer {
	name: "bn_5b_double_3x3_0_t"
	type: "BatchNorm"
	bottom: "conv_5b_double_3x3_0_t"
	top: "conv_5b_double_3x3_0_t"
	batch_norm_param {

	}
}

layer {
	name: "scale_conv_5b_double_3x3_0_t"
	bottom: "conv_5b_double_3x3_0_t"
	top: "conv_5b_double_3x3_0_t"
	type: "Scale"
	scale_param {
		filler {
			value: 1
		}
		bias_filler {
			value: 0
		}
		bias_term: true
	}
}

layer {
	name: "relu_5b_double_3x3_0_t"
	type: "ReLU"
	bottom: "conv_5b_double_3x3_0_t"
	top: "conv_5b_double_3x3_0_t"
}

layer {
	name: "conv_5b_double_3x3_1_t"
	type: "Convolution"
	bottom: "conv_5b_double_3x3_0_t"
	top: "conv_5b_double_3x3_1_t"
	param {
		lr_mult: 1
		decay_mult: 1
		name: "conv_5b_double_3x3_1_w"
	}
	param {
		lr_mult: 2
		decay_mult: 0
		name: "conv_5b_double_3x3_1_b"
	}
	convolution_param { 
		weight_filler {
			type: "xavier"
		}
		bias_filler {
			type: "constant"
			value: 0.2
		}
		 num_output: 224
		 kernel_size: 3
		 stride: 1
		 pad: 1
	}
}

layer {
	name: "bn_5b_double_3x3_1_t"
	type: "BatchNorm"
	bottom: "conv_5b_double_3x3_1_t"
	top: "conv_5b_double_3x3_1_t"
	batch_norm_param {

	}
}

layer {
	name: "scale_conv_5b_double_3x3_1_t"
	bottom: "conv_5b_double_3x3_1_t"
	top: "conv_5b_double_3x3_1_t"
	type: "Scale"
	scale_param {
		filler {
			value: 1
		}
		bias_filler {
			value: 0
		}
				bias_term: true
	}
}

layer {
	name: "relu_5b_double_3x3_1_t"
	type: "ReLU"
	bottom: "conv_5b_double_3x3_1_t"
	top: "conv_5b_double_3x3_1_t"
}

layer {
	name: "max_pool_5b_pool_t"
	type: "Pooling"
	bottom: "ch_concat_5a_chconcat_t"
	top: "max_pool_5b_pool_t"
	pooling_param {
		 pool: MAX
		 kernel_size: 3
		 stride: 1
		 pad: 1
	}
}

layer {
	name: "conv_5b_proj_t"
	type: "Convolution"
	bottom: "max_pool_5b_pool_t"
	top: "conv_5b_proj_t"
	param {
		lr_mult: 1
		decay_mult: 1
		name: "conv_5b_proj_w"
	}
	param {
		lr_mult: 2
		decay_mult: 0
		name: "conv_5b_proj_b"
	}
	convolution_param { 
		weight_filler {
			type: "xavier"
		}
		bias_filler {
			type: "constant"
			value: 0.2
		}
		 num_output: 128
		 kernel_size: 1
		 stride: 1
		 pad: 0
	}
}

layer {
	name: "bn_5b_proj_t"
	type: "BatchNorm"
	bottom: "conv_5b_proj_t"
	top: "conv_5b_proj_t"
	batch_norm_param {

	}
}

layer {
	name: "scale_conv_5b_proj_t"
	bottom: "conv_5b_proj_t"
	top: "conv_5b_proj_t"
	type: "Scale"
	scale_param {
		filler {
			value: 1
		}
		bias_filler {
			value: 0
		}
				bias_term: true
	}
}

layer {
	name: "relu_5b_proj_t"
	type: "ReLU"
	bottom: "conv_5b_proj_t"
	top: "conv_5b_proj_t"
}

layer {
	name: "ch_concat_5b_chconcat_t"
	type: "Concat"
	bottom: "conv_5b_1x1_t"
	bottom: "conv_5b_3x3_t"
	bottom: "conv_5b_double_3x3_1_t"
	bottom: "conv_5b_proj_t"
	top: "ch_concat_5b_chconcat_t"
}

# ================================================================================================
# ======== Loss
# ================================================================================================

layer {
	name: "global_pool_t"
	type: "Pooling"
	bottom: "ch_concat_5b_chconcat_t"
	top: "global_pool_t"
	pooling_param {
		 global_pooling : true
		 pool: AVE
	}
}

layer {
	name: "fc1_b_t"
	type: "InnerProduct"
	bottom: "global_pool_t"
	top: "fc1_b_t"
	param {
		lr_mult: 1
		decay_mult: 1
		name: "Loss/InnerProduct_Loss_fc1_w"
	}
	param {
		lr_mult: 2
		decay_mult: 0
		name: "Loss/InnerProduct_Loss_fc1_b"
	}
	inner_product_param {
		num_output: 1000
		weight_filler {
			type: "xavier"
		}
		bias_filler {
			type: "constant"
			value: 0
		}
	}
}

# ================================================================================================
# ================================================================================================
# ======== JOIN NETWORK 1, 2 AND 3
# ================================================================================================
# ================================================================================================

layer {
	name: "Joined_Network/Concat"
	type: "Concat"
	bottom: "fc1_b"
	bottom: "fc1_b_s"
	bottom: "fc1_b_t"
	top: "Joined_Network/Concat"
}

layer {
	name: "Joined_Network/InnerProduct_fc1"
	type: "InnerProduct"
	bottom: "Joined_Network/Concat"
	top: "Joined_Network/InnerProduct_fc1"
	inner_product_param {
		num_output: 2048
		weight_filler {
			type: "xavier"
		}
		bias_filler {
			type: "constant"
			value: 0.2
		}
	}
	param {
		lr_mult: 1
		decay_mult: 1
	}
	param {
		lr_mult: 2
		decay_mult: 0
	}
}

layer {
	name: "Joined_Network/BatchNorm_fc1"
	type: "BatchNorm"
	bottom: "Joined_Network/InnerProduct_fc1"
	top: "Joined_Network/BatchNorm_fc1"

}

layer {
	name: "Joined_Network/ReLU_fc1"
	type: "ReLU"
	bottom: "Joined_Network/BatchNorm_fc1"
	top: "Joined_Network/ReLU_fc1"
}


layer {
	name: "Joined_Network/InnerProduct_fc2"
	type: "InnerProduct"
	bottom: "Joined_Network/ReLU_fc1"
	top: "Joined_Network/InnerProduct_fc2"
	inner_product_param {
		num_output: 2048
		weight_filler {
			type: "xavier"
		}
		bias_filler {
			type: "constant"
			value: 0.2
		}
	}
	param {
		lr_mult: 1
		decay_mult: 1
	}
	param {
		lr_mult: 2
		decay_mult: 0
	}
}

layer {
	name: "Joined_Network/BatchNorm_fc2"
	type: "BatchNorm"
	bottom: "Joined_Network/InnerProduct_fc2"
	top: "Joined_Network/BatchNorm_fc2"

}

layer {
	name: "Joined_Network/ReLU_fc2"
	type: "ReLU"
	bottom: "Joined_Network/BatchNorm_fc2"
	top: "Joined_Network/ReLU_fc2"
}

layer {
	name: "Joined_Network/InnerProduct_fc3"
	type: "InnerProduct"
	bottom: "Joined_Network/ReLU_fc2"
	top: "Joined_Network/InnerProduct_fc3"
	inner_product_param {
		num_output: 80
		weight_filler {
			type: "xavier"
		}
		bias_filler {
			type: "constant"
			value: 0.2
		}
	}
	param {
		lr_mult: 1
		decay_mult: 1
	}
	param {
		lr_mult: 2
		decay_mult: 0
	}
}

layer {
	name: "Loss/SoftmaxWithLoss_Loss"
	type: "SoftmaxWithLoss"
	bottom: "Joined_Network/InnerProduct_fc3"
	bottom: "label"
	top: "Loss/SoftmaxWithLoss_Loss"
	loss_weight: 1.0
}

layer {
	name: "Loss/Accuracy_Accuracy"
	type: "Accuracy"
	bottom: "Joined_Network/InnerProduct_fc3"
	bottom: "label"
	top: "Loss/Accuracy_Accuracy"
	include {
		phase: TEST
	}
}

layer {
	name: "Loss/Accuracy_Accuracy_Top5"
	type: "Accuracy"
	bottom: "Joined_Network/InnerProduct_fc3"
	bottom: "label"
	top: "Loss/Accuracy_Accuracy_Top5"
	include {
		phase: TEST
	}
	accuracy_param {
		top_k: 5
	}
}


layer {
      name: "loss/Softmax_plain"
      type: "Softmax"
      bottom: "Joined_Network/InnerProduct_fc3"
      top: "loss/Softmax_plain"
      loss_weight: 0	
}


layer {
      name: "loss/Softmax_plain_Silence"
      type: "Silence"
      bottom: "loss/Softmax_plain"
}