name: "ResCeption"
input: "data_1"
input_dim: 5
input_dim: 3
input_dim: 96
input_dim: 96
input: "data_2"
input_dim: 5
input_dim: 3
input_dim: 96
input_dim: 96
input: "data_3"
input_dim: 5
input_dim: 3
input_dim: 96
input_dim: 96
input: "label"
input_dim: 5
input_dim: 1
input_dim: 1
input_dim: 1

# ================================================================================================
# ================================================================================================
# ======== NETWORK 1
# ================================================================================================
# ================================================================================================

# ================================================================================================
# ======== Layer1_7x7
# ================================================================================================


layer {
	name: "Layer1_7x7/Convolution_Stride_2"
	type: "Convolution"
	bottom: "data_1"
	top: "Layer1_7x7/Convolution_Stride_2"
	convolution_param {
		num_output: 64
		pad: 3
		kernel_size: 7
		stride: 2
		weight_filler {
			type: "xavier"
		}
		bias_filler {
			type: "constant"
			value: 0.2
		}
	}
	param {
		lr_mult: 1
		decay_mult: 1
		name: "Layer1_7x7/Convolution_Stride_2_w"
	}
	param {
		lr_mult: 2
		decay_mult: 0
		name: "Layer1_7x7/Convolution_Stride_2_b"
	}
}

layer {
	name: "Layer1_7x7/BatchNorm_Stride_2"
	type: "BatchNorm"
	bottom: "Layer1_7x7/Convolution_Stride_2"
	top: "Layer1_7x7/BatchNorm_Stride_2"
	param {
		lr_mult: 0
	}
	param {
		lr_mult: 0
	}
	param {
		lr_mult: 0
	}
}

layer {
	name: "Layer1_7x7/ReLU_Stride_2"
	type: "ReLU"
	bottom: "Layer1_7x7/BatchNorm_Stride_2"
	top: "Layer1_7x7/ReLU_Stride_2"
}

layer {
	name: "Layer1_Pooling/Pooling_Stride_2"
	type: "Pooling"
	bottom: "Layer1_7x7/ReLU_Stride_2"
	top: "Layer1_Pooling/Pooling_Stride_2"
	pooling_param {
		pool: MAX
		kernel_size: 3
		stride: 2
		pad: 0
	}
}

# ================================================================================================
# ======== Layer2_3x3
# ================================================================================================


layer {
	name: "Layer2_3x3/Convolution_Inception3x3_reduce"
	type: "Convolution"
	bottom: "Layer1_Pooling/Pooling_Stride_2"
	top: "Layer2_3x3/Convolution_Inception3x3_reduce"
	convolution_param {
		num_output: 64
		pad: 0
		kernel_size: 1
		stride: 1
		weight_filler {
			type: "xavier"
		}
		bias_filler {
			type: "constant"
			value: 0.2
		}
	}
	param {
		lr_mult: 1
		decay_mult: 1
		name: "Layer2_3x3/Convolution_Inception3x3_reduce_w"
	}
	param {
		lr_mult: 2
		decay_mult: 0
		name: "Layer2_3x3/Convolution_Inception3x3_reduce_b"
	}
}

layer {
	name: "Layer2_3x3/BatchNorm_Inception3x3_reduce"
	type: "BatchNorm"
	bottom: "Layer2_3x3/Convolution_Inception3x3_reduce"
	top: "Layer2_3x3/BatchNorm_Inception3x3_reduce"
	param {
		lr_mult: 0
	}
	param {
		lr_mult: 0
	}
	param {
		lr_mult: 0
	}
}

layer {
	name: "Layer2_3x3/ReLU_Inception3x3_reduce"
	type: "ReLU"
	bottom: "Layer2_3x3/BatchNorm_Inception3x3_reduce"
	top: "Layer2_3x3/ReLU_Inception3x3_reduce"
}

layer {
	name: "Layer2_3x3/Convolution_Inception3x3"
	type: "Convolution"
	bottom: "Layer2_3x3/ReLU_Inception3x3_reduce"
	top: "Layer2_3x3/Convolution_Inception3x3"
	convolution_param {
		num_output: 192
		pad: 1
		kernel_size: 3
		stride: 1
		weight_filler {
			type: "xavier"
		}
		bias_filler {
			type: "constant"
			value: 0.2
		}
	}
	param {
		lr_mult: 1
		decay_mult: 1
		name: "Layer2_3x3/Convolution_Inception3x3_w"
	}
	param {
		lr_mult: 2
		decay_mult: 0
		name: "Layer2_3x3/Convolution_Inception3x3_b"
	}
}

layer {
	name: "Layer2_3x3/BatchNorm_Inception3x3"
	type: "BatchNorm"
	bottom: "Layer2_3x3/Convolution_Inception3x3"
	top: "Layer2_3x3/BatchNorm_Inception3x3"
	param {
		lr_mult: 0
	}
	param {
		lr_mult: 0
	}
	param {
		lr_mult: 0
	}
}

layer {
	name: "Layer2_3x3/ReLU_Inception3x3"
	type: "ReLU"
	bottom: "Layer2_3x3/BatchNorm_Inception3x3"
	top: "Layer2_3x3/ReLU_Inception3x3"
}

layer {
	name: "Layer2_Pooling/Pooling_Stride_2"
	type: "Pooling"
	bottom: "Layer2_3x3/ReLU_Inception3x3"
	top: "Layer2_Pooling/Pooling_Stride_2"
	pooling_param {
		pool: MAX
		kernel_size: 3
		stride: 2
		pad: 0
	}
}

# ================================================================================================
# ======== Layer3a
# ================================================================================================


layer {
	name: "Layer3a/Convolution_Inception3x3_reduce"
	type: "Convolution"
	bottom: "Layer2_Pooling/Pooling_Stride_2"
	top: "Layer3a/Convolution_Inception3x3_reduce"
	convolution_param {
		num_output: 96
		pad: 0
		kernel_size: 1
		stride: 1
		weight_filler {
			type: "xavier"
		}
		bias_filler {
			type: "constant"
			value: 0.2
		}
	}
	param {
		lr_mult: 1
		decay_mult: 1
		name: "Layer3a/Convolution_Inception3x3_reduce_w"
	}
	param {
		lr_mult: 2
		decay_mult: 0
		name: "Layer3a/Convolution_Inception3x3_reduce_b"
	}
}

layer {
	name: "Layer3a/BatchNorm_Inception3x3_reduce"
	type: "BatchNorm"
	bottom: "Layer3a/Convolution_Inception3x3_reduce"
	top: "Layer3a/BatchNorm_Inception3x3_reduce"
	param {
		lr_mult: 0
	}
	param {
		lr_mult: 0
	}
	param {
		lr_mult: 0
	}
}

layer {
	name: "Layer3a/ReLU_Inception3x3_reduce"
	type: "ReLU"
	bottom: "Layer3a/BatchNorm_Inception3x3_reduce"
	top: "Layer3a/ReLU_Inception3x3_reduce"
}

layer {
	name: "Layer3a/Convolution_Inception3x3"
	type: "Convolution"
	bottom: "Layer3a/ReLU_Inception3x3_reduce"
	top: "Layer3a/Convolution_Inception3x3"
	convolution_param {
		num_output: 128
		pad: 1
		kernel_size: 3
		stride: 1
		weight_filler {
			type: "xavier"
		}
		bias_filler {
			type: "constant"
			value: 0.2
		}
	}
	param {
		lr_mult: 1
		decay_mult: 1
		name: "Layer3a/Convolution_Inception3x3_w"
	}
	param {
		lr_mult: 2
		decay_mult: 0
		name: "Layer3a/Convolution_Inception3x3_b"
	}
}

layer {
	name: "Layer3a/Convolution_Inception5x5_reduce"
	type: "Convolution"
	bottom: "Layer2_Pooling/Pooling_Stride_2"
	top: "Layer3a/Convolution_Inception5x5_reduce"
	convolution_param {
		num_output: 16
		pad: 0
		kernel_size: 1
		stride: 1
		weight_filler {
			type: "xavier"
		}
		bias_filler {
			type: "constant"
			value: 0.2
		}
	}
	param {
		lr_mult: 1
		decay_mult: 1
		name: "Layer3a/Convolution_Inception5x5_reduce_w"
	}
	param {
		lr_mult: 2
		decay_mult: 0
		name: "Layer3a/Convolution_Inception5x5_reduce_b"
	}
}

layer {
	name: "Layer3a/BatchNorm_Inception5x5_reduce"
	type: "BatchNorm"
	bottom: "Layer3a/Convolution_Inception5x5_reduce"
	top: "Layer3a/BatchNorm_Inception5x5_reduce"
	param {
		lr_mult: 0
	}
	param {
		lr_mult: 0
	}
	param {
		lr_mult: 0
	}
}

layer {
	name: "Layer3a/ReLU_Inception5x5_reduce"
	type: "ReLU"
	bottom: "Layer3a/BatchNorm_Inception5x5_reduce"
	top: "Layer3a/ReLU_Inception5x5_reduce"
}

layer {
	name: "Layer3a/Convolution_Inception5x5"
	type: "Convolution"
	bottom: "Layer3a/ReLU_Inception5x5_reduce"
	top: "Layer3a/Convolution_Inception5x5"
	convolution_param {
		num_output: 32
		pad: 2
		kernel_size: 5
		stride: 1
		weight_filler {
			type: "xavier"
		}
		bias_filler {
			type: "constant"
			value: 0.2
		}
	}
	param {
		lr_mult: 1
		decay_mult: 1
		name: "Layer3a/Convolution_Inception5x5_w"
	}
	param {
		lr_mult: 2
		decay_mult: 0
		name: "Layer3a/Convolution_Inception5x5_b"
	}
}

layer {
	name: "Layer3a/Pooling_Inception_Pool"
	type: "Pooling"
	bottom: "Layer2_Pooling/Pooling_Stride_2"
	top: "Layer3a/Pooling_Inception_Pool"
	pooling_param {
		pool: MAX
		kernel_size: 3
		stride: 1
		pad: 1
	}
}

layer {
	name: "Layer3a/Convolution_Inception_Pool_1x1"
	type: "Convolution"
	bottom: "Layer3a/Pooling_Inception_Pool"
	top: "Layer3a/Convolution_Inception_Pool_1x1"
	convolution_param {
		num_output: 32
		pad: 0
		kernel_size: 1
		stride: 1
		weight_filler {
			type: "xavier"
		}
		bias_filler {
			type: "constant"
			value: 0.2
		}
	}
	param {
		lr_mult: 1
		decay_mult: 1
		name: "Layer3a/Convolution_Inception_Pool_1x1_w"
	}
	param {
		lr_mult: 2
		decay_mult: 0
		name: "Layer3a/Convolution_Inception_Pool_1x1_b"
	}
}

layer {
	name: "Layer3a/Concat_Output"
	type: "Concat"
	bottom: "Layer3a/Convolution_Inception3x3"
	bottom: "Layer3a/Convolution_Inception5x5"
	bottom: "Layer3a/Convolution_Inception_Pool_1x1"
	top: "Layer3a/Concat_Output"
}

layer {
	name: "Layer3a/Eltwise_EltWise"
	type: "Eltwise"
	bottom: "Layer3a/Concat_Output"
	bottom: "Layer2_Pooling/Pooling_Stride_2"
	top: "Layer3a/Eltwise_EltWise"
	eltwise_param {
		operation: SUM
	}
}

layer {
	name: "Layer3a/ReLU_EltWise"
	type: "ReLU"
	bottom: "Layer3a/Eltwise_EltWise"
	top: "Layer3a/ReLU_EltWise"
}

# ================================================================================================
# ======== Layer3b
# ================================================================================================


layer {
	name: "Layer3b/Convolution_ResCeption1x1"
	type: "Convolution"
	bottom: "Layer3a/ReLU_EltWise"
	top: "Layer3b/Convolution_ResCeption1x1"
	convolution_param {
		num_output: 370
		pad: 0
		kernel_size: 1
		stride: 1
		weight_filler {
			type: "xavier"
		}
		bias_filler {
			type: "constant"
			value: 0.2
		}
	}
	param {
		lr_mult: 1
		decay_mult: 1
		name: "Layer3b/Convolution_ResCeption1x1_w"
	}
	param {
		lr_mult: 2
		decay_mult: 0
		name: "Layer3b/Convolution_ResCeption1x1_b"
	}
}

layer {
	name: "Layer3b/Convolution_Inception3x3_reduce"
	type: "Convolution"
	bottom: "Layer3a/ReLU_EltWise"
	top: "Layer3b/Convolution_Inception3x3_reduce"
	convolution_param {
		num_output: 134
		pad: 0
		kernel_size: 1
		stride: 1
		weight_filler {
			type: "xavier"
		}
		bias_filler {
			type: "constant"
			value: 0.2
		}
	}
	param {
		lr_mult: 1
		decay_mult: 1
		name: "Layer3b/Convolution_Inception3x3_reduce_w"
	}
	param {
		lr_mult: 2
		decay_mult: 0
		name: "Layer3b/Convolution_Inception3x3_reduce_b"
	}
}

layer {
	name: "Layer3b/BatchNorm_Inception3x3_reduce"
	type: "BatchNorm"
	bottom: "Layer3b/Convolution_Inception3x3_reduce"
	top: "Layer3b/BatchNorm_Inception3x3_reduce"
	param {
		lr_mult: 0
	}
	param {
		lr_mult: 0
	}
	param {
		lr_mult: 0
	}
}

layer {
	name: "Layer3b/ReLU_Inception3x3_reduce"
	type: "ReLU"
	bottom: "Layer3b/BatchNorm_Inception3x3_reduce"
	top: "Layer3b/ReLU_Inception3x3_reduce"
}

layer {
	name: "Layer3b/Convolution_Inception3x3"
	type: "Convolution"
	bottom: "Layer3b/ReLU_Inception3x3_reduce"
	top: "Layer3b/Convolution_Inception3x3"
	convolution_param {
		num_output: 202
		pad: 1
		kernel_size: 3
		stride: 1
		weight_filler {
			type: "xavier"
		}
		bias_filler {
			type: "constant"
			value: 0.2
		}
	}
	param {
		lr_mult: 1
		decay_mult: 1
		name: "Layer3b/Convolution_Inception3x3_w"
	}
	param {
		lr_mult: 2
		decay_mult: 0
		name: "Layer3b/Convolution_Inception3x3_b"
	}
}

layer {
	name: "Layer3b/Convolution_Inception5x5_reduce"
	type: "Convolution"
	bottom: "Layer3a/ReLU_EltWise"
	top: "Layer3b/Convolution_Inception5x5_reduce"
	convolution_param {
		num_output: 34
		pad: 0
		kernel_size: 1
		stride: 1
		weight_filler {
			type: "xavier"
		}
		bias_filler {
			type: "constant"
			value: 0.2
		}
	}
	param {
		lr_mult: 1
		decay_mult: 1
		name: "Layer3b/Convolution_Inception5x5_reduce_w"
	}
	param {
		lr_mult: 2
		decay_mult: 0
		name: "Layer3b/Convolution_Inception5x5_reduce_b"
	}
}

layer {
	name: "Layer3b/BatchNorm_Inception5x5_reduce"
	type: "BatchNorm"
	bottom: "Layer3b/Convolution_Inception5x5_reduce"
	top: "Layer3b/BatchNorm_Inception5x5_reduce"
	param {
		lr_mult: 0
	}
	param {
		lr_mult: 0
	}
	param {
		lr_mult: 0
	}
}

layer {
	name: "Layer3b/ReLU_Inception5x5_reduce"
	type: "ReLU"
	bottom: "Layer3b/BatchNorm_Inception5x5_reduce"
	top: "Layer3b/ReLU_Inception5x5_reduce"
}

layer {
	name: "Layer3b/Convolution_Inception5x5"
	type: "Convolution"
	bottom: "Layer3b/ReLU_Inception5x5_reduce"
	top: "Layer3b/Convolution_Inception5x5"
	convolution_param {
		num_output: 101
		pad: 2
		kernel_size: 5
		stride: 1
		weight_filler {
			type: "xavier"
		}
		bias_filler {
			type: "constant"
			value: 0.2
		}
	}
	param {
		lr_mult: 1
		decay_mult: 1
		name: "Layer3b/Convolution_Inception5x5_w"
	}
	param {
		lr_mult: 2
		decay_mult: 0
		name: "Layer3b/Convolution_Inception5x5_b"
	}
}

layer {
	name: "Layer3b/Pooling_Inception_Pool"
	type: "Pooling"
	bottom: "Layer3a/ReLU_EltWise"
	top: "Layer3b/Pooling_Inception_Pool"
	pooling_param {
		pool: MAX
		kernel_size: 3
		stride: 1
		pad: 1
	}
}

layer {
	name: "Layer3b/Convolution_Inception_Pool_1x1"
	type: "Convolution"
	bottom: "Layer3b/Pooling_Inception_Pool"
	top: "Layer3b/Convolution_Inception_Pool_1x1"
	convolution_param {
		num_output: 67
		pad: 0
		kernel_size: 1
		stride: 1
		weight_filler {
			type: "xavier"
		}
		bias_filler {
			type: "constant"
			value: 0.2
		}
	}
	param {
		lr_mult: 1
		decay_mult: 1
		name: "Layer3b/Convolution_Inception_Pool_1x1_w"
	}
	param {
		lr_mult: 2
		decay_mult: 0
		name: "Layer3b/Convolution_Inception_Pool_1x1_b"
	}
}

layer {
	name: "Layer3b/Concat_Output"
	type: "Concat"
	bottom: "Layer3b/Convolution_Inception3x3"
	bottom: "Layer3b/Convolution_Inception5x5"
	bottom: "Layer3b/Convolution_Inception_Pool_1x1"
	top: "Layer3b/Concat_Output"
}

layer {
	name: "Layer3b/Eltwise_EltWise"
	type: "Eltwise"
	bottom: "Layer3b/Concat_Output"
	bottom: "Layer3b/Convolution_ResCeption1x1"
	top: "Layer3b/Eltwise_EltWise"
	eltwise_param {
		operation: SUM
	}
}

layer {
	name: "Layer3b/BatchNorm_EltWise"
	type: "BatchNorm"
	bottom: "Layer3b/Eltwise_EltWise"
	top: "Layer3b/BatchNorm_EltWise"
	param {
		lr_mult: 0
	}
	param {
		lr_mult: 0
	}
	param {
		lr_mult: 0
	}
}

layer {
	name: "Layer3b/ReLU_EltWise"
	type: "ReLU"
	bottom: "Layer3b/BatchNorm_EltWise"
	top: "Layer3b/ReLU_EltWise"
}

layer {
	name: "Layer3_Pooling/Pooling_Stride_2"
	type: "Pooling"
	bottom: "Layer3b/ReLU_EltWise"
	top: "Layer3_Pooling/Pooling_Stride_2"
	pooling_param {
		pool: MAX
		kernel_size: 3
		stride: 2
		pad: 0
	}
}

# ================================================================================================
# ======== Layer4a
# ================================================================================================


layer {
	name: "Layer4a/Convolution_ResCeption1x1"
	type: "Convolution"
	bottom: "Layer3_Pooling/Pooling_Stride_2"
	top: "Layer4a/Convolution_ResCeption1x1"
	convolution_param {
		num_output: 352
		pad: 0
		kernel_size: 1
		stride: 1
		weight_filler {
			type: "xavier"
		}
		bias_filler {
			type: "constant"
			value: 0.2
		}
	}
	param {
		lr_mult: 1
		decay_mult: 1
		name: "Layer4a/Convolution_ResCeption1x1_w"
	}
	param {
		lr_mult: 2
		decay_mult: 0
		name: "Layer4a/Convolution_ResCeption1x1_b"
	}
}

layer {
	name: "Layer4a/Convolution_Inception3x3_reduce"
	type: "Convolution"
	bottom: "Layer3_Pooling/Pooling_Stride_2"
	top: "Layer4a/Convolution_Inception3x3_reduce"
	convolution_param {
		num_output: 106
		pad: 0
		kernel_size: 1
		stride: 1
		weight_filler {
			type: "xavier"
		}
		bias_filler {
			type: "constant"
			value: 0.2
		}
	}
	param {
		lr_mult: 1
		decay_mult: 1
		name: "Layer4a/Convolution_Inception3x3_reduce_w"
	}
	param {
		lr_mult: 2
		decay_mult: 0
		name: "Layer4a/Convolution_Inception3x3_reduce_b"
	}
}

layer {
	name: "Layer4a/BatchNorm_Inception3x3_reduce"
	type: "BatchNorm"
	bottom: "Layer4a/Convolution_Inception3x3_reduce"
	top: "Layer4a/BatchNorm_Inception3x3_reduce"
	param {
		lr_mult: 0
	}
	param {
		lr_mult: 0
	}
	param {
		lr_mult: 0
	}
}

layer {
	name: "Layer4a/ReLU_Inception3x3_reduce"
	type: "ReLU"
	bottom: "Layer4a/BatchNorm_Inception3x3_reduce"
	top: "Layer4a/ReLU_Inception3x3_reduce"
}

layer {
	name: "Layer4a/Convolution_Inception3x3"
	type: "Convolution"
	bottom: "Layer4a/ReLU_Inception3x3_reduce"
	top: "Layer4a/Convolution_Inception3x3"
	convolution_param {
		num_output: 229
		pad: 1
		kernel_size: 3
		stride: 1
		weight_filler {
			type: "xavier"
		}
		bias_filler {
			type: "constant"
			value: 0.2
		}
	}
	param {
		lr_mult: 1
		decay_mult: 1
		name: "Layer4a/Convolution_Inception3x3_w"
	}
	param {
		lr_mult: 2
		decay_mult: 0
		name: "Layer4a/Convolution_Inception3x3_b"
	}
}

layer {
	name: "Layer4a/Convolution_Inception5x5_reduce"
	type: "Convolution"
	bottom: "Layer3_Pooling/Pooling_Stride_2"
	top: "Layer4a/Convolution_Inception5x5_reduce"
	convolution_param {
		num_output: 18
		pad: 0
		kernel_size: 1
		stride: 1
		weight_filler {
			type: "xavier"
		}
		bias_filler {
			type: "constant"
			value: 0.2
		}
	}
	param {
		lr_mult: 1
		decay_mult: 1
		name: "Layer4a/Convolution_Inception5x5_reduce_w"
	}
	param {
		lr_mult: 2
		decay_mult: 0
		name: "Layer4a/Convolution_Inception5x5_reduce_b"
	}
}

layer {
	name: "Layer4a/BatchNorm_Inception5x5_reduce"
	type: "BatchNorm"
	bottom: "Layer4a/Convolution_Inception5x5_reduce"
	top: "Layer4a/BatchNorm_Inception5x5_reduce"
	param {
		lr_mult: 0
	}
	param {
		lr_mult: 0
	}
	param {
		lr_mult: 0
	}
}

layer {
	name: "Layer4a/ReLU_Inception5x5_reduce"
	type: "ReLU"
	bottom: "Layer4a/BatchNorm_Inception5x5_reduce"
	top: "Layer4a/ReLU_Inception5x5_reduce"
}

layer {
	name: "Layer4a/Convolution_Inception5x5"
	type: "Convolution"
	bottom: "Layer4a/ReLU_Inception5x5_reduce"
	top: "Layer4a/Convolution_Inception5x5"
	convolution_param {
		num_output: 53
		pad: 2
		kernel_size: 5
		stride: 1
		weight_filler {
			type: "xavier"
		}
		bias_filler {
			type: "constant"
			value: 0.2
		}
	}
	param {
		lr_mult: 1
		decay_mult: 1
		name: "Layer4a/Convolution_Inception5x5_w"
	}
	param {
		lr_mult: 2
		decay_mult: 0
		name: "Layer4a/Convolution_Inception5x5_b"
	}
}

layer {
	name: "Layer4a/Pooling_Inception_Pool"
	type: "Pooling"
	bottom: "Layer3_Pooling/Pooling_Stride_2"
	top: "Layer4a/Pooling_Inception_Pool"
	pooling_param {
		pool: MAX
		kernel_size: 3
		stride: 1
		pad: 1
	}
}

layer {
	name: "Layer4a/Convolution_Inception_Pool_1x1"
	type: "Convolution"
	bottom: "Layer4a/Pooling_Inception_Pool"
	top: "Layer4a/Convolution_Inception_Pool_1x1"
	convolution_param {
		num_output: 70
		pad: 0
		kernel_size: 1
		stride: 1
		weight_filler {
			type: "xavier"
		}
		bias_filler {
			type: "constant"
			value: 0.2
		}
	}
	param {
		lr_mult: 1
		decay_mult: 1
		name: "Layer4a/Convolution_Inception_Pool_1x1_w"
	}
	param {
		lr_mult: 2
		decay_mult: 0
		name: "Layer4a/Convolution_Inception_Pool_1x1_b"
	}
}

layer {
	name: "Layer4a/Concat_Output"
	type: "Concat"
	bottom: "Layer4a/Convolution_Inception3x3"
	bottom: "Layer4a/Convolution_Inception5x5"
	bottom: "Layer4a/Convolution_Inception_Pool_1x1"
	top: "Layer4a/Concat_Output"
}

layer {
	name: "Layer4a/Eltwise_EltWise"
	type: "Eltwise"
	bottom: "Layer4a/Concat_Output"
	bottom: "Layer4a/Convolution_ResCeption1x1"
	top: "Layer4a/Eltwise_EltWise"
	eltwise_param {
		operation: SUM
	}
}

layer {
	name: "Layer4a/BatchNorm_EltWise"
	type: "BatchNorm"
	bottom: "Layer4a/Eltwise_EltWise"
	top: "Layer4a/BatchNorm_EltWise"
	param {
		lr_mult: 0
	}
	param {
		lr_mult: 0
	}
	param {
		lr_mult: 0
	}
}

layer {
	name: "Layer4a/ReLU_EltWise"
	type: "ReLU"
	bottom: "Layer4a/BatchNorm_EltWise"
	top: "Layer4a/ReLU_EltWise"
}

# ================================================================================================
# ======== Layer4b
# ================================================================================================


layer {
	name: "Layer4b/Convolution_ResCeption1x1"
	type: "Convolution"
	bottom: "Layer4a/ReLU_EltWise"
	top: "Layer4b/Convolution_ResCeption1x1"
	convolution_param {
		num_output: 406
		pad: 0
		kernel_size: 1
		stride: 1
		weight_filler {
			type: "xavier"
		}
		bias_filler {
			type: "constant"
			value: 0.2
		}
	}
	param {
		lr_mult: 1
		decay_mult: 1
		name: "Layer4b/Convolution_ResCeption1x1_w"
	}
	param {
		lr_mult: 2
		decay_mult: 0
		name: "Layer4b/Convolution_ResCeption1x1_b"
	}
}

layer {
	name: "Layer4b/Convolution_Inception3x3_reduce"
	type: "Convolution"
	bottom: "Layer4a/ReLU_EltWise"
	top: "Layer4b/Convolution_Inception3x3_reduce"
	convolution_param {
		num_output: 129
		pad: 0
		kernel_size: 1
		stride: 1
		weight_filler {
			type: "xavier"
		}
		bias_filler {
			type: "constant"
			value: 0.2
		}
	}
	param {
		lr_mult: 1
		decay_mult: 1
		name: "Layer4b/Convolution_Inception3x3_reduce_w"
	}
	param {
		lr_mult: 2
		decay_mult: 0
		name: "Layer4b/Convolution_Inception3x3_reduce_b"
	}
}

layer {
	name: "Layer4b/BatchNorm_Inception3x3_reduce"
	type: "BatchNorm"
	bottom: "Layer4b/Convolution_Inception3x3_reduce"
	top: "Layer4b/BatchNorm_Inception3x3_reduce"
	param {
		lr_mult: 0
	}
	param {
		lr_mult: 0
	}
	param {
		lr_mult: 0
	}
}

layer {
	name: "Layer4b/ReLU_Inception3x3_reduce"
	type: "ReLU"
	bottom: "Layer4b/BatchNorm_Inception3x3_reduce"
	top: "Layer4b/ReLU_Inception3x3_reduce"
}

layer {
	name: "Layer4b/Convolution_Inception3x3"
	type: "Convolution"
	bottom: "Layer4b/ReLU_Inception3x3_reduce"
	top: "Layer4b/Convolution_Inception3x3"
	convolution_param {
		num_output: 258
		pad: 1
		kernel_size: 3
		stride: 1
		weight_filler {
			type: "xavier"
		}
		bias_filler {
			type: "constant"
			value: 0.2
		}
	}
	param {
		lr_mult: 1
		decay_mult: 1
		name: "Layer4b/Convolution_Inception3x3_w"
	}
	param {
		lr_mult: 2
		decay_mult: 0
		name: "Layer4b/Convolution_Inception3x3_b"
	}
}

layer {
	name: "Layer4b/Convolution_Inception5x5_reduce"
	type: "Convolution"
	bottom: "Layer4a/ReLU_EltWise"
	top: "Layer4b/Convolution_Inception5x5_reduce"
	convolution_param {
		num_output: 28
		pad: 0
		kernel_size: 1
		stride: 1
		weight_filler {
			type: "xavier"
		}
		bias_filler {
			type: "constant"
			value: 0.2
		}
	}
	param {
		lr_mult: 1
		decay_mult: 1
		name: "Layer4b/Convolution_Inception5x5_reduce_w"
	}
	param {
		lr_mult: 2
		decay_mult: 0
		name: "Layer4b/Convolution_Inception5x5_reduce_b"
	}
}

layer {
	name: "Layer4b/BatchNorm_Inception5x5_reduce"
	type: "BatchNorm"
	bottom: "Layer4b/Convolution_Inception5x5_reduce"
	top: "Layer4b/BatchNorm_Inception5x5_reduce"
	param {
		lr_mult: 0
	}
	param {
		lr_mult: 0
	}
	param {
		lr_mult: 0
	}
}

layer {
	name: "Layer4b/ReLU_Inception5x5_reduce"
	type: "ReLU"
	bottom: "Layer4b/BatchNorm_Inception5x5_reduce"
	top: "Layer4b/ReLU_Inception5x5_reduce"
}

layer {
	name: "Layer4b/Convolution_Inception5x5"
	type: "Convolution"
	bottom: "Layer4b/ReLU_Inception5x5_reduce"
	top: "Layer4b/Convolution_Inception5x5"
	convolution_param {
		num_output: 74
		pad: 2
		kernel_size: 5
		stride: 1
		weight_filler {
			type: "xavier"
		}
		bias_filler {
			type: "constant"
			value: 0.2
		}
	}
	param {
		lr_mult: 1
		decay_mult: 1
		name: "Layer4b/Convolution_Inception5x5_w"
	}
	param {
		lr_mult: 2
		decay_mult: 0
		name: "Layer4b/Convolution_Inception5x5_b"
	}
}

layer {
	name: "Layer4b/Pooling_Inception_Pool"
	type: "Pooling"
	bottom: "Layer4a/ReLU_EltWise"
	top: "Layer4b/Pooling_Inception_Pool"
	pooling_param {
		pool: MAX
		kernel_size: 3
		stride: 1
		pad: 1
	}
}

layer {
	name: "Layer4b/Convolution_Inception_Pool_1x1"
	type: "Convolution"
	bottom: "Layer4b/Pooling_Inception_Pool"
	top: "Layer4b/Convolution_Inception_Pool_1x1"
	convolution_param {
		num_output: 74
		pad: 0
		kernel_size: 1
		stride: 1
		weight_filler {
			type: "xavier"
		}
		bias_filler {
			type: "constant"
			value: 0.2
		}
	}
	param {
		lr_mult: 1
		decay_mult: 1
		name: "Layer4b/Convolution_Inception_Pool_1x1_w"
	}
	param {
		lr_mult: 2
		decay_mult: 0
		name: "Layer4b/Convolution_Inception_Pool_1x1_b"
	}
}

layer {
	name: "Layer4b/Concat_Output"
	type: "Concat"
	bottom: "Layer4b/Convolution_Inception3x3"
	bottom: "Layer4b/Convolution_Inception5x5"
	bottom: "Layer4b/Convolution_Inception_Pool_1x1"
	top: "Layer4b/Concat_Output"
}

layer {
	name: "Layer4b/Eltwise_EltWise"
	type: "Eltwise"
	bottom: "Layer4b/Concat_Output"
	bottom: "Layer4b/Convolution_ResCeption1x1"
	top: "Layer4b/Eltwise_EltWise"
	eltwise_param {
		operation: SUM
	}
}

layer {
	name: "Layer4b/BatchNorm_EltWise"
	type: "BatchNorm"
	bottom: "Layer4b/Eltwise_EltWise"
	top: "Layer4b/BatchNorm_EltWise"
	param {
		lr_mult: 0
	}
	param {
		lr_mult: 0
	}
	param {
		lr_mult: 0
	}
}

layer {
	name: "Layer4b/ReLU_EltWise"
	type: "ReLU"
	bottom: "Layer4b/BatchNorm_EltWise"
	top: "Layer4b/ReLU_EltWise"
}

# ================================================================================================
# ======== Layer4c
# ================================================================================================


layer {
	name: "Layer4c/Convolution_ResCeption1x1"
	type: "Convolution"
	bottom: "Layer4b/ReLU_EltWise"
	top: "Layer4c/Convolution_ResCeption1x1"
	convolution_param {
		num_output: 461
		pad: 0
		kernel_size: 1
		stride: 1
		weight_filler {
			type: "xavier"
		}
		bias_filler {
			type: "constant"
			value: 0.2
		}
	}
	param {
		lr_mult: 1
		decay_mult: 1
		name: "Layer4c/Convolution_ResCeption1x1_w"
	}
	param {
		lr_mult: 2
		decay_mult: 0
		name: "Layer4c/Convolution_ResCeption1x1_b"
	}
}

layer {
	name: "Layer4c/Convolution_Inception3x3_reduce"
	type: "Convolution"
	bottom: "Layer4b/ReLU_EltWise"
	top: "Layer4c/Convolution_Inception3x3_reduce"
	convolution_param {
		num_output: 154
		pad: 0
		kernel_size: 1
		stride: 1
		weight_filler {
			type: "xavier"
		}
		bias_filler {
			type: "constant"
			value: 0.2
		}
	}
	param {
		lr_mult: 1
		decay_mult: 1
		name: "Layer4c/Convolution_Inception3x3_reduce_w"
	}
	param {
		lr_mult: 2
		decay_mult: 0
		name: "Layer4c/Convolution_Inception3x3_reduce_b"
	}
}

layer {
	name: "Layer4c/BatchNorm_Inception3x3_reduce"
	type: "BatchNorm"
	bottom: "Layer4c/Convolution_Inception3x3_reduce"
	top: "Layer4c/BatchNorm_Inception3x3_reduce"
	param {
		lr_mult: 0
	}
	param {
		lr_mult: 0
	}
	param {
		lr_mult: 0
	}
}

layer {
	name: "Layer4c/ReLU_Inception3x3_reduce"
	type: "ReLU"
	bottom: "Layer4c/BatchNorm_Inception3x3_reduce"
	top: "Layer4c/ReLU_Inception3x3_reduce"
}

layer {
	name: "Layer4c/Convolution_Inception3x3"
	type: "Convolution"
	bottom: "Layer4c/ReLU_Inception3x3_reduce"
	top: "Layer4c/Convolution_Inception3x3"
	convolution_param {
		num_output: 307
		pad: 1
		kernel_size: 3
		stride: 1
		weight_filler {
			type: "xavier"
		}
		bias_filler {
			type: "constant"
			value: 0.2
		}
	}
	param {
		lr_mult: 1
		decay_mult: 1
		name: "Layer4c/Convolution_Inception3x3_w"
	}
	param {
		lr_mult: 2
		decay_mult: 0
		name: "Layer4c/Convolution_Inception3x3_b"
	}
}

layer {
	name: "Layer4c/Convolution_Inception5x5_reduce"
	type: "Convolution"
	bottom: "Layer4b/ReLU_EltWise"
	top: "Layer4c/Convolution_Inception5x5_reduce"
	convolution_param {
		num_output: 29
		pad: 0
		kernel_size: 1
		stride: 1
		weight_filler {
			type: "xavier"
		}
		bias_filler {
			type: "constant"
			value: 0.2
		}
	}
	param {
		lr_mult: 1
		decay_mult: 1
		name: "Layer4c/Convolution_Inception5x5_reduce_w"
	}
	param {
		lr_mult: 2
		decay_mult: 0
		name: "Layer4c/Convolution_Inception5x5_reduce_b"
	}
}

layer {
	name: "Layer4c/BatchNorm_Inception5x5_reduce"
	type: "BatchNorm"
	bottom: "Layer4c/Convolution_Inception5x5_reduce"
	top: "Layer4c/BatchNorm_Inception5x5_reduce"
	param {
		lr_mult: 0
	}
	param {
		lr_mult: 0
	}
	param {
		lr_mult: 0
	}
}

layer {
	name: "Layer4c/ReLU_Inception5x5_reduce"
	type: "ReLU"
	bottom: "Layer4c/BatchNorm_Inception5x5_reduce"
	top: "Layer4c/ReLU_Inception5x5_reduce"
}

layer {
	name: "Layer4c/Convolution_Inception5x5"
	type: "Convolution"
	bottom: "Layer4c/ReLU_Inception5x5_reduce"
	top: "Layer4c/Convolution_Inception5x5"
	convolution_param {
		num_output: 77
		pad: 2
		kernel_size: 5
		stride: 1
		weight_filler {
			type: "xavier"
		}
		bias_filler {
			type: "constant"
			value: 0.2
		}
	}
	param {
		lr_mult: 1
		decay_mult: 1
		name: "Layer4c/Convolution_Inception5x5_w"
	}
	param {
		lr_mult: 2
		decay_mult: 0
		name: "Layer4c/Convolution_Inception5x5_b"
	}
}

layer {
	name: "Layer4c/Pooling_Inception_Pool"
	type: "Pooling"
	bottom: "Layer4b/ReLU_EltWise"
	top: "Layer4c/Pooling_Inception_Pool"
	pooling_param {
		pool: MAX
		kernel_size: 3
		stride: 1
		pad: 1
	}
}

layer {
	name: "Layer4c/Convolution_Inception_Pool_1x1"
	type: "Convolution"
	bottom: "Layer4c/Pooling_Inception_Pool"
	top: "Layer4c/Convolution_Inception_Pool_1x1"
	convolution_param {
		num_output: 77
		pad: 0
		kernel_size: 1
		stride: 1
		weight_filler {
			type: "xavier"
		}
		bias_filler {
			type: "constant"
			value: 0.2
		}
	}
	param {
		lr_mult: 1
		decay_mult: 1
		name: "Layer4c/Convolution_Inception_Pool_1x1_w"
	}
	param {
		lr_mult: 2
		decay_mult: 0
		name: "Layer4c/Convolution_Inception_Pool_1x1_b"
	}
}

layer {
	name: "Layer4c/Concat_Output"
	type: "Concat"
	bottom: "Layer4c/Convolution_Inception3x3"
	bottom: "Layer4c/Convolution_Inception5x5"
	bottom: "Layer4c/Convolution_Inception_Pool_1x1"
	top: "Layer4c/Concat_Output"
}

layer {
	name: "Layer4c/Eltwise_EltWise"
	type: "Eltwise"
	bottom: "Layer4c/Concat_Output"
	bottom: "Layer4c/Convolution_ResCeption1x1"
	top: "Layer4c/Eltwise_EltWise"
	eltwise_param {
		operation: SUM
	}
}

layer {
	name: "Layer4c/BatchNorm_EltWise"
	type: "BatchNorm"
	bottom: "Layer4c/Eltwise_EltWise"
	top: "Layer4c/BatchNorm_EltWise"
	param {
		lr_mult: 0
	}
	param {
		lr_mult: 0
	}
	param {
		lr_mult: 0
	}
}

layer {
	name: "Layer4c/ReLU_EltWise"
	type: "ReLU"
	bottom: "Layer4c/BatchNorm_EltWise"
	top: "Layer4c/ReLU_EltWise"
}

# ================================================================================================
# ======== Layer4d
# ================================================================================================


layer {
	name: "Layer4d/Convolution_ResCeption1x1"
	type: "Convolution"
	bottom: "Layer4c/ReLU_EltWise"
	top: "Layer4d/Convolution_ResCeption1x1"
	convolution_param {
		num_output: 540
		pad: 0
		kernel_size: 1
		stride: 1
		weight_filler {
			type: "xavier"
		}
		bias_filler {
			type: "constant"
			value: 0.2
		}
	}
	param {
		lr_mult: 1
		decay_mult: 1
		name: "Layer4d/Convolution_ResCeption1x1_w"
	}
	param {
		lr_mult: 2
		decay_mult: 0
		name: "Layer4d/Convolution_ResCeption1x1_b"
	}
}

layer {
	name: "Layer4d/Convolution_Inception3x3_reduce"
	type: "Convolution"
	bottom: "Layer4c/ReLU_EltWise"
	top: "Layer4d/Convolution_Inception3x3_reduce"
	convolution_param {
		num_output: 187
		pad: 0
		kernel_size: 1
		stride: 1
		weight_filler {
			type: "xavier"
		}
		bias_filler {
			type: "constant"
			value: 0.2
		}
	}
	param {
		lr_mult: 1
		decay_mult: 1
		name: "Layer4d/Convolution_Inception3x3_reduce_w"
	}
	param {
		lr_mult: 2
		decay_mult: 0
		name: "Layer4d/Convolution_Inception3x3_reduce_b"
	}
}

layer {
	name: "Layer4d/BatchNorm_Inception3x3_reduce"
	type: "BatchNorm"
	bottom: "Layer4d/Convolution_Inception3x3_reduce"
	top: "Layer4d/BatchNorm_Inception3x3_reduce"
	param {
		lr_mult: 0
	}
	param {
		lr_mult: 0
	}
	param {
		lr_mult: 0
	}
}

layer {
	name: "Layer4d/ReLU_Inception3x3_reduce"
	type: "ReLU"
	bottom: "Layer4d/BatchNorm_Inception3x3_reduce"
	top: "Layer4d/ReLU_Inception3x3_reduce"
}

layer {
	name: "Layer4d/Convolution_Inception3x3"
	type: "Convolution"
	bottom: "Layer4d/ReLU_Inception3x3_reduce"
	top: "Layer4d/Convolution_Inception3x3"
	convolution_param {
		num_output: 374
		pad: 1
		kernel_size: 3
		stride: 1
		weight_filler {
			type: "xavier"
		}
		bias_filler {
			type: "constant"
			value: 0.2
		}
	}
	param {
		lr_mult: 1
		decay_mult: 1
		name: "Layer4d/Convolution_Inception3x3_w"
	}
	param {
		lr_mult: 2
		decay_mult: 0
		name: "Layer4d/Convolution_Inception3x3_b"
	}
}

layer {
	name: "Layer4d/Convolution_Inception5x5_reduce"
	type: "Convolution"
	bottom: "Layer4c/ReLU_EltWise"
	top: "Layer4d/Convolution_Inception5x5_reduce"
	convolution_param {
		num_output: 42
		pad: 0
		kernel_size: 1
		stride: 1
		weight_filler {
			type: "xavier"
		}
		bias_filler {
			type: "constant"
			value: 0.2
		}
	}
	param {
		lr_mult: 1
		decay_mult: 1
		name: "Layer4d/Convolution_Inception5x5_reduce_w"
	}
	param {
		lr_mult: 2
		decay_mult: 0
		name: "Layer4d/Convolution_Inception5x5_reduce_b"
	}
}

layer {
	name: "Layer4d/BatchNorm_Inception5x5_reduce"
	type: "BatchNorm"
	bottom: "Layer4d/Convolution_Inception5x5_reduce"
	top: "Layer4d/BatchNorm_Inception5x5_reduce"
	param {
		lr_mult: 0
	}
	param {
		lr_mult: 0
	}
	param {
		lr_mult: 0
	}
}

layer {
	name: "Layer4d/ReLU_Inception5x5_reduce"
	type: "ReLU"
	bottom: "Layer4d/BatchNorm_Inception5x5_reduce"
	top: "Layer4d/ReLU_Inception5x5_reduce"
}

layer {
	name: "Layer4d/Convolution_Inception5x5"
	type: "Convolution"
	bottom: "Layer4d/ReLU_Inception5x5_reduce"
	top: "Layer4d/Convolution_Inception5x5"
	convolution_param {
		num_output: 83
		pad: 2
		kernel_size: 5
		stride: 1
		weight_filler {
			type: "xavier"
		}
		bias_filler {
			type: "constant"
			value: 0.2
		}
	}
	param {
		lr_mult: 1
		decay_mult: 1
		name: "Layer4d/Convolution_Inception5x5_w"
	}
	param {
		lr_mult: 2
		decay_mult: 0
		name: "Layer4d/Convolution_Inception5x5_b"
	}
}

layer {
	name: "Layer4d/Pooling_Inception_Pool"
	type: "Pooling"
	bottom: "Layer4c/ReLU_EltWise"
	top: "Layer4d/Pooling_Inception_Pool"
	pooling_param {
		pool: MAX
		kernel_size: 3
		stride: 1
		pad: 1
	}
}

layer {
	name: "Layer4d/Convolution_Inception_Pool_1x1"
	type: "Convolution"
	bottom: "Layer4d/Pooling_Inception_Pool"
	top: "Layer4d/Convolution_Inception_Pool_1x1"
	convolution_param {
		num_output: 83
		pad: 0
		kernel_size: 1
		stride: 1
		weight_filler {
			type: "xavier"
		}
		bias_filler {
			type: "constant"
			value: 0.2
		}
	}
	param {
		lr_mult: 1
		decay_mult: 1
		name: "Layer4d/Convolution_Inception_Pool_1x1_w"
	}
	param {
		lr_mult: 2
		decay_mult: 0
		name: "Layer4d/Convolution_Inception_Pool_1x1_b"
	}
}

layer {
	name: "Layer4d/Concat_Output"
	type: "Concat"
	bottom: "Layer4d/Convolution_Inception3x3"
	bottom: "Layer4d/Convolution_Inception5x5"
	bottom: "Layer4d/Convolution_Inception_Pool_1x1"
	top: "Layer4d/Concat_Output"
}

layer {
	name: "Layer4d/Eltwise_EltWise"
	type: "Eltwise"
	bottom: "Layer4d/Concat_Output"
	bottom: "Layer4d/Convolution_ResCeption1x1"
	top: "Layer4d/Eltwise_EltWise"
	eltwise_param {
		operation: SUM
	}
}

layer {
	name: "Layer4d/BatchNorm_EltWise"
	type: "BatchNorm"
	bottom: "Layer4d/Eltwise_EltWise"
	top: "Layer4d/BatchNorm_EltWise"
	param {
		lr_mult: 0
	}
	param {
		lr_mult: 0
	}
	param {
		lr_mult: 0
	}
}

layer {
	name: "Layer4d/ReLU_EltWise"
	type: "ReLU"
	bottom: "Layer4d/BatchNorm_EltWise"
	top: "Layer4d/ReLU_EltWise"
}

# ================================================================================================
# ======== Layer4e
# ================================================================================================


layer {
	name: "Layer4e/Convolution_ResCeption1x1"
	type: "Convolution"
	bottom: "Layer4d/ReLU_EltWise"
	top: "Layer4e/Convolution_ResCeption1x1"
	convolution_param {
		num_output: 806
		pad: 0
		kernel_size: 1
		stride: 1
		weight_filler {
			type: "xavier"
		}
		bias_filler {
			type: "constant"
			value: 0.2
		}
	}
	param {
		lr_mult: 1
		decay_mult: 1
		name: "Layer4e/Convolution_ResCeption1x1_w"
	}
	param {
		lr_mult: 2
		decay_mult: 0
		name: "Layer4e/Convolution_ResCeption1x1_b"
	}
}

layer {
	name: "Layer4e/Convolution_Inception3x3_reduce"
	type: "Convolution"
	bottom: "Layer4d/ReLU_EltWise"
	top: "Layer4e/Convolution_Inception3x3_reduce"
	convolution_param {
		num_output: 224
		pad: 0
		kernel_size: 1
		stride: 1
		weight_filler {
			type: "xavier"
		}
		bias_filler {
			type: "constant"
			value: 0.2
		}
	}
	param {
		lr_mult: 1
		decay_mult: 1
		name: "Layer4e/Convolution_Inception3x3_reduce_w"
	}
	param {
		lr_mult: 2
		decay_mult: 0
		name: "Layer4e/Convolution_Inception3x3_reduce_b"
	}
}

layer {
	name: "Layer4e/BatchNorm_Inception3x3_reduce"
	type: "BatchNorm"
	bottom: "Layer4e/Convolution_Inception3x3_reduce"
	top: "Layer4e/BatchNorm_Inception3x3_reduce"
	param {
		lr_mult: 0
	}
	param {
		lr_mult: 0
	}
	param {
		lr_mult: 0
	}
}

layer {
	name: "Layer4e/ReLU_Inception3x3_reduce"
	type: "ReLU"
	bottom: "Layer4e/BatchNorm_Inception3x3_reduce"
	top: "Layer4e/ReLU_Inception3x3_reduce"
}

layer {
	name: "Layer4e/Convolution_Inception3x3"
	type: "Convolution"
	bottom: "Layer4e/ReLU_Inception3x3_reduce"
	top: "Layer4e/Convolution_Inception3x3"
	convolution_param {
		num_output: 448
		pad: 1
		kernel_size: 3
		stride: 1
		weight_filler {
			type: "xavier"
		}
		bias_filler {
			type: "constant"
			value: 0.2
		}
	}
	param {
		lr_mult: 1
		decay_mult: 1
		name: "Layer4e/Convolution_Inception3x3_w"
	}
	param {
		lr_mult: 2
		decay_mult: 0
		name: "Layer4e/Convolution_Inception3x3_b"
	}
}

layer {
	name: "Layer4e/Convolution_Inception5x5_reduce"
	type: "Convolution"
	bottom: "Layer4d/ReLU_EltWise"
	top: "Layer4e/Convolution_Inception5x5_reduce"
	convolution_param {
		num_output: 45
		pad: 0
		kernel_size: 1
		stride: 1
		weight_filler {
			type: "xavier"
		}
		bias_filler {
			type: "constant"
			value: 0.2
		}
	}
	param {
		lr_mult: 1
		decay_mult: 1
		name: "Layer4e/Convolution_Inception5x5_reduce_w"
	}
	param {
		lr_mult: 2
		decay_mult: 0
		name: "Layer4e/Convolution_Inception5x5_reduce_b"
	}
}

layer {
	name: "Layer4e/BatchNorm_Inception5x5_reduce"
	type: "BatchNorm"
	bottom: "Layer4e/Convolution_Inception5x5_reduce"
	top: "Layer4e/BatchNorm_Inception5x5_reduce"
	param {
		lr_mult: 0
	}
	param {
		lr_mult: 0
	}
	param {
		lr_mult: 0
	}
}

layer {
	name: "Layer4e/ReLU_Inception5x5_reduce"
	type: "ReLU"
	bottom: "Layer4e/BatchNorm_Inception5x5_reduce"
	top: "Layer4e/ReLU_Inception5x5_reduce"
}

layer {
	name: "Layer4e/Convolution_Inception5x5"
	type: "Convolution"
	bottom: "Layer4e/ReLU_Inception5x5_reduce"
	top: "Layer4e/Convolution_Inception5x5"
	convolution_param {
		num_output: 179
		pad: 2
		kernel_size: 5
		stride: 1
		weight_filler {
			type: "xavier"
		}
		bias_filler {
			type: "constant"
			value: 0.2
		}
	}
	param {
		lr_mult: 1
		decay_mult: 1
		name: "Layer4e/Convolution_Inception5x5_w"
	}
	param {
		lr_mult: 2
		decay_mult: 0
		name: "Layer4e/Convolution_Inception5x5_b"
	}
}

layer {
	name: "Layer4e/Pooling_Inception_Pool"
	type: "Pooling"
	bottom: "Layer4d/ReLU_EltWise"
	top: "Layer4e/Pooling_Inception_Pool"
	pooling_param {
		pool: MAX
		kernel_size: 3
		stride: 1
		pad: 1
	}
}

layer {
	name: "Layer4e/Convolution_Inception_Pool_1x1"
	type: "Convolution"
	bottom: "Layer4e/Pooling_Inception_Pool"
	top: "Layer4e/Convolution_Inception_Pool_1x1"
	convolution_param {
		num_output: 179
		pad: 0
		kernel_size: 1
		stride: 1
		weight_filler {
			type: "xavier"
		}
		bias_filler {
			type: "constant"
			value: 0.2
		}
	}
	param {
		lr_mult: 1
		decay_mult: 1
		name: "Layer4e/Convolution_Inception_Pool_1x1_w"
	}
	param {
		lr_mult: 2
		decay_mult: 0
		name: "Layer4e/Convolution_Inception_Pool_1x1_b"
	}
}

layer {
	name: "Layer4e/Concat_Output"
	type: "Concat"
	bottom: "Layer4e/Convolution_Inception3x3"
	bottom: "Layer4e/Convolution_Inception5x5"
	bottom: "Layer4e/Convolution_Inception_Pool_1x1"
	top: "Layer4e/Concat_Output"
}

layer {
	name: "Layer4e/Eltwise_EltWise"
	type: "Eltwise"
	bottom: "Layer4e/Concat_Output"
	bottom: "Layer4e/Convolution_ResCeption1x1"
	top: "Layer4e/Eltwise_EltWise"
	eltwise_param {
		operation: SUM
	}
}

layer {
	name: "Layer4e/BatchNorm_EltWise"
	type: "BatchNorm"
	bottom: "Layer4e/Eltwise_EltWise"
	top: "Layer4e/BatchNorm_EltWise"
	param {
		lr_mult: 0
	}
	param {
		lr_mult: 0
	}
	param {
		lr_mult: 0
	}
}

layer {
	name: "Layer4e/ReLU_EltWise"
	type: "ReLU"
	bottom: "Layer4e/BatchNorm_EltWise"
	top: "Layer4e/ReLU_EltWise"
}

# ================================================================================================
# ======== NEW STUFF
# ================================================================================================

layer {
	name: "Layer4_Pooling/Pooling_Stride_2"
	type: "Pooling"
	bottom: "Layer4e/ReLU_EltWise"
	top: "Layer4_Pooling/Pooling_Stride_2"
	pooling_param {
		pool: MAX
		kernel_size: 3
		stride: 2
		pad: 0
	}
}

# ================================================================================================
# ======== Layer5a
# ================================================================================================


layer {
	name: "Layer5a/Convolution_ResCeption1x1"
	type: "Convolution"
	bottom: "Layer4_Pooling/Pooling_Stride_2"
	top: "Layer5a/Convolution_ResCeption1x1"
	convolution_param {
		num_output: 864
		pad: 0
		kernel_size: 1
		stride: 1
		weight_filler {
			type: "xavier"
		}
		bias_filler {
			type: "constant"
			value: 0.2
		}
	}
	param {
		lr_mult: 1
		decay_mult: 1
		name: "Layer5a/Convolution_ResCeption1x1_w"
	}
	param {
		lr_mult: 2
		decay_mult: 0
		name: "Layer5a/Convolution_ResCeption1x1_b"
	}
}

layer {
	name: "Layer5a/Convolution_Inception3x3_reduce"
	type: "Convolution"
	bottom: "Layer4_Pooling/Pooling_Stride_2"
	top: "Layer5a/Convolution_Inception3x3_reduce"
	convolution_param {
		num_output: 240
		pad: 0
		kernel_size: 1
		stride: 1
		weight_filler {
			type: "xavier"
		}
		bias_filler {
			type: "constant"
			value: 0.2
		}
	}
	param {
		lr_mult: 1
		decay_mult: 1
		name: "Layer5a/Convolution_Inception3x3_reduce_w"
	}
	param {
		lr_mult: 2
		decay_mult: 0
		name: "Layer5a/Convolution_Inception3x3_reduce_b"
	}
}

layer {
	name: "Layer5a/BatchNorm_Inception3x3_reduce"
	type: "BatchNorm"
	bottom: "Layer5a/Convolution_Inception3x3_reduce"
	top: "Layer5a/BatchNorm_Inception3x3_reduce"
	param {
		lr_mult: 0
	}
	param {
		lr_mult: 0
	}
	param {
		lr_mult: 0
	}
}

layer {
	name: "Layer5a/ReLU_Inception3x3_reduce"
	type: "ReLU"
	bottom: "Layer5a/BatchNorm_Inception3x3_reduce"
	top: "Layer5a/ReLU_Inception3x3_reduce"
}

layer {
	name: "Layer5a/Convolution_Inception3x3"
	type: "Convolution"
	bottom: "Layer5a/ReLU_Inception3x3_reduce"
	top: "Layer5a/Convolution_Inception3x3"
	convolution_param {
		num_output: 480
		pad: 1
		kernel_size: 3
		stride: 1
		weight_filler {
			type: "xavier"
		}
		bias_filler {
			type: "constant"
			value: 0.2
		}
	}
	param {
		lr_mult: 1
		decay_mult: 1
		name: "Layer5a/Convolution_Inception3x3_w"
	}
	param {
		lr_mult: 2
		decay_mult: 0
		name: "Layer5a/Convolution_Inception3x3_b"
	}
}

layer {
	name: "Layer5a/Convolution_Inception5x5_reduce"
	type: "Convolution"
	bottom: "Layer4_Pooling/Pooling_Stride_2"
	top: "Layer5a/Convolution_Inception5x5_reduce"
	convolution_param {
		num_output: 48
		pad: 0
		kernel_size: 1
		stride: 1
		weight_filler {
			type: "xavier"
		}
		bias_filler {
			type: "constant"
			value: 0.2
		}
	}
	param {
		lr_mult: 0
		decay_mult: 1
		name: "Layer5a/Convolution_Inception5x5_reduce_w"
	}
	param {
		lr_mult: 0
		decay_mult: 0
		name: "Layer5a/Convolution_Inception5x5_reduce_b"
	}
}

layer {
	name: "Layer5a/BatchNorm_Inception5x5_reduce"
	type: "BatchNorm"
	bottom: "Layer5a/Convolution_Inception5x5_reduce"
	top: "Layer5a/BatchNorm_Inception5x5_reduce"
	param {
		lr_mult: 0
	}
	param {
		lr_mult: 0
	}
	param {
		lr_mult: 0
	}
}

layer {
	name: "Layer5a/ReLU_Inception5x5_reduce"
	type: "ReLU"
	bottom: "Layer5a/BatchNorm_Inception5x5_reduce"
	top: "Layer5a/ReLU_Inception5x5_reduce"
}

layer {
	name: "Layer5a/Convolution_Inception5x5_SUB"
	type: "Convolution"
	bottom: "Layer5a/ReLU_Inception5x5_reduce"
	top: "Layer5a/Convolution_Inception5x5_SUB"
	convolution_param {
		num_output: 192
		pad: 0
		kernel_size: 1
		stride: 1
		weight_filler {
			type: "xavier"
		}
		bias_filler {
			type: "constant"
			value: 0.2
		}
	}
	param {
		lr_mult: 0
		decay_mult: 0
		name: "Layer5a/Convolution_Inception5x5_SUB_w"
	}
	param {
		lr_mult: 0
		decay_mult: 0
		name: "Layer5a/Convolution_Inception5x5_SUB_b"
	}
}

layer {
	name: "Layer5a/Pooling_Inception_Pool"
	type: "Pooling"
	bottom: "Layer4_Pooling/Pooling_Stride_2"
	top: "Layer5a/Pooling_Inception_Pool"
	pooling_param {
		pool: MAX
		kernel_size: 3
		stride: 1
		pad: 1
	}
}

layer {
	name: "Layer5a/Convolution_Inception_Pool_1x1"
	type: "Convolution"
	bottom: "Layer5a/Pooling_Inception_Pool"
	top: "Layer5a/Convolution_Inception_Pool_1x1"
	convolution_param {
		num_output: 192
		pad: 0
		kernel_size: 1
		stride: 1
		weight_filler {
			type: "xavier"
		}
		bias_filler {
			type: "constant"
			value: 0.2
		}
	}
	param {
		lr_mult: 1
		decay_mult: 1
		name: "Layer5a/Convolution_Inception_Pool_1x1_w"
	}
	param {
		lr_mult: 2
		decay_mult: 0
		name: "Layer5a/Convolution_Inception_Pool_1x1_b"
	}
}

layer {
	name: "Layer5a/Concat_Output"
	type: "Concat"
	bottom: "Layer5a/Convolution_Inception3x3"
	bottom: "Layer5a/Convolution_Inception5x5_SUB"
	bottom: "Layer5a/Convolution_Inception_Pool_1x1"
	top: "Layer5a/Concat_Output"
}

layer {
	name: "Layer5a/Eltwise_EltWise"
	type: "Eltwise"
	bottom: "Layer5a/Concat_Output"
	bottom: "Layer5a/Convolution_ResCeption1x1"
	top: "Layer5a/Eltwise_EltWise"
	eltwise_param {
		operation: SUM
	}
}

layer {
	name: "Layer5a/BatchNorm_EltWise"
	type: "BatchNorm"
	bottom: "Layer5a/Eltwise_EltWise"
	top: "Layer5a/BatchNorm_EltWise"
	param {
		lr_mult: 0
	}
	param {
		lr_mult: 0
	}
	param {
		lr_mult: 0
	}
}

layer {
	name: "Layer5a/ReLU_EltWise"
	type: "ReLU"
	bottom: "Layer5a/BatchNorm_EltWise"
	top: "Layer5a/ReLU_EltWise"
}

# ================================================================================================
# ======== Layer5b
# ================================================================================================


layer {
	name: "Layer5b/Convolution_ResCeption1x1"
	type: "Convolution"
	bottom: "Layer5a/ReLU_EltWise"
	top: "Layer5b/Convolution_ResCeption1x1"
	convolution_param {
		num_output: 1024
		pad: 0
		kernel_size: 1
		stride: 1
		weight_filler {
			type: "xavier"
		}
		bias_filler {
			type: "constant"
			value: 0.2
		}
	}
	param {
		lr_mult: 1
		decay_mult: 1
		name: "Layer5b/Convolution_ResCeption1x1_w"
	}
	param {
		lr_mult: 2
		decay_mult: 0
		name: "Layer5b/Convolution_ResCeption1x1_b"
	}
}

layer {
	name: "Layer5b/Convolution_Inception3x3_reduce"
	type: "Convolution"
	bottom: "Layer5a/ReLU_EltWise"
	top: "Layer5b/Convolution_Inception3x3_reduce"
	convolution_param {
		num_output: 307
		pad: 0
		kernel_size: 1
		stride: 1
		weight_filler {
			type: "xavier"
		}
		bias_filler {
			type: "constant"
			value: 0.2
		}
	}
	param {
		lr_mult: 1
		decay_mult: 1
		name: "Layer5b/Convolution_Inception3x3_reduce_w"
	}
	param {
		lr_mult: 2
		decay_mult: 0
		name: "Layer5b/Convolution_Inception3x3_reduce_b"
	}
}

layer {
	name: "Layer5b/BatchNorm_Inception3x3_reduce"
	type: "BatchNorm"
	bottom: "Layer5b/Convolution_Inception3x3_reduce"
	top: "Layer5b/BatchNorm_Inception3x3_reduce"
	param {
		lr_mult: 0
	}
	param {
		lr_mult: 0
	}
	param {
		lr_mult: 0
	}
}

layer {
	name: "Layer5b/ReLU_Inception3x3_reduce"
	type: "ReLU"
	bottom: "Layer5b/BatchNorm_Inception3x3_reduce"
	top: "Layer5b/ReLU_Inception3x3_reduce"
}

layer {
	name: "Layer5b/Convolution_Inception3x3"
	type: "Convolution"
	bottom: "Layer5b/ReLU_Inception3x3_reduce"
	top: "Layer5b/Convolution_Inception3x3"
	convolution_param {
		num_output: 614
		pad: 1
		kernel_size: 3
		stride: 1
		weight_filler {
			type: "xavier"
		}
		bias_filler {
			type: "constant"
			value: 0.2
		}
	}
	param {
		lr_mult: 1
		decay_mult: 1
		name: "Layer5b/Convolution_Inception3x3_w"
	}
	param {
		lr_mult: 2
		decay_mult: 0
		name: "Layer5b/Convolution_Inception3x3_b"
	}
}

layer {
	name: "Layer5b/Convolution_Inception5x5_reduce"
	type: "Convolution"
	bottom: "Layer5a/ReLU_EltWise"
	top: "Layer5b/Convolution_Inception5x5_reduce"
	convolution_param {
		num_output: 77
		pad: 0
		kernel_size: 1
		stride: 1
		weight_filler {
			type: "xavier"
		}
		bias_filler {
			type: "constant"
			value: 0.2
		}
	}
	param {
		lr_mult: 0
		decay_mult: 1
		name: "Layer5b/Convolution_Inception5x5_reduce_w"
	}
	param {
		lr_mult: 0
		decay_mult: 0
		name: "Layer5b/Convolution_Inception5x5_reduce_b"
	}
}

layer {
	name: "Layer5b/BatchNorm_Inception5x5_reduce"
	type: "BatchNorm"
	bottom: "Layer5b/Convolution_Inception5x5_reduce"
	top: "Layer5b/BatchNorm_Inception5x5_reduce"
	param {
		lr_mult: 0
	}
	param {
		lr_mult: 0
	}
	param {
		lr_mult: 0
	}
}

layer {
	name: "Layer5b/ReLU_Inception5x5_reduce"
	type: "ReLU"
	bottom: "Layer5b/BatchNorm_Inception5x5_reduce"
	top: "Layer5b/ReLU_Inception5x5_reduce"
}

layer {
	name: "Layer5b/Convolution_Inception5x5_SUB"
	type: "Convolution"
	bottom: "Layer5b/ReLU_Inception5x5_reduce"
	top: "Layer5b/Convolution_Inception5x5_SUB"
	convolution_param {
		num_output: 205
		pad: 0
		kernel_size: 1
		stride: 1
		weight_filler {
			type: "xavier"
		}
		bias_filler {
			type: "constant"
			value: 0.2
		}
	}
	param {
		lr_mult: 0
		decay_mult: 0
		name: "Layer5b/Convolution_Inception5x5_SUB_w"
	}
	param {
		lr_mult: 0
		decay_mult: 0
		name: "Layer5b/Convolution_Inception5x5_SUB_b"
	}
}

layer {
	name: "Layer5b/Pooling_Inception_Pool"
	type: "Pooling"
	bottom: "Layer5a/ReLU_EltWise"
	top: "Layer5b/Pooling_Inception_Pool"
	pooling_param {
		pool: MAX
		kernel_size: 3
		stride: 1
		pad: 1
	}
}

layer {
	name: "Layer5b/Convolution_Inception_Pool_1x1"
	type: "Convolution"
	bottom: "Layer5b/Pooling_Inception_Pool"
	top: "Layer5b/Convolution_Inception_Pool_1x1"
	convolution_param {
		num_output: 205
		pad: 0
		kernel_size: 1
		stride: 1
		weight_filler {
			type: "xavier"
		}
		bias_filler {
			type: "constant"
			value: 0.2
		}
	}
	param {
		lr_mult: 1
		decay_mult: 1
		name: "Layer5b/Convolution_Inception_Pool_1x1_w"
	}
	param {
		lr_mult: 2
		decay_mult: 0
		name: "Layer5b/Convolution_Inception_Pool_1x1_b"
	}
}

layer {
	name: "Layer5b/Concat_Output"
	type: "Concat"
	bottom: "Layer5b/Convolution_Inception3x3"
	bottom: "Layer5b/Convolution_Inception5x5_SUB"
	bottom: "Layer5b/Convolution_Inception_Pool_1x1"
	top: "Layer5b/Concat_Output"
}

layer {
	name: "Layer5b/Eltwise_EltWise"
	type: "Eltwise"
	bottom: "Layer5b/Concat_Output"
	bottom: "Layer5b/Convolution_ResCeption1x1"
	top: "Layer5b/Eltwise_EltWise"
	eltwise_param {
		operation: SUM
	}
}

layer {
	name: "Layer5b/BatchNorm_EltWise"
	type: "BatchNorm"
	bottom: "Layer5b/Eltwise_EltWise"
	top: "Layer5b/BatchNorm_EltWise"
	param {
		lr_mult: 0
	}
	param {
		lr_mult: 0
	}
	param {
		lr_mult: 0
	}
}

layer {
	name: "Layer5b/ReLU_EltWise"
	type: "ReLU"
	bottom: "Layer5b/BatchNorm_EltWise"
	top: "Layer5b/ReLU_EltWise"
}

# ================================================================================================
# ======== Loss
# ================================================================================================


layer {
	name: "Loss/Pooling_Loss"
	type: "Pooling"
	bottom: "Layer5b/ReLU_EltWise"
	top: "Loss/Pooling_Loss"
	pooling_param {
		pool: AVE
		global_pooling : true
		stride: 1
		pad: 0
	}
}

layer {
	name: "Loss/InnerProduct_Loss_fc1"
	type: "InnerProduct"
	bottom: "Loss/Pooling_Loss"
	top: "Loss/InnerProduct_Loss_fc1"
	inner_product_param {
		num_output: 1000
		weight_filler {
			type: "xavier"
		}
		bias_filler {
			type: "constant"
			value: 0.2
		}
	}
	param {
		lr_mult: 1
		decay_mult: 1
		name: "Loss/InnerProduct_Loss_fc1_w"
	}
	param {
		lr_mult: 2
		decay_mult: 0
		name: "Loss/InnerProduct_Loss_fc1_b"
	}
}

# ================================================================================================
# ================================================================================================
# ======== NETWORK 2
# ================================================================================================
# ================================================================================================

# ================================================================================================
# ======== Layer1_7x7
# ================================================================================================


layer {
	name: "Layer1_7x7/Convolution_Stride_2_s"
	type: "Convolution"
	bottom: "data_2"
	top: "Layer1_7x7/Convolution_Stride_2_s"
	convolution_param {
		num_output: 64
		pad: 3
		kernel_size: 7
		stride: 2
		weight_filler {
			type: "xavier"
		}
		bias_filler {
			type: "constant"
			value: 0.2
		}
	}
	param {
		lr_mult: 1
		decay_mult: 1
		name: "Layer1_7x7/Convolution_Stride_2_w"
	}
	param {
		lr_mult: 2
		decay_mult: 0
		name: "Layer1_7x7/Convolution_Stride_2_b"
	}
}

layer {
	name: "Layer1_7x7/BatchNorm_Stride_2_s"
	type: "BatchNorm"
	bottom: "Layer1_7x7/Convolution_Stride_2_s"
	top: "Layer1_7x7/BatchNorm_Stride_2_s"
	param {
		lr_mult: 0
	}
	param {
		lr_mult: 0
	}
	param {
		lr_mult: 0
	}
}

layer {
	name: "Layer1_7x7/ReLU_Stride_2_s"
	type: "ReLU"
	bottom: "Layer1_7x7/BatchNorm_Stride_2_s"
	top: "Layer1_7x7/ReLU_Stride_2_s"
}

layer {
	name: "Layer1_Pooling/Pooling_Stride_2_s"
	type: "Pooling"
	bottom: "Layer1_7x7/ReLU_Stride_2_s"
	top: "Layer1_Pooling/Pooling_Stride_2_s"
	pooling_param {
		pool: MAX
		kernel_size: 3
		stride: 2
		pad: 0
	}
}

# ================================================================================================
# ======== Layer2_3x3
# ================================================================================================


layer {
	name: "Layer2_3x3/Convolution_Inception3x3_reduce_s"
	type: "Convolution"
	bottom: "Layer1_Pooling/Pooling_Stride_2_s"
	top: "Layer2_3x3/Convolution_Inception3x3_reduce_s"
	convolution_param {
		num_output: 64
		pad: 0
		kernel_size: 1
		stride: 1
		weight_filler {
			type: "xavier"
		}
		bias_filler {
			type: "constant"
			value: 0.2
		}
	}
	param {
		lr_mult: 1
		decay_mult: 1
		name: "Layer2_3x3/Convolution_Inception3x3_reduce_w"
	}
	param {
		lr_mult: 2
		decay_mult: 0
		name: "Layer2_3x3/Convolution_Inception3x3_reduce_b"
	}
}

layer {
	name: "Layer2_3x3/BatchNorm_Inception3x3_reduce_s"
	type: "BatchNorm"
	bottom: "Layer2_3x3/Convolution_Inception3x3_reduce_s"
	top: "Layer2_3x3/BatchNorm_Inception3x3_reduce_s"
	param {
		lr_mult: 0
	}
	param {
		lr_mult: 0
	}
	param {
		lr_mult: 0
	}
}

layer {
	name: "Layer2_3x3/ReLU_Inception3x3_reduce_s"
	type: "ReLU"
	bottom: "Layer2_3x3/BatchNorm_Inception3x3_reduce_s"
	top: "Layer2_3x3/ReLU_Inception3x3_reduce_s"
}

layer {
	name: "Layer2_3x3/Convolution_Inception3x3_s"
	type: "Convolution"
	bottom: "Layer2_3x3/ReLU_Inception3x3_reduce_s"
	top: "Layer2_3x3/Convolution_Inception3x3_s"
	convolution_param {
		num_output: 192
		pad: 1
		kernel_size: 3
		stride: 1
		weight_filler {
			type: "xavier"
		}
		bias_filler {
			type: "constant"
			value: 0.2
		}
	}
	param {
		lr_mult: 1
		decay_mult: 1
		name: "Layer2_3x3/Convolution_Inception3x3_w"
	}
	param {
		lr_mult: 2
		decay_mult: 0
		name: "Layer2_3x3/Convolution_Inception3x3_b"
	}
}

layer {
	name: "Layer2_3x3/BatchNorm_Inception3x3_s"
	type: "BatchNorm"
	bottom: "Layer2_3x3/Convolution_Inception3x3_s"
	top: "Layer2_3x3/BatchNorm_Inception3x3_s"
	param {
		lr_mult: 0
	}
	param {
		lr_mult: 0
	}
	param {
		lr_mult: 0
	}
}

layer {
	name: "Layer2_3x3/ReLU_Inception3x3_s"
	type: "ReLU"
	bottom: "Layer2_3x3/BatchNorm_Inception3x3_s"
	top: "Layer2_3x3/ReLU_Inception3x3_s"
}

layer {
	name: "Layer2_Pooling/Pooling_Stride_2_s"
	type: "Pooling"
	bottom: "Layer2_3x3/ReLU_Inception3x3_s"
	top: "Layer2_Pooling/Pooling_Stride_2_s"
	pooling_param {
		pool: MAX
		kernel_size: 3
		stride: 2
		pad: 0
	}
}

# ================================================================================================
# ======== Layer3a
# ================================================================================================


layer {
	name: "Layer3a/Convolution_Inception3x3_reduce_s"
	type: "Convolution"
	bottom: "Layer2_Pooling/Pooling_Stride_2_s"
	top: "Layer3a/Convolution_Inception3x3_reduce_s"
	convolution_param {
		num_output: 96
		pad: 0
		kernel_size: 1
		stride: 1
		weight_filler {
			type: "xavier"
		}
		bias_filler {
			type: "constant"
			value: 0.2
		}
	}
	param {
		lr_mult: 1
		decay_mult: 1
		name: "Layer3a/Convolution_Inception3x3_reduce_w"
	}
	param {
		lr_mult: 2
		decay_mult: 0
		name: "Layer3a/Convolution_Inception3x3_reduce_b"
	}
}

layer {
	name: "Layer3a/BatchNorm_Inception3x3_reduce_s"
	type: "BatchNorm"
	bottom: "Layer3a/Convolution_Inception3x3_reduce_s"
	top: "Layer3a/BatchNorm_Inception3x3_reduce_s"
	param {
		lr_mult: 0
	}
	param {
		lr_mult: 0
	}
	param {
		lr_mult: 0
	}
}

layer {
	name: "Layer3a/ReLU_Inception3x3_reduce_s"
	type: "ReLU"
	bottom: "Layer3a/BatchNorm_Inception3x3_reduce_s"
	top: "Layer3a/ReLU_Inception3x3_reduce_s"
}

layer {
	name: "Layer3a/Convolution_Inception3x3_s"
	type: "Convolution"
	bottom: "Layer3a/ReLU_Inception3x3_reduce_s"
	top: "Layer3a/Convolution_Inception3x3_s"
	convolution_param {
		num_output: 128
		pad: 1
		kernel_size: 3
		stride: 1
		weight_filler {
			type: "xavier"
		}
		bias_filler {
			type: "constant"
			value: 0.2
		}
	}
	param {
		lr_mult: 1
		decay_mult: 1
		name: "Layer3a/Convolution_Inception3x3_w"
	}
	param {
		lr_mult: 2
		decay_mult: 0
		name: "Layer3a/Convolution_Inception3x3_b"
	}
}

layer {
	name: "Layer3a/Convolution_Inception5x5_reduce_s"
	type: "Convolution"
	bottom: "Layer2_Pooling/Pooling_Stride_2_s"
	top: "Layer3a/Convolution_Inception5x5_reduce_s"
	convolution_param {
		num_output: 16
		pad: 0
		kernel_size: 1
		stride: 1
		weight_filler {
			type: "xavier"
		}
		bias_filler {
			type: "constant"
			value: 0.2
		}
	}
	param {
		lr_mult: 1
		decay_mult: 1
		name: "Layer3a/Convolution_Inception5x5_reduce_w"
	}
	param {
		lr_mult: 2
		decay_mult: 0
		name: "Layer3a/Convolution_Inception5x5_reduce_b"
	}
}

layer {
	name: "Layer3a/BatchNorm_Inception5x5_reduce_s"
	type: "BatchNorm"
	bottom: "Layer3a/Convolution_Inception5x5_reduce_s"
	top: "Layer3a/BatchNorm_Inception5x5_reduce_s"
	param {
		lr_mult: 0
	}
	param {
		lr_mult: 0
	}
	param {
		lr_mult: 0
	}
}

layer {
	name: "Layer3a/ReLU_Inception5x5_reduce_s"
	type: "ReLU"
	bottom: "Layer3a/BatchNorm_Inception5x5_reduce_s"
	top: "Layer3a/ReLU_Inception5x5_reduce_s"
}

layer {
	name: "Layer3a/Convolution_Inception5x5_s"
	type: "Convolution"
	bottom: "Layer3a/ReLU_Inception5x5_reduce_s"
	top: "Layer3a/Convolution_Inception5x5_s"
	convolution_param {
		num_output: 32
		pad: 2
		kernel_size: 5
		stride: 1
		weight_filler {
			type: "xavier"
		}
		bias_filler {
			type: "constant"
			value: 0.2
		}
	}
	param {
		lr_mult: 1
		decay_mult: 1
		name: "Layer3a/Convolution_Inception5x5_w"
	}
	param {
		lr_mult: 2
		decay_mult: 0
		name: "Layer3a/Convolution_Inception5x5_b"
	}
}

layer {
	name: "Layer3a/Pooling_Inception_Pool_s"
	type: "Pooling"
	bottom: "Layer2_Pooling/Pooling_Stride_2_s"
	top: "Layer3a/Pooling_Inception_Pool_s"
	pooling_param {
		pool: MAX
		kernel_size: 3
		stride: 1
		pad: 1
	}
}

layer {
	name: "Layer3a/Convolution_Inception_Pool_1x1_s"
	type: "Convolution"
	bottom: "Layer3a/Pooling_Inception_Pool_s"
	top: "Layer3a/Convolution_Inception_Pool_1x1_s"
	convolution_param {
		num_output: 32
		pad: 0
		kernel_size: 1
		stride: 1
		weight_filler {
			type: "xavier"
		}
		bias_filler {
			type: "constant"
			value: 0.2
		}
	}
	param {
		lr_mult: 1
		decay_mult: 1
		name: "Layer3a/Convolution_Inception_Pool_1x1_w"
	}
	param {
		lr_mult: 2
		decay_mult: 0
		name: "Layer3a/Convolution_Inception_Pool_1x1_b"
	}
}

layer {
	name: "Layer3a/Concat_Output_s"
	type: "Concat"
	bottom: "Layer3a/Convolution_Inception3x3_s"
	bottom: "Layer3a/Convolution_Inception5x5_s"
	bottom: "Layer3a/Convolution_Inception_Pool_1x1_s"
	top: "Layer3a/Concat_Output_s"
}

layer {
	name: "Layer3a/Eltwise_EltWise_s"
	type: "Eltwise"
	bottom: "Layer3a/Concat_Output_s"
	bottom: "Layer2_Pooling/Pooling_Stride_2_s"
	top: "Layer3a/Eltwise_EltWise_s"
	eltwise_param {
		operation: SUM
	}
}

layer {
	name: "Layer3a/ReLU_EltWise_s"
	type: "ReLU"
	bottom: "Layer3a/Eltwise_EltWise_s"
	top: "Layer3a/ReLU_EltWise_s"
}

# ================================================================================================
# ======== Layer3b
# ================================================================================================


layer {
	name: "Layer3b/Convolution_ResCeption1x1_s"
	type: "Convolution"
	bottom: "Layer3a/ReLU_EltWise_s"
	top: "Layer3b/Convolution_ResCeption1x1_s"
	convolution_param {
		num_output: 370
		pad: 0
		kernel_size: 1
		stride: 1
		weight_filler {
			type: "xavier"
		}
		bias_filler {
			type: "constant"
			value: 0.2
		}
	}
	param {
		lr_mult: 1
		decay_mult: 1
		name: "Layer3b/Convolution_ResCeption1x1_w"
	}
	param {
		lr_mult: 2
		decay_mult: 0
		name: "Layer3b/Convolution_ResCeption1x1_b"
	}
}

layer {
	name: "Layer3b/Convolution_Inception3x3_reduce_s"
	type: "Convolution"
	bottom: "Layer3a/ReLU_EltWise_s"
	top: "Layer3b/Convolution_Inception3x3_reduce_s"
	convolution_param {
		num_output: 134
		pad: 0
		kernel_size: 1
		stride: 1
		weight_filler {
			type: "xavier"
		}
		bias_filler {
			type: "constant"
			value: 0.2
		}
	}
	param {
		lr_mult: 1
		decay_mult: 1
		name: "Layer3b/Convolution_Inception3x3_reduce_w"
	}
	param {
		lr_mult: 2
		decay_mult: 0
		name: "Layer3b/Convolution_Inception3x3_reduce_b"
	}
}

layer {
	name: "Layer3b/BatchNorm_Inception3x3_reduce_s"
	type: "BatchNorm"
	bottom: "Layer3b/Convolution_Inception3x3_reduce_s"
	top: "Layer3b/BatchNorm_Inception3x3_reduce_s"
	param {
		lr_mult: 0
	}
	param {
		lr_mult: 0
	}
	param {
		lr_mult: 0
	}
}

layer {
	name: "Layer3b/ReLU_Inception3x3_reduce_s"
	type: "ReLU"
	bottom: "Layer3b/BatchNorm_Inception3x3_reduce_s"
	top: "Layer3b/ReLU_Inception3x3_reduce_s"
}

layer {
	name: "Layer3b/Convolution_Inception3x3_s"
	type: "Convolution"
	bottom: "Layer3b/ReLU_Inception3x3_reduce_s"
	top: "Layer3b/Convolution_Inception3x3_s"
	convolution_param {
		num_output: 202
		pad: 1
		kernel_size: 3
		stride: 1
		weight_filler {
			type: "xavier"
		}
		bias_filler {
			type: "constant"
			value: 0.2
		}
	}
	param {
		lr_mult: 1
		decay_mult: 1
		name: "Layer3b/Convolution_Inception3x3_w"
	}
	param {
		lr_mult: 2
		decay_mult: 0
		name: "Layer3b/Convolution_Inception3x3_b"
	}
}

layer {
	name: "Layer3b/Convolution_Inception5x5_reduce_s"
	type: "Convolution"
	bottom: "Layer3a/ReLU_EltWise_s"
	top: "Layer3b/Convolution_Inception5x5_reduce_s"
	convolution_param {
		num_output: 34
		pad: 0
		kernel_size: 1
		stride: 1
		weight_filler {
			type: "xavier"
		}
		bias_filler {
			type: "constant"
			value: 0.2
		}
	}
	param {
		lr_mult: 1
		decay_mult: 1
		name: "Layer3b/Convolution_Inception5x5_reduce_w"
	}
	param {
		lr_mult: 2
		decay_mult: 0
		name: "Layer3b/Convolution_Inception5x5_reduce_b"
	}
}

layer {
	name: "Layer3b/BatchNorm_Inception5x5_reduce_s"
	type: "BatchNorm"
	bottom: "Layer3b/Convolution_Inception5x5_reduce_s"
	top: "Layer3b/BatchNorm_Inception5x5_reduce_s"
	param {
		lr_mult: 0
	}
	param {
		lr_mult: 0
	}
	param {
		lr_mult: 0
	}
}

layer {
	name: "Layer3b/ReLU_Inception5x5_reduce_s"
	type: "ReLU"
	bottom: "Layer3b/BatchNorm_Inception5x5_reduce_s"
	top: "Layer3b/ReLU_Inception5x5_reduce_s"
}

layer {
	name: "Layer3b/Convolution_Inception5x5_s"
	type: "Convolution"
	bottom: "Layer3b/ReLU_Inception5x5_reduce_s"
	top: "Layer3b/Convolution_Inception5x5_s"
	convolution_param {
		num_output: 101
		pad: 2
		kernel_size: 5
		stride: 1
		weight_filler {
			type: "xavier"
		}
		bias_filler {
			type: "constant"
			value: 0.2
		}
	}
	param {
		lr_mult: 1
		decay_mult: 1
		name: "Layer3b/Convolution_Inception5x5_w"
	}
	param {
		lr_mult: 2
		decay_mult: 0
		name: "Layer3b/Convolution_Inception5x5_b"
	}
}

layer {
	name: "Layer3b/Pooling_Inception_Pool_s"
	type: "Pooling"
	bottom: "Layer3a/ReLU_EltWise_s"
	top: "Layer3b/Pooling_Inception_Pool_s"
	pooling_param {
		pool: MAX
		kernel_size: 3
		stride: 1
		pad: 1
	}
}

layer {
	name: "Layer3b/Convolution_Inception_Pool_1x1_s"
	type: "Convolution"
	bottom: "Layer3b/Pooling_Inception_Pool_s"
	top: "Layer3b/Convolution_Inception_Pool_1x1_s"
	convolution_param {
		num_output: 67
		pad: 0
		kernel_size: 1
		stride: 1
		weight_filler {
			type: "xavier"
		}
		bias_filler {
			type: "constant"
			value: 0.2
		}
	}
	param {
		lr_mult: 1
		decay_mult: 1
		name: "Layer3b/Convolution_Inception_Pool_1x1_w"
	}
	param {
		lr_mult: 2
		decay_mult: 0
		name: "Layer3b/Convolution_Inception_Pool_1x1_b"
	}
}

layer {
	name: "Layer3b/Concat_Output_s"
	type: "Concat"
	bottom: "Layer3b/Convolution_Inception3x3_s"
	bottom: "Layer3b/Convolution_Inception5x5_s"
	bottom: "Layer3b/Convolution_Inception_Pool_1x1_s"
	top: "Layer3b/Concat_Output_s"
}

layer {
	name: "Layer3b/Eltwise_EltWise_s"
	type: "Eltwise"
	bottom: "Layer3b/Concat_Output_s"
	bottom: "Layer3b/Convolution_ResCeption1x1_s"
	top: "Layer3b/Eltwise_EltWise_s"
	eltwise_param {
		operation: SUM
	}
}

layer {
	name: "Layer3b/BatchNorm_EltWise_s"
	type: "BatchNorm"
	bottom: "Layer3b/Eltwise_EltWise_s"
	top: "Layer3b/BatchNorm_EltWise_s"
	param {
		lr_mult: 0
	}
	param {
		lr_mult: 0
	}
	param {
		lr_mult: 0
	}
}

layer {
	name: "Layer3b/ReLU_EltWise_s"
	type: "ReLU"
	bottom: "Layer3b/BatchNorm_EltWise_s"
	top: "Layer3b/ReLU_EltWise_s"
}

layer {
	name: "Layer3_Pooling/Pooling_Stride_2_s"
	type: "Pooling"
	bottom: "Layer3b/ReLU_EltWise_s"
	top: "Layer3_Pooling/Pooling_Stride_2_s"
	pooling_param {
		pool: MAX
		kernel_size: 3
		stride: 2
		pad: 0
	}
}

# ================================================================================================
# ======== Layer4a
# ================================================================================================


layer {
	name: "Layer4a/Convolution_ResCeption1x1_s"
	type: "Convolution"
	bottom: "Layer3_Pooling/Pooling_Stride_2_s"
	top: "Layer4a/Convolution_ResCeption1x1_s"
	convolution_param {
		num_output: 352
		pad: 0
		kernel_size: 1
		stride: 1
		weight_filler {
			type: "xavier"
		}
		bias_filler {
			type: "constant"
			value: 0.2
		}
	}
	param {
		lr_mult: 1
		decay_mult: 1
		name: "Layer4a/Convolution_ResCeption1x1_w"
	}
	param {
		lr_mult: 2
		decay_mult: 0
		name: "Layer4a/Convolution_ResCeption1x1_b"
	}
}

layer {
	name: "Layer4a/Convolution_Inception3x3_reduce_s"
	type: "Convolution"
	bottom: "Layer3_Pooling/Pooling_Stride_2_s"
	top: "Layer4a/Convolution_Inception3x3_reduce_s"
	convolution_param {
		num_output: 106
		pad: 0
		kernel_size: 1
		stride: 1
		weight_filler {
			type: "xavier"
		}
		bias_filler {
			type: "constant"
			value: 0.2
		}
	}
	param {
		lr_mult: 1
		decay_mult: 1
		name: "Layer4a/Convolution_Inception3x3_reduce_w"
	}
	param {
		lr_mult: 2
		decay_mult: 0
		name: "Layer4a/Convolution_Inception3x3_reduce_b"
	}
}

layer {
	name: "Layer4a/BatchNorm_Inception3x3_reduce_s"
	type: "BatchNorm"
	bottom: "Layer4a/Convolution_Inception3x3_reduce_s"
	top: "Layer4a/BatchNorm_Inception3x3_reduce_s"
	param {
		lr_mult: 0
	}
	param {
		lr_mult: 0
	}
	param {
		lr_mult: 0
	}
}

layer {
	name: "Layer4a/ReLU_Inception3x3_reduce_s"
	type: "ReLU"
	bottom: "Layer4a/BatchNorm_Inception3x3_reduce_s"
	top: "Layer4a/ReLU_Inception3x3_reduce_s"
}

layer {
	name: "Layer4a/Convolution_Inception3x3_s"
	type: "Convolution"
	bottom: "Layer4a/ReLU_Inception3x3_reduce_s"
	top: "Layer4a/Convolution_Inception3x3_s"
	convolution_param {
		num_output: 229
		pad: 1
		kernel_size: 3
		stride: 1
		weight_filler {
			type: "xavier"
		}
		bias_filler {
			type: "constant"
			value: 0.2
		}
	}
	param {
		lr_mult: 1
		decay_mult: 1
		name: "Layer4a/Convolution_Inception3x3_w"
	}
	param {
		lr_mult: 2
		decay_mult: 0
		name: "Layer4a/Convolution_Inception3x3_b"
	}
}

layer {
	name: "Layer4a/Convolution_Inception5x5_reduce_s"
	type: "Convolution"
	bottom: "Layer3_Pooling/Pooling_Stride_2_s"
	top: "Layer4a/Convolution_Inception5x5_reduce_s"
	convolution_param {
		num_output: 18
		pad: 0
		kernel_size: 1
		stride: 1
		weight_filler {
			type: "xavier"
		}
		bias_filler {
			type: "constant"
			value: 0.2
		}
	}
	param {
		lr_mult: 1
		decay_mult: 1
		name: "Layer4a/Convolution_Inception5x5_reduce_w"
	}
	param {
		lr_mult: 2
		decay_mult: 0
		name: "Layer4a/Convolution_Inception5x5_reduce_b"
	}
}

layer {
	name: "Layer4a/BatchNorm_Inception5x5_reduce_s"
	type: "BatchNorm"
	bottom: "Layer4a/Convolution_Inception5x5_reduce_s"
	top: "Layer4a/BatchNorm_Inception5x5_reduce_s"
	param {
		lr_mult: 0
	}
	param {
		lr_mult: 0
	}
	param {
		lr_mult: 0
	}
}

layer {
	name: "Layer4a/ReLU_Inception5x5_reduce_s"
	type: "ReLU"
	bottom: "Layer4a/BatchNorm_Inception5x5_reduce_s"
	top: "Layer4a/ReLU_Inception5x5_reduce_s"
}

layer {
	name: "Layer4a/Convolution_Inception5x5_s"
	type: "Convolution"
	bottom: "Layer4a/ReLU_Inception5x5_reduce_s"
	top: "Layer4a/Convolution_Inception5x5_s"
	convolution_param {
		num_output: 53
		pad: 2
		kernel_size: 5
		stride: 1
		weight_filler {
			type: "xavier"
		}
		bias_filler {
			type: "constant"
			value: 0.2
		}
	}
	param {
		lr_mult: 1
		decay_mult: 1
		name: "Layer4a/Convolution_Inception5x5_w"
	}
	param {
		lr_mult: 2
		decay_mult: 0
		name: "Layer4a/Convolution_Inception5x5_b"
	}
}

layer {
	name: "Layer4a/Pooling_Inception_Pool_s"
	type: "Pooling"
	bottom: "Layer3_Pooling/Pooling_Stride_2_s"
	top: "Layer4a/Pooling_Inception_Pool_s"
	pooling_param {
		pool: MAX
		kernel_size: 3
		stride: 1
		pad: 1
	}
}

layer {
	name: "Layer4a/Convolution_Inception_Pool_1x1_s"
	type: "Convolution"
	bottom: "Layer4a/Pooling_Inception_Pool_s"
	top: "Layer4a/Convolution_Inception_Pool_1x1_s"
	convolution_param {
		num_output: 70
		pad: 0
		kernel_size: 1
		stride: 1
		weight_filler {
			type: "xavier"
		}
		bias_filler {
			type: "constant"
			value: 0.2
		}
	}
	param {
		lr_mult: 1
		decay_mult: 1
		name: "Layer4a/Convolution_Inception_Pool_1x1_w"
	}
	param {
		lr_mult: 2
		decay_mult: 0
		name: "Layer4a/Convolution_Inception_Pool_1x1_b"
	}
}

layer {
	name: "Layer4a/Concat_Output_s"
	type: "Concat"
	bottom: "Layer4a/Convolution_Inception3x3_s"
	bottom: "Layer4a/Convolution_Inception5x5_s"
	bottom: "Layer4a/Convolution_Inception_Pool_1x1_s"
	top: "Layer4a/Concat_Output_s"
}

layer {
	name: "Layer4a/Eltwise_EltWise_s"
	type: "Eltwise"
	bottom: "Layer4a/Concat_Output_s"
	bottom: "Layer4a/Convolution_ResCeption1x1_s"
	top: "Layer4a/Eltwise_EltWise_s"
	eltwise_param {
		operation: SUM
	}
}

layer {
	name: "Layer4a/BatchNorm_EltWise_s"
	type: "BatchNorm"
	bottom: "Layer4a/Eltwise_EltWise_s"
	top: "Layer4a/BatchNorm_EltWise_s"
	param {
		lr_mult: 0
	}
	param {
		lr_mult: 0
	}
	param {
		lr_mult: 0
	}
}

layer {
	name: "Layer4a/ReLU_EltWise_s"
	type: "ReLU"
	bottom: "Layer4a/BatchNorm_EltWise_s"
	top: "Layer4a/ReLU_EltWise_s"
}

# ================================================================================================
# ======== Layer4b
# ================================================================================================


layer {
	name: "Layer4b/Convolution_ResCeption1x1_s"
	type: "Convolution"
	bottom: "Layer4a/ReLU_EltWise_s"
	top: "Layer4b/Convolution_ResCeption1x1_s"
	convolution_param {
		num_output: 406
		pad: 0
		kernel_size: 1
		stride: 1
		weight_filler {
			type: "xavier"
		}
		bias_filler {
			type: "constant"
			value: 0.2
		}
	}
	param {
		lr_mult: 1
		decay_mult: 1
		name: "Layer4b/Convolution_ResCeption1x1_w"
	}
	param {
		lr_mult: 2
		decay_mult: 0
		name: "Layer4b/Convolution_ResCeption1x1_b"
	}
}

layer {
	name: "Layer4b/Convolution_Inception3x3_reduce_s"
	type: "Convolution"
	bottom: "Layer4a/ReLU_EltWise_s"
	top: "Layer4b/Convolution_Inception3x3_reduce_s"
	convolution_param {
		num_output: 129
		pad: 0
		kernel_size: 1
		stride: 1
		weight_filler {
			type: "xavier"
		}
		bias_filler {
			type: "constant"
			value: 0.2
		}
	}
	param {
		lr_mult: 1
		decay_mult: 1
		name: "Layer4b/Convolution_Inception3x3_reduce_w"
	}
	param {
		lr_mult: 2
		decay_mult: 0
		name: "Layer4b/Convolution_Inception3x3_reduce_b"
	}
}

layer {
	name: "Layer4b/BatchNorm_Inception3x3_reduce_s"
	type: "BatchNorm"
	bottom: "Layer4b/Convolution_Inception3x3_reduce_s"
	top: "Layer4b/BatchNorm_Inception3x3_reduce_s"
	param {
		lr_mult: 0
	}
	param {
		lr_mult: 0
	}
	param {
		lr_mult: 0
	}
}

layer {
	name: "Layer4b/ReLU_Inception3x3_reduce_s"
	type: "ReLU"
	bottom: "Layer4b/BatchNorm_Inception3x3_reduce_s"
	top: "Layer4b/ReLU_Inception3x3_reduce_s"
}

layer {
	name: "Layer4b/Convolution_Inception3x3_s"
	type: "Convolution"
	bottom: "Layer4b/ReLU_Inception3x3_reduce_s"
	top: "Layer4b/Convolution_Inception3x3_s"
	convolution_param {
		num_output: 258
		pad: 1
		kernel_size: 3
		stride: 1
		weight_filler {
			type: "xavier"
		}
		bias_filler {
			type: "constant"
			value: 0.2
		}
	}
	param {
		lr_mult: 1
		decay_mult: 1
		name: "Layer4b/Convolution_Inception3x3_w"
	}
	param {
		lr_mult: 2
		decay_mult: 0
		name: "Layer4b/Convolution_Inception3x3_b"
	}
}

layer {
	name: "Layer4b/Convolution_Inception5x5_reduce_s"
	type: "Convolution"
	bottom: "Layer4a/ReLU_EltWise_s"
	top: "Layer4b/Convolution_Inception5x5_reduce_s"
	convolution_param {
		num_output: 28
		pad: 0
		kernel_size: 1
		stride: 1
		weight_filler {
			type: "xavier"
		}
		bias_filler {
			type: "constant"
			value: 0.2
		}
	}
	param {
		lr_mult: 1
		decay_mult: 1
		name: "Layer4b/Convolution_Inception5x5_reduce_w"
	}
	param {
		lr_mult: 2
		decay_mult: 0
		name: "Layer4b/Convolution_Inception5x5_reduce_b"
	}
}

layer {
	name: "Layer4b/BatchNorm_Inception5x5_reduce_s"
	type: "BatchNorm"
	bottom: "Layer4b/Convolution_Inception5x5_reduce_s"
	top: "Layer4b/BatchNorm_Inception5x5_reduce_s"
	param {
		lr_mult: 0
	}
	param {
		lr_mult: 0
	}
	param {
		lr_mult: 0
	}
}

layer {
	name: "Layer4b/ReLU_Inception5x5_reduce_s"
	type: "ReLU"
	bottom: "Layer4b/BatchNorm_Inception5x5_reduce_s"
	top: "Layer4b/ReLU_Inception5x5_reduce_s"
}

layer {
	name: "Layer4b/Convolution_Inception5x5_s"
	type: "Convolution"
	bottom: "Layer4b/ReLU_Inception5x5_reduce_s"
	top: "Layer4b/Convolution_Inception5x5_s"
	convolution_param {
		num_output: 74
		pad: 2
		kernel_size: 5
		stride: 1
		weight_filler {
			type: "xavier"
		}
		bias_filler {
			type: "constant"
			value: 0.2
		}
	}
	param {
		lr_mult: 1
		decay_mult: 1
		name: "Layer4b/Convolution_Inception5x5_w"
	}
	param {
		lr_mult: 2
		decay_mult: 0
		name: "Layer4b/Convolution_Inception5x5_b"
	}
}

layer {
	name: "Layer4b/Pooling_Inception_Pool_s"
	type: "Pooling"
	bottom: "Layer4a/ReLU_EltWise_s"
	top: "Layer4b/Pooling_Inception_Pool_s"
	pooling_param {
		pool: MAX
		kernel_size: 3
		stride: 1
		pad: 1
	}
}

layer {
	name: "Layer4b/Convolution_Inception_Pool_1x1_s"
	type: "Convolution"
	bottom: "Layer4b/Pooling_Inception_Pool_s"
	top: "Layer4b/Convolution_Inception_Pool_1x1_s"
	convolution_param {
		num_output: 74
		pad: 0
		kernel_size: 1
		stride: 1
		weight_filler {
			type: "xavier"
		}
		bias_filler {
			type: "constant"
			value: 0.2
		}
	}
	param {
		lr_mult: 1
		decay_mult: 1
		name: "Layer4b/Convolution_Inception_Pool_1x1_w"
	}
	param {
		lr_mult: 2
		decay_mult: 0
		name: "Layer4b/Convolution_Inception_Pool_1x1_b"
	}
}

layer {
	name: "Layer4b/Concat_Output_s"
	type: "Concat"
	bottom: "Layer4b/Convolution_Inception3x3_s"
	bottom: "Layer4b/Convolution_Inception5x5_s"
	bottom: "Layer4b/Convolution_Inception_Pool_1x1_s"
	top: "Layer4b/Concat_Output_s"
}

layer {
	name: "Layer4b/Eltwise_EltWise_s"
	type: "Eltwise"
	bottom: "Layer4b/Concat_Output_s"
	bottom: "Layer4b/Convolution_ResCeption1x1_s"
	top: "Layer4b/Eltwise_EltWise_s"
	eltwise_param {
		operation: SUM
	}
}

layer {
	name: "Layer4b/BatchNorm_EltWise_s"
	type: "BatchNorm"
	bottom: "Layer4b/Eltwise_EltWise_s"
	top: "Layer4b/BatchNorm_EltWise_s"
	param {
		lr_mult: 0
	}
	param {
		lr_mult: 0
	}
	param {
		lr_mult: 0
	}
}

layer {
	name: "Layer4b/ReLU_EltWise_s"
	type: "ReLU"
	bottom: "Layer4b/BatchNorm_EltWise_s"
	top: "Layer4b/ReLU_EltWise_s"
}

# ================================================================================================
# ======== Layer4c
# ================================================================================================


layer {
	name: "Layer4c/Convolution_ResCeption1x1_s"
	type: "Convolution"
	bottom: "Layer4b/ReLU_EltWise_s"
	top: "Layer4c/Convolution_ResCeption1x1_s"
	convolution_param {
		num_output: 461
		pad: 0
		kernel_size: 1
		stride: 1
		weight_filler {
			type: "xavier"
		}
		bias_filler {
			type: "constant"
			value: 0.2
		}
	}
	param {
		lr_mult: 1
		decay_mult: 1
		name: "Layer4c/Convolution_ResCeption1x1_w"
	}
	param {
		lr_mult: 2
		decay_mult: 0
		name: "Layer4c/Convolution_ResCeption1x1_b"
	}
}

layer {
	name: "Layer4c/Convolution_Inception3x3_reduce_s"
	type: "Convolution"
	bottom: "Layer4b/ReLU_EltWise_s"
	top: "Layer4c/Convolution_Inception3x3_reduce_s"
	convolution_param {
		num_output: 154
		pad: 0
		kernel_size: 1
		stride: 1
		weight_filler {
			type: "xavier"
		}
		bias_filler {
			type: "constant"
			value: 0.2
		}
	}
	param {
		lr_mult: 1
		decay_mult: 1
		name: "Layer4c/Convolution_Inception3x3_reduce_w"
	}
	param {
		lr_mult: 2
		decay_mult: 0
		name: "Layer4c/Convolution_Inception3x3_reduce_b"
	}
}

layer {
	name: "Layer4c/BatchNorm_Inception3x3_reduce_s"
	type: "BatchNorm"
	bottom: "Layer4c/Convolution_Inception3x3_reduce_s"
	top: "Layer4c/BatchNorm_Inception3x3_reduce_s"
	param {
		lr_mult: 0
	}
	param {
		lr_mult: 0
	}
	param {
		lr_mult: 0
	}
}

layer {
	name: "Layer4c/ReLU_Inception3x3_reduce_s"
	type: "ReLU"
	bottom: "Layer4c/BatchNorm_Inception3x3_reduce_s"
	top: "Layer4c/ReLU_Inception3x3_reduce_s"
}

layer {
	name: "Layer4c/Convolution_Inception3x3_s"
	type: "Convolution"
	bottom: "Layer4c/ReLU_Inception3x3_reduce_s"
	top: "Layer4c/Convolution_Inception3x3_s"
	convolution_param {
		num_output: 307
		pad: 1
		kernel_size: 3
		stride: 1
		weight_filler {
			type: "xavier"
		}
		bias_filler {
			type: "constant"
			value: 0.2
		}
	}
	param {
		lr_mult: 1
		decay_mult: 1
		name: "Layer4c/Convolution_Inception3x3_w"
	}
	param {
		lr_mult: 2
		decay_mult: 0
		name: "Layer4c/Convolution_Inception3x3_b"
	}
}

layer {
	name: "Layer4c/Convolution_Inception5x5_reduce_s"
	type: "Convolution"
	bottom: "Layer4b/ReLU_EltWise_s"
	top: "Layer4c/Convolution_Inception5x5_reduce_s"
	convolution_param {
		num_output: 29
		pad: 0
		kernel_size: 1
		stride: 1
		weight_filler {
			type: "xavier"
		}
		bias_filler {
			type: "constant"
			value: 0.2
		}
	}
	param {
		lr_mult: 1
		decay_mult: 1
		name: "Layer4c/Convolution_Inception5x5_reduce_w"
	}
	param {
		lr_mult: 2
		decay_mult: 0
		name: "Layer4c/Convolution_Inception5x5_reduce_b"
	}
}

layer {
	name: "Layer4c/BatchNorm_Inception5x5_reduce_s"
	type: "BatchNorm"
	bottom: "Layer4c/Convolution_Inception5x5_reduce_s"
	top: "Layer4c/BatchNorm_Inception5x5_reduce_s"
	param {
		lr_mult: 0
	}
	param {
		lr_mult: 0
	}
	param {
		lr_mult: 0
	}
}

layer {
	name: "Layer4c/ReLU_Inception5x5_reduce_s"
	type: "ReLU"
	bottom: "Layer4c/BatchNorm_Inception5x5_reduce_s"
	top: "Layer4c/ReLU_Inception5x5_reduce_s"
}

layer {
	name: "Layer4c/Convolution_Inception5x5_s"
	type: "Convolution"
	bottom: "Layer4c/ReLU_Inception5x5_reduce_s"
	top: "Layer4c/Convolution_Inception5x5_s"
	convolution_param {
		num_output: 77
		pad: 2
		kernel_size: 5
		stride: 1
		weight_filler {
			type: "xavier"
		}
		bias_filler {
			type: "constant"
			value: 0.2
		}
	}
	param {
		lr_mult: 1
		decay_mult: 1
		name: "Layer4c/Convolution_Inception5x5_w"
	}
	param {
		lr_mult: 2
		decay_mult: 0
		name: "Layer4c/Convolution_Inception5x5_b"
	}
}

layer {
	name: "Layer4c/Pooling_Inception_Pool_s"
	type: "Pooling"
	bottom: "Layer4b/ReLU_EltWise_s"
	top: "Layer4c/Pooling_Inception_Pool_s"
	pooling_param {
		pool: MAX
		kernel_size: 3
		stride: 1
		pad: 1
	}
}

layer {
	name: "Layer4c/Convolution_Inception_Pool_1x1_s"
	type: "Convolution"
	bottom: "Layer4c/Pooling_Inception_Pool_s"
	top: "Layer4c/Convolution_Inception_Pool_1x1_s"
	convolution_param {
		num_output: 77
		pad: 0
		kernel_size: 1
		stride: 1
		weight_filler {
			type: "xavier"
		}
		bias_filler {
			type: "constant"
			value: 0.2
		}
	}
	param {
		lr_mult: 1
		decay_mult: 1
		name: "Layer4c/Convolution_Inception_Pool_1x1_w"
	}
	param {
		lr_mult: 2
		decay_mult: 0
		name: "Layer4c/Convolution_Inception_Pool_1x1_b"
	}
}

layer {
	name: "Layer4c/Concat_Output_s"
	type: "Concat"
	bottom: "Layer4c/Convolution_Inception3x3_s"
	bottom: "Layer4c/Convolution_Inception5x5_s"
	bottom: "Layer4c/Convolution_Inception_Pool_1x1_s"
	top: "Layer4c/Concat_Output_s"
}

layer {
	name: "Layer4c/Eltwise_EltWise_s"
	type: "Eltwise"
	bottom: "Layer4c/Concat_Output_s"
	bottom: "Layer4c/Convolution_ResCeption1x1_s"
	top: "Layer4c/Eltwise_EltWise_s"
	eltwise_param {
		operation: SUM
	}
}

layer {
	name: "Layer4c/BatchNorm_EltWise_s"
	type: "BatchNorm"
	bottom: "Layer4c/Eltwise_EltWise_s"
	top: "Layer4c/BatchNorm_EltWise_s"
	param {
		lr_mult: 0
	}
	param {
		lr_mult: 0
	}
	param {
		lr_mult: 0
	}
}

layer {
	name: "Layer4c/ReLU_EltWise_s"
	type: "ReLU"
	bottom: "Layer4c/BatchNorm_EltWise_s"
	top: "Layer4c/ReLU_EltWise_s"
}

# ================================================================================================
# ======== Layer4d
# ================================================================================================


layer {
	name: "Layer4d/Convolution_ResCeption1x1_s"
	type: "Convolution"
	bottom: "Layer4c/ReLU_EltWise_s"
	top: "Layer4d/Convolution_ResCeption1x1_s"
	convolution_param {
		num_output: 540
		pad: 0
		kernel_size: 1
		stride: 1
		weight_filler {
			type: "xavier"
		}
		bias_filler {
			type: "constant"
			value: 0.2
		}
	}
	param {
		lr_mult: 1
		decay_mult: 1
		name: "Layer4d/Convolution_ResCeption1x1_w"
	}
	param {
		lr_mult: 2
		decay_mult: 0
		name: "Layer4d/Convolution_ResCeption1x1_b"
	}
}

layer {
	name: "Layer4d/Convolution_Inception3x3_reduce_s"
	type: "Convolution"
	bottom: "Layer4c/ReLU_EltWise_s"
	top: "Layer4d/Convolution_Inception3x3_reduce_s"
	convolution_param {
		num_output: 187
		pad: 0
		kernel_size: 1
		stride: 1
		weight_filler {
			type: "xavier"
		}
		bias_filler {
			type: "constant"
			value: 0.2
		}
	}
	param {
		lr_mult: 1
		decay_mult: 1
		name: "Layer4d/Convolution_Inception3x3_reduce_w"
	}
	param {
		lr_mult: 2
		decay_mult: 0
		name: "Layer4d/Convolution_Inception3x3_reduce_b"
	}
}

layer {
	name: "Layer4d/BatchNorm_Inception3x3_reduce_s"
	type: "BatchNorm"
	bottom: "Layer4d/Convolution_Inception3x3_reduce_s"
	top: "Layer4d/BatchNorm_Inception3x3_reduce_s"
	param {
		lr_mult: 0
	}
	param {
		lr_mult: 0
	}
	param {
		lr_mult: 0
	}
}

layer {
	name: "Layer4d/ReLU_Inception3x3_reduce_s"
	type: "ReLU"
	bottom: "Layer4d/BatchNorm_Inception3x3_reduce_s"
	top: "Layer4d/ReLU_Inception3x3_reduce_s"
}

layer {
	name: "Layer4d/Convolution_Inception3x3_s"
	type: "Convolution"
	bottom: "Layer4d/ReLU_Inception3x3_reduce_s"
	top: "Layer4d/Convolution_Inception3x3_s"
	convolution_param {
		num_output: 374
		pad: 1
		kernel_size: 3
		stride: 1
		weight_filler {
			type: "xavier"
		}
		bias_filler {
			type: "constant"
			value: 0.2
		}
	}
	param {
		lr_mult: 1
		decay_mult: 1
		name: "Layer4d/Convolution_Inception3x3_w"
	}
	param {
		lr_mult: 2
		decay_mult: 0
		name: "Layer4d/Convolution_Inception3x3_b"
	}
}

layer {
	name: "Layer4d/Convolution_Inception5x5_reduce_s"
	type: "Convolution"
	bottom: "Layer4c/ReLU_EltWise_s"
	top: "Layer4d/Convolution_Inception5x5_reduce_s"
	convolution_param {
		num_output: 42
		pad: 0
		kernel_size: 1
		stride: 1
		weight_filler {
			type: "xavier"
		}
		bias_filler {
			type: "constant"
			value: 0.2
		}
	}
	param {
		lr_mult: 1
		decay_mult: 1
		name: "Layer4d/Convolution_Inception5x5_reduce_w"
	}
	param {
		lr_mult: 2
		decay_mult: 0
		name: "Layer4d/Convolution_Inception5x5_reduce_b"
	}
}

layer {
	name: "Layer4d/BatchNorm_Inception5x5_reduce_s"
	type: "BatchNorm"
	bottom: "Layer4d/Convolution_Inception5x5_reduce_s"
	top: "Layer4d/BatchNorm_Inception5x5_reduce_s"
	param {
		lr_mult: 0
	}
	param {
		lr_mult: 0
	}
	param {
		lr_mult: 0
	}
}

layer {
	name: "Layer4d/ReLU_Inception5x5_reduce_s"
	type: "ReLU"
	bottom: "Layer4d/BatchNorm_Inception5x5_reduce_s"
	top: "Layer4d/ReLU_Inception5x5_reduce_s"
}

layer {
	name: "Layer4d/Convolution_Inception5x5_s"
	type: "Convolution"
	bottom: "Layer4d/ReLU_Inception5x5_reduce_s"
	top: "Layer4d/Convolution_Inception5x5_s"
	convolution_param {
		num_output: 83
		pad: 2
		kernel_size: 5
		stride: 1
		weight_filler {
			type: "xavier"
		}
		bias_filler {
			type: "constant"
			value: 0.2
		}
	}
	param {
		lr_mult: 1
		decay_mult: 1
		name: "Layer4d/Convolution_Inception5x5_w"
	}
	param {
		lr_mult: 2
		decay_mult: 0
		name: "Layer4d/Convolution_Inception5x5_b"
	}
}

layer {
	name: "Layer4d/Pooling_Inception_Pool_s"
	type: "Pooling"
	bottom: "Layer4c/ReLU_EltWise_s"
	top: "Layer4d/Pooling_Inception_Pool_s"
	pooling_param {
		pool: MAX
		kernel_size: 3
		stride: 1
		pad: 1
	}
}

layer {
	name: "Layer4d/Convolution_Inception_Pool_1x1_s"
	type: "Convolution"
	bottom: "Layer4d/Pooling_Inception_Pool_s"
	top: "Layer4d/Convolution_Inception_Pool_1x1_s"
	convolution_param {
		num_output: 83
		pad: 0
		kernel_size: 1
		stride: 1
		weight_filler {
			type: "xavier"
		}
		bias_filler {
			type: "constant"
			value: 0.2
		}
	}
	param {
		lr_mult: 1
		decay_mult: 1
		name: "Layer4d/Convolution_Inception_Pool_1x1_w"
	}
	param {
		lr_mult: 2
		decay_mult: 0
		name: "Layer4d/Convolution_Inception_Pool_1x1_b"
	}
}

layer {
	name: "Layer4d/Concat_Output_s"
	type: "Concat"
	bottom: "Layer4d/Convolution_Inception3x3_s"
	bottom: "Layer4d/Convolution_Inception5x5_s"
	bottom: "Layer4d/Convolution_Inception_Pool_1x1_s"
	top: "Layer4d/Concat_Output_s"
}

layer {
	name: "Layer4d/Eltwise_EltWise_s"
	type: "Eltwise"
	bottom: "Layer4d/Concat_Output_s"
	bottom: "Layer4d/Convolution_ResCeption1x1_s"
	top: "Layer4d/Eltwise_EltWise_s"
	eltwise_param {
		operation: SUM
	}
}

layer {
	name: "Layer4d/BatchNorm_EltWise_s"
	type: "BatchNorm"
	bottom: "Layer4d/Eltwise_EltWise_s"
	top: "Layer4d/BatchNorm_EltWise_s"
	param {
		lr_mult: 0
	}
	param {
		lr_mult: 0
	}
	param {
		lr_mult: 0
	}
}

layer {
	name: "Layer4d/ReLU_EltWise_s"
	type: "ReLU"
	bottom: "Layer4d/BatchNorm_EltWise_s"
	top: "Layer4d/ReLU_EltWise_s"
}

# ================================================================================================
# ======== Layer4e
# ================================================================================================


layer {
	name: "Layer4e/Convolution_ResCeption1x1_s"
	type: "Convolution"
	bottom: "Layer4d/ReLU_EltWise_s"
	top: "Layer4e/Convolution_ResCeption1x1_s"
	convolution_param {
		num_output: 806
		pad: 0
		kernel_size: 1
		stride: 1
		weight_filler {
			type: "xavier"
		}
		bias_filler {
			type: "constant"
			value: 0.2
		}
	}
	param {
		lr_mult: 1
		decay_mult: 1
		name: "Layer4e/Convolution_ResCeption1x1_w"
	}
	param {
		lr_mult: 2
		decay_mult: 0
		name: "Layer4e/Convolution_ResCeption1x1_b"
	}
}

layer {
	name: "Layer4e/Convolution_Inception3x3_reduce_s"
	type: "Convolution"
	bottom: "Layer4d/ReLU_EltWise_s"
	top: "Layer4e/Convolution_Inception3x3_reduce_s"
	convolution_param {
		num_output: 224
		pad: 0
		kernel_size: 1
		stride: 1
		weight_filler {
			type: "xavier"
		}
		bias_filler {
			type: "constant"
			value: 0.2
		}
	}
	param {
		lr_mult: 1
		decay_mult: 1
		name: "Layer4e/Convolution_Inception3x3_reduce_w"
	}
	param {
		lr_mult: 2
		decay_mult: 0
		name: "Layer4e/Convolution_Inception3x3_reduce_b"
	}
}

layer {
	name: "Layer4e/BatchNorm_Inception3x3_reduce_s"
	type: "BatchNorm"
	bottom: "Layer4e/Convolution_Inception3x3_reduce_s"
	top: "Layer4e/BatchNorm_Inception3x3_reduce_s"
	param {
		lr_mult: 0
	}
	param {
		lr_mult: 0
	}
	param {
		lr_mult: 0
	}
}

layer {
	name: "Layer4e/ReLU_Inception3x3_reduce_s"
	type: "ReLU"
	bottom: "Layer4e/BatchNorm_Inception3x3_reduce_s"
	top: "Layer4e/ReLU_Inception3x3_reduce_s"
}

layer {
	name: "Layer4e/Convolution_Inception3x3_s"
	type: "Convolution"
	bottom: "Layer4e/ReLU_Inception3x3_reduce_s"
	top: "Layer4e/Convolution_Inception3x3_s"
	convolution_param {
		num_output: 448
		pad: 1
		kernel_size: 3
		stride: 1
		weight_filler {
			type: "xavier"
		}
		bias_filler {
			type: "constant"
			value: 0.2
		}
	}
	param {
		lr_mult: 1
		decay_mult: 1
		name: "Layer4e/Convolution_Inception3x3_w"
	}
	param {
		lr_mult: 2
		decay_mult: 0
		name: "Layer4e/Convolution_Inception3x3_b"
	}
}

layer {
	name: "Layer4e/Convolution_Inception5x5_reduce_s"
	type: "Convolution"
	bottom: "Layer4d/ReLU_EltWise_s"
	top: "Layer4e/Convolution_Inception5x5_reduce_s"
	convolution_param {
		num_output: 45
		pad: 0
		kernel_size: 1
		stride: 1
		weight_filler {
			type: "xavier"
		}
		bias_filler {
			type: "constant"
			value: 0.2
		}
	}
	param {
		lr_mult: 1
		decay_mult: 1
		name: "Layer4e/Convolution_Inception5x5_reduce_w"
	}
	param {
		lr_mult: 2
		decay_mult: 0
		name: "Layer4e/Convolution_Inception5x5_reduce_b"
	}
}

layer {
	name: "Layer4e/BatchNorm_Inception5x5_reduce_s"
	type: "BatchNorm"
	bottom: "Layer4e/Convolution_Inception5x5_reduce_s"
	top: "Layer4e/BatchNorm_Inception5x5_reduce_s"
	param {
		lr_mult: 0
	}
	param {
		lr_mult: 0
	}
	param {
		lr_mult: 0
	}
}

layer {
	name: "Layer4e/ReLU_Inception5x5_reduce_s"
	type: "ReLU"
	bottom: "Layer4e/BatchNorm_Inception5x5_reduce_s"
	top: "Layer4e/ReLU_Inception5x5_reduce_s"
}

layer {
	name: "Layer4e/Convolution_Inception5x5_s"
	type: "Convolution"
	bottom: "Layer4e/ReLU_Inception5x5_reduce_s"
	top: "Layer4e/Convolution_Inception5x5_s"
	convolution_param {
		num_output: 179
		pad: 2
		kernel_size: 5
		stride: 1
		weight_filler {
			type: "xavier"
		}
		bias_filler {
			type: "constant"
			value: 0.2
		}
	}
	param {
		lr_mult: 1
		decay_mult: 1
		name: "Layer4e/Convolution_Inception5x5_w"
	}
	param {
		lr_mult: 2
		decay_mult: 0
		name: "Layer4e/Convolution_Inception5x5_b"
	}
}

layer {
	name: "Layer4e/Pooling_Inception_Pool_s"
	type: "Pooling"
	bottom: "Layer4d/ReLU_EltWise_s"
	top: "Layer4e/Pooling_Inception_Pool_s"
	pooling_param {
		pool: MAX
		kernel_size: 3
		stride: 1
		pad: 1
	}
}

layer {
	name: "Layer4e/Convolution_Inception_Pool_1x1_s"
	type: "Convolution"
	bottom: "Layer4e/Pooling_Inception_Pool_s"
	top: "Layer4e/Convolution_Inception_Pool_1x1_s"
	convolution_param {
		num_output: 179
		pad: 0
		kernel_size: 1
		stride: 1
		weight_filler {
			type: "xavier"
		}
		bias_filler {
			type: "constant"
			value: 0.2
		}
	}
	param {
		lr_mult: 1
		decay_mult: 1
		name: "Layer4e/Convolution_Inception_Pool_1x1_w"
	}
	param {
		lr_mult: 2
		decay_mult: 0
		name: "Layer4e/Convolution_Inception_Pool_1x1_b"
	}
}

layer {
	name: "Layer4e/Concat_Output_s"
	type: "Concat"
	bottom: "Layer4e/Convolution_Inception3x3_s"
	bottom: "Layer4e/Convolution_Inception5x5_s"
	bottom: "Layer4e/Convolution_Inception_Pool_1x1_s"
	top: "Layer4e/Concat_Output_s"
}

layer {
	name: "Layer4e/Eltwise_EltWise_s"
	type: "Eltwise"
	bottom: "Layer4e/Concat_Output_s"
	bottom: "Layer4e/Convolution_ResCeption1x1_s"
	top: "Layer4e/Eltwise_EltWise_s"
	eltwise_param {
		operation: SUM
	}
}

layer {
	name: "Layer4e/BatchNorm_EltWise_s"
	type: "BatchNorm"
	bottom: "Layer4e/Eltwise_EltWise_s"
	top: "Layer4e/BatchNorm_EltWise_s"
	param {
		lr_mult: 0
	}
	param {
		lr_mult: 0
	}
	param {
		lr_mult: 0
	}
}

layer {
	name: "Layer4e/ReLU_EltWise_s"
	type: "ReLU"
	bottom: "Layer4e/BatchNorm_EltWise_s"
	top: "Layer4e/ReLU_EltWise_s"
}

# ================================================================================================
# ======== NEW STUFF
# ================================================================================================

layer {
	name: "Layer4_Pooling/Pooling_Stride_2_s"
	type: "Pooling"
	bottom: "Layer4e/ReLU_EltWise_s"
	top: "Layer4_Pooling/Pooling_Stride_2_s"
	pooling_param {
		pool: MAX
		kernel_size: 3
		stride: 2
		pad: 0
	}
}

# ================================================================================================
# ======== Layer5a
# ================================================================================================


layer {
	name: "Layer5a/Convolution_ResCeption1x1_s"
	type: "Convolution"
	bottom: "Layer4_Pooling/Pooling_Stride_2_s"
	top: "Layer5a/Convolution_ResCeption1x1_s"
	convolution_param {
		num_output: 864
		pad: 0
		kernel_size: 1
		stride: 1
		weight_filler {
			type: "xavier"
		}
		bias_filler {
			type: "constant"
			value: 0.2
		}
	}
	param {
		lr_mult: 1
		decay_mult: 1
		name: "Layer5a/Convolution_ResCeption1x1_w"
	}
	param {
		lr_mult: 2
		decay_mult: 0
		name: "Layer5a/Convolution_ResCeption1x1_b"
	}
}

layer {
	name: "Layer5a/Convolution_Inception3x3_reduce_s"
	type: "Convolution"
	bottom: "Layer4_Pooling/Pooling_Stride_2_s"
	top: "Layer5a/Convolution_Inception3x3_reduce_s"
	convolution_param {
		num_output: 240
		pad: 0
		kernel_size: 1
		stride: 1
		weight_filler {
			type: "xavier"
		}
		bias_filler {
			type: "constant"
			value: 0.2
		}
	}
	param {
		lr_mult: 1
		decay_mult: 1
		name: "Layer5a/Convolution_Inception3x3_reduce_w"
	}
	param {
		lr_mult: 2
		decay_mult: 0
		name: "Layer5a/Convolution_Inception3x3_reduce_b"
	}
}

layer {
	name: "Layer5a/BatchNorm_Inception3x3_reduce_s"
	type: "BatchNorm"
	bottom: "Layer5a/Convolution_Inception3x3_reduce_s"
	top: "Layer5a/BatchNorm_Inception3x3_reduce_s"
	param {
		lr_mult: 0
	}
	param {
		lr_mult: 0
	}
	param {
		lr_mult: 0
	}
}

layer {
	name: "Layer5a/ReLU_Inception3x3_reduce_s"
	type: "ReLU"
	bottom: "Layer5a/BatchNorm_Inception3x3_reduce_s"
	top: "Layer5a/ReLU_Inception3x3_reduce_s"
}

layer {
	name: "Layer5a/Convolution_Inception3x3_s"
	type: "Convolution"
	bottom: "Layer5a/ReLU_Inception3x3_reduce_s"
	top: "Layer5a/Convolution_Inception3x3_s"
	convolution_param {
		num_output: 480
		pad: 1
		kernel_size: 3
		stride: 1
		weight_filler {
			type: "xavier"
		}
		bias_filler {
			type: "constant"
			value: 0.2
		}
	}
	param {
		lr_mult: 1
		decay_mult: 1
		name: "Layer5a/Convolution_Inception3x3_w"
	}
	param {
		lr_mult: 2
		decay_mult: 0
		name: "Layer5a/Convolution_Inception3x3_b"
	}
}

layer {
	name: "Layer5a/Convolution_Inception5x5_reduce_s"
	type: "Convolution"
	bottom: "Layer4_Pooling/Pooling_Stride_2_s"
	top: "Layer5a/Convolution_Inception5x5_reduce_s"
	convolution_param {
		num_output: 48
		pad: 0
		kernel_size: 1
		stride: 1
		weight_filler {
			type: "xavier"
		}
		bias_filler {
			type: "constant"
			value: 0.2
		}
	}
	param {
		lr_mult: 0
		decay_mult: 1
		name: "Layer5a/Convolution_Inception5x5_reduce_w"
	}
	param {
		lr_mult: 0
		decay_mult: 0
		name: "Layer5a/Convolution_Inception5x5_reduce_b"
	}
}

layer {
	name: "Layer5a/BatchNorm_Inception5x5_reduce_s"
	type: "BatchNorm"
	bottom: "Layer5a/Convolution_Inception5x5_reduce_s"
	top: "Layer5a/BatchNorm_Inception5x5_reduce_s"
	param {
		lr_mult: 0
	}
	param {
		lr_mult: 0
	}
	param {
		lr_mult: 0
	}
}

layer {
	name: "Layer5a/ReLU_Inception5x5_reduce_s"
	type: "ReLU"
	bottom: "Layer5a/BatchNorm_Inception5x5_reduce_s"
	top: "Layer5a/ReLU_Inception5x5_reduce_s"
}

layer {
	name: "Layer5a/Convolution_Inception5x5_SUB_s"
	type: "Convolution"
	bottom: "Layer5a/ReLU_Inception5x5_reduce_s"
	top: "Layer5a/Convolution_Inception5x5_SUB_s"
	convolution_param {
		num_output: 192
		pad: 0
		kernel_size: 1
		stride: 1
		weight_filler {
			type: "xavier"
		}
		bias_filler {
			type: "constant"
			value: 0.2
		}
	}
	param {
		lr_mult: 0
		decay_mult: 0
		name: "Layer5a/Convolution_Inception5x5_SUB_w"
	}
	param {
		lr_mult: 0
		decay_mult: 0
		name: "Layer5a/Convolution_Inception5x5_SUB_b"
	}
}

layer {
	name: "Layer5a/Pooling_Inception_Pool_s"
	type: "Pooling"
	bottom: "Layer4_Pooling/Pooling_Stride_2_s"
	top: "Layer5a/Pooling_Inception_Pool_s"
	pooling_param {
		pool: MAX
		kernel_size: 3
		stride: 1
		pad: 1
	}
}

layer {
	name: "Layer5a/Convolution_Inception_Pool_1x1_s"
	type: "Convolution"
	bottom: "Layer5a/Pooling_Inception_Pool_s"
	top: "Layer5a/Convolution_Inception_Pool_1x1_s"
	convolution_param {
		num_output: 192
		pad: 0
		kernel_size: 1
		stride: 1
		weight_filler {
			type: "xavier"
		}
		bias_filler {
			type: "constant"
			value: 0.2
		}
	}
	param {
		lr_mult: 1
		decay_mult: 1
		name: "Layer5a/Convolution_Inception_Pool_1x1_w"
	}
	param {
		lr_mult: 2
		decay_mult: 0
		name: "Layer5a/Convolution_Inception_Pool_1x1_b"
	}
}

layer {
	name: "Layer5a/Concat_Output_s"
	type: "Concat"
	bottom: "Layer5a/Convolution_Inception3x3_s"
	bottom: "Layer5a/Convolution_Inception5x5_SUB_s"
	bottom: "Layer5a/Convolution_Inception_Pool_1x1_s"
	top: "Layer5a/Concat_Output_s"
}

layer {
	name: "Layer5a/Eltwise_EltWise_s"
	type: "Eltwise"
	bottom: "Layer5a/Concat_Output_s"
	bottom: "Layer5a/Convolution_ResCeption1x1_s"
	top: "Layer5a/Eltwise_EltWise_s"
	eltwise_param {
		operation: SUM
	}
}

layer {
	name: "Layer5a/BatchNorm_EltWise_s"
	type: "BatchNorm"
	bottom: "Layer5a/Eltwise_EltWise_s"
	top: "Layer5a/BatchNorm_EltWise_s"
	param {
		lr_mult: 0
	}
	param {
		lr_mult: 0
	}
	param {
		lr_mult: 0
	}
}

layer {
	name: "Layer5a/ReLU_EltWise_s"
	type: "ReLU"
	bottom: "Layer5a/BatchNorm_EltWise_s"
	top: "Layer5a/ReLU_EltWise_s"
}

# ================================================================================================
# ======== Layer5b
# ================================================================================================


layer {
	name: "Layer5b/Convolution_ResCeption1x1_s"
	type: "Convolution"
	bottom: "Layer5a/ReLU_EltWise_s"
	top: "Layer5b/Convolution_ResCeption1x1_s"
	convolution_param {
		num_output: 1024
		pad: 0
		kernel_size: 1
		stride: 1
		weight_filler {
			type: "xavier"
		}
		bias_filler {
			type: "constant"
			value: 0.2
		}
	}
	param {
		lr_mult: 1
		decay_mult: 1
		name: "Layer5b/Convolution_ResCeption1x1_w"
	}
	param {
		lr_mult: 2
		decay_mult: 0
		name: "Layer5b/Convolution_ResCeption1x1_b"
	}
}

layer {
	name: "Layer5b/Convolution_Inception3x3_reduce_s"
	type: "Convolution"
	bottom: "Layer5a/ReLU_EltWise_s"
	top: "Layer5b/Convolution_Inception3x3_reduce_s"
	convolution_param {
		num_output: 307
		pad: 0
		kernel_size: 1
		stride: 1
		weight_filler {
			type: "xavier"
		}
		bias_filler {
			type: "constant"
			value: 0.2
		}
	}
	param {
		lr_mult: 1
		decay_mult: 1
		name: "Layer5b/Convolution_Inception3x3_reduce_w"
	}
	param {
		lr_mult: 2
		decay_mult: 0
		name: "Layer5b/Convolution_Inception3x3_reduce_b"
	}
}

layer {
	name: "Layer5b/BatchNorm_Inception3x3_reduce_s"
	type: "BatchNorm"
	bottom: "Layer5b/Convolution_Inception3x3_reduce_s"
	top: "Layer5b/BatchNorm_Inception3x3_reduce_s"
	param {
		lr_mult: 0
	}
	param {
		lr_mult: 0
	}
	param {
		lr_mult: 0
	}
}

layer {
	name: "Layer5b/ReLU_Inception3x3_reduce_s"
	type: "ReLU"
	bottom: "Layer5b/BatchNorm_Inception3x3_reduce_s"
	top: "Layer5b/ReLU_Inception3x3_reduce_s"
}

layer {
	name: "Layer5b/Convolution_Inception3x3_s"
	type: "Convolution"
	bottom: "Layer5b/ReLU_Inception3x3_reduce_s"
	top: "Layer5b/Convolution_Inception3x3_s"
	convolution_param {
		num_output: 614
		pad: 1
		kernel_size: 3
		stride: 1
		weight_filler {
			type: "xavier"
		}
		bias_filler {
			type: "constant"
			value: 0.2
		}
	}
	param {
		lr_mult: 1
		decay_mult: 1
		name: "Layer5b/Convolution_Inception3x3_w"
	}
	param {
		lr_mult: 2
		decay_mult: 0
		name: "Layer5b/Convolution_Inception3x3_b"
	}
}

layer {
	name: "Layer5b/Convolution_Inception5x5_reduce_s"
	type: "Convolution"
	bottom: "Layer5a/ReLU_EltWise_s"
	top: "Layer5b/Convolution_Inception5x5_reduce_s"
	convolution_param {
		num_output: 77
		pad: 0
		kernel_size: 1
		stride: 1
		weight_filler {
			type: "xavier"
		}
		bias_filler {
			type: "constant"
			value: 0.2
		}
	}
	param {
		lr_mult: 0
		decay_mult: 1
		name: "Layer5b/Convolution_Inception5x5_reduce_w"
	}
	param {
		lr_mult: 0
		decay_mult: 0
		name: "Layer5b/Convolution_Inception5x5_reduce_b"
	}
}

layer {
	name: "Layer5b/BatchNorm_Inception5x5_reduce_s"
	type: "BatchNorm"
	bottom: "Layer5b/Convolution_Inception5x5_reduce_s"
	top: "Layer5b/BatchNorm_Inception5x5_reduce_s"
	param {
		lr_mult: 0
	}
	param {
		lr_mult: 0
	}
	param {
		lr_mult: 0
	}
}

layer {
	name: "Layer5b/ReLU_Inception5x5_reduce_s"
	type: "ReLU"
	bottom: "Layer5b/BatchNorm_Inception5x5_reduce_s"
	top: "Layer5b/ReLU_Inception5x5_reduce_s"
}

layer {
	name: "Layer5b/Convolution_Inception5x5_SUB_s"
	type: "Convolution"
	bottom: "Layer5b/ReLU_Inception5x5_reduce_s"
	top: "Layer5b/Convolution_Inception5x5_SUB_s"
	convolution_param {
		num_output: 205
		pad: 0
		kernel_size: 1
		stride: 1
		weight_filler {
			type: "xavier"
		}
		bias_filler {
			type: "constant"
			value: 0.2
		}
	}
	param {
		lr_mult: 0
		decay_mult: 0
		name: "Layer5b/Convolution_Inception5x5_SUB_w"
	}
	param {
		lr_mult: 0
		decay_mult: 0
		name: "Layer5b/Convolution_Inception5x5_SUB_b"
	}
}

layer {
	name: "Layer5b/Pooling_Inception_Pool_s"
	type: "Pooling"
	bottom: "Layer5a/ReLU_EltWise_s"
	top: "Layer5b/Pooling_Inception_Pool_s"
	pooling_param {
		pool: MAX
		kernel_size: 3
		stride: 1
		pad: 1
	}
}

layer {
	name: "Layer5b/Convolution_Inception_Pool_1x1_s"
	type: "Convolution"
	bottom: "Layer5b/Pooling_Inception_Pool_s"
	top: "Layer5b/Convolution_Inception_Pool_1x1_s"
	convolution_param {
		num_output: 205
		pad: 0
		kernel_size: 1
		stride: 1
		weight_filler {
			type: "xavier"
		}
		bias_filler {
			type: "constant"
			value: 0.2
		}
	}
	param {
		lr_mult: 1
		decay_mult: 1
		name: "Layer5b/Convolution_Inception_Pool_1x1_w"
	}
	param {
		lr_mult: 2
		decay_mult: 0
		name: "Layer5b/Convolution_Inception_Pool_1x1_b"
	}
}

layer {
	name: "Layer5b/Concat_Output_s"
	type: "Concat"
	bottom: "Layer5b/Convolution_Inception3x3_s"
	bottom: "Layer5b/Convolution_Inception5x5_SUB_s"
	bottom: "Layer5b/Convolution_Inception_Pool_1x1_s"
	top: "Layer5b/Concat_Output_s"
}

layer {
	name: "Layer5b/Eltwise_EltWise_s"
	type: "Eltwise"
	bottom: "Layer5b/Concat_Output_s"
	bottom: "Layer5b/Convolution_ResCeption1x1_s"
	top: "Layer5b/Eltwise_EltWise_s"
	eltwise_param {
		operation: SUM
	}
}

layer {
	name: "Layer5b/BatchNorm_EltWise_s"
	type: "BatchNorm"
	bottom: "Layer5b/Eltwise_EltWise_s"
	top: "Layer5b/BatchNorm_EltWise_s"
	param {
		lr_mult: 0
	}
	param {
		lr_mult: 0
	}
	param {
		lr_mult: 0
	}
}

layer {
	name: "Layer5b/ReLU_EltWise_s"
	type: "ReLU"
	bottom: "Layer5b/BatchNorm_EltWise_s"
	top: "Layer5b/ReLU_EltWise_s"
}

# ================================================================================================
# ======== Loss
# ================================================================================================


layer {
	name: "Loss/Pooling_Loss_s"
	type: "Pooling"
	bottom: "Layer5b/ReLU_EltWise_s"
	top: "Loss/Pooling_Loss_s"
	pooling_param {
		pool: AVE
     		global_pooling : true
		stride: 1
		pad: 0
	}
}

layer {
	name: "Loss/InnerProduct_Loss_fc1_s"
	type: "InnerProduct"
	bottom: "Loss/Pooling_Loss_s"
	top: "Loss/InnerProduct_Loss_fc1_s"
	inner_product_param {
		num_output: 1000
		weight_filler {
			type: "xavier"
		}
		bias_filler {
			type: "constant"
			value: 0.2
		}
	}
	param {
		lr_mult: 1
		decay_mult: 1
		name: "Loss/InnerProduct_Loss_fc1_w"
	}
	param {
		lr_mult: 2
		decay_mult: 0
		name: "Loss/InnerProduct_Loss_fc1_b"
	}
}

# ================================================================================================
# ================================================================================================
# ======== NETWORK 3
# ================================================================================================
# ================================================================================================

# ================================================================================================
# ======== Layer1_7x7
# ================================================================================================


layer {
	name: "Layer1_7x7/Convolution_Stride_2_t"
	type: "Convolution"
	bottom: "data_3"
	top: "Layer1_7x7/Convolution_Stride_2_t"
	convolution_param {
		num_output: 64
		pad: 3
		kernel_size: 7
		stride: 2
		weight_filler {
			type: "xavier"
		}
		bias_filler {
			type: "constant"
			value: 0.2
		}
	}
	param {
		lr_mult: 1
		decay_mult: 1
		name: "Layer1_7x7/Convolution_Stride_2_w"
	}
	param {
		lr_mult: 2
		decay_mult: 0
		name: "Layer1_7x7/Convolution_Stride_2_b"
	}
}

layer {
	name: "Layer1_7x7/BatchNorm_Stride_2_t"
	type: "BatchNorm"
	bottom: "Layer1_7x7/Convolution_Stride_2_t"
	top: "Layer1_7x7/BatchNorm_Stride_2_t"
	param {
		lr_mult: 0
	}
	param {
		lr_mult: 0
	}
	param {
		lr_mult: 0
	}
}

layer {
	name: "Layer1_7x7/ReLU_Stride_2_t"
	type: "ReLU"
	bottom: "Layer1_7x7/BatchNorm_Stride_2_t"
	top: "Layer1_7x7/ReLU_Stride_2_t"
}

layer {
	name: "Layer1_Pooling/Pooling_Stride_2_t"
	type: "Pooling"
	bottom: "Layer1_7x7/ReLU_Stride_2_t"
	top: "Layer1_Pooling/Pooling_Stride_2_t"
	pooling_param {
		pool: MAX
		kernel_size: 3
		stride: 2
		pad: 0
	}
}

# ================================================================================================
# ======== Layer2_3x3
# ================================================================================================


layer {
	name: "Layer2_3x3/Convolution_Inception3x3_reduce_t"
	type: "Convolution"
	bottom: "Layer1_Pooling/Pooling_Stride_2_t"
	top: "Layer2_3x3/Convolution_Inception3x3_reduce_t"
	convolution_param {
		num_output: 64
		pad: 0
		kernel_size: 1
		stride: 1
		weight_filler {
			type: "xavier"
		}
		bias_filler {
			type: "constant"
			value: 0.2
		}
	}
	param {
		lr_mult: 1
		decay_mult: 1
		name: "Layer2_3x3/Convolution_Inception3x3_reduce_w"
	}
	param {
		lr_mult: 2
		decay_mult: 0
		name: "Layer2_3x3/Convolution_Inception3x3_reduce_b"
	}
}

layer {
	name: "Layer2_3x3/BatchNorm_Inception3x3_reduce_t"
	type: "BatchNorm"
	bottom: "Layer2_3x3/Convolution_Inception3x3_reduce_t"
	top: "Layer2_3x3/BatchNorm_Inception3x3_reduce_t"
	param {
		lr_mult: 0
	}
	param {
		lr_mult: 0
	}
	param {
		lr_mult: 0
	}
}

layer {
	name: "Layer2_3x3/ReLU_Inception3x3_reduce_t"
	type: "ReLU"
	bottom: "Layer2_3x3/BatchNorm_Inception3x3_reduce_t"
	top: "Layer2_3x3/ReLU_Inception3x3_reduce_t"
}

layer {
	name: "Layer2_3x3/Convolution_Inception3x3_t"
	type: "Convolution"
	bottom: "Layer2_3x3/ReLU_Inception3x3_reduce_t"
	top: "Layer2_3x3/Convolution_Inception3x3_t"
	convolution_param {
		num_output: 192
		pad: 1
		kernel_size: 3
		stride: 1
		weight_filler {
			type: "xavier"
		}
		bias_filler {
			type: "constant"
			value: 0.2
		}
	}
	param {
		lr_mult: 1
		decay_mult: 1
		name: "Layer2_3x3/Convolution_Inception3x3_w"
	}
	param {
		lr_mult: 2
		decay_mult: 0
		name: "Layer2_3x3/Convolution_Inception3x3_b"
	}
}

layer {
	name: "Layer2_3x3/BatchNorm_Inception3x3_t"
	type: "BatchNorm"
	bottom: "Layer2_3x3/Convolution_Inception3x3_t"
	top: "Layer2_3x3/BatchNorm_Inception3x3_t"
	param {
		lr_mult: 0
	}
	param {
		lr_mult: 0
	}
	param {
		lr_mult: 0
	}
}

layer {
	name: "Layer2_3x3/ReLU_Inception3x3_t"
	type: "ReLU"
	bottom: "Layer2_3x3/BatchNorm_Inception3x3_t"
	top: "Layer2_3x3/ReLU_Inception3x3_t"
}

layer {
	name: "Layer2_Pooling/Pooling_Stride_2_t"
	type: "Pooling"
	bottom: "Layer2_3x3/ReLU_Inception3x3_t"
	top: "Layer2_Pooling/Pooling_Stride_2_t"
	pooling_param {
		pool: MAX
		kernel_size: 3
		stride: 2
		pad: 0
	}
}

# ================================================================================================
# ======== Layer3a
# ================================================================================================


layer {
	name: "Layer3a/Convolution_Inception3x3_reduce_t"
	type: "Convolution"
	bottom: "Layer2_Pooling/Pooling_Stride_2_t"
	top: "Layer3a/Convolution_Inception3x3_reduce_t"
	convolution_param {
		num_output: 96
		pad: 0
		kernel_size: 1
		stride: 1
		weight_filler {
			type: "xavier"
		}
		bias_filler {
			type: "constant"
			value: 0.2
		}
	}
	param {
		lr_mult: 1
		decay_mult: 1
		name: "Layer3a/Convolution_Inception3x3_reduce_w"
	}
	param {
		lr_mult: 2
		decay_mult: 0
		name: "Layer3a/Convolution_Inception3x3_reduce_b"
	}
}

layer {
	name: "Layer3a/BatchNorm_Inception3x3_reduce_t"
	type: "BatchNorm"
	bottom: "Layer3a/Convolution_Inception3x3_reduce_t"
	top: "Layer3a/BatchNorm_Inception3x3_reduce_t"
	param {
		lr_mult: 0
	}
	param {
		lr_mult: 0
	}
	param {
		lr_mult: 0
	}
}

layer {
	name: "Layer3a/ReLU_Inception3x3_reduce_t"
	type: "ReLU"
	bottom: "Layer3a/BatchNorm_Inception3x3_reduce_t"
	top: "Layer3a/ReLU_Inception3x3_reduce_t"
}

layer {
	name: "Layer3a/Convolution_Inception3x3_t"
	type: "Convolution"
	bottom: "Layer3a/ReLU_Inception3x3_reduce_t"
	top: "Layer3a/Convolution_Inception3x3_t"
	convolution_param {
		num_output: 128
		pad: 1
		kernel_size: 3
		stride: 1
		weight_filler {
			type: "xavier"
		}
		bias_filler {
			type: "constant"
			value: 0.2
		}
	}
	param {
		lr_mult: 1
		decay_mult: 1
		name: "Layer3a/Convolution_Inception3x3_w"
	}
	param {
		lr_mult: 2
		decay_mult: 0
		name: "Layer3a/Convolution_Inception3x3_b"
	}
}

layer {
	name: "Layer3a/Convolution_Inception5x5_reduce_t"
	type: "Convolution"
	bottom: "Layer2_Pooling/Pooling_Stride_2_t"
	top: "Layer3a/Convolution_Inception5x5_reduce_t"
	convolution_param {
		num_output: 16
		pad: 0
		kernel_size: 1
		stride: 1
		weight_filler {
			type: "xavier"
		}
		bias_filler {
			type: "constant"
			value: 0.2
		}
	}
	param {
		lr_mult: 1
		decay_mult: 1
		name: "Layer3a/Convolution_Inception5x5_reduce_w"
	}
	param {
		lr_mult: 2
		decay_mult: 0
		name: "Layer3a/Convolution_Inception5x5_reduce_b"
	}
}

layer {
	name: "Layer3a/BatchNorm_Inception5x5_reduce_t"
	type: "BatchNorm"
	bottom: "Layer3a/Convolution_Inception5x5_reduce_t"
	top: "Layer3a/BatchNorm_Inception5x5_reduce_t"
	param {
		lr_mult: 0
	}
	param {
		lr_mult: 0
	}
	param {
		lr_mult: 0
	}
}

layer {
	name: "Layer3a/ReLU_Inception5x5_reduce_t"
	type: "ReLU"
	bottom: "Layer3a/BatchNorm_Inception5x5_reduce_t"
	top: "Layer3a/ReLU_Inception5x5_reduce_t"
}

layer {
	name: "Layer3a/Convolution_Inception5x5_t"
	type: "Convolution"
	bottom: "Layer3a/ReLU_Inception5x5_reduce_t"
	top: "Layer3a/Convolution_Inception5x5_t"
	convolution_param {
		num_output: 32
		pad: 2
		kernel_size: 5
		stride: 1
		weight_filler {
			type: "xavier"
		}
		bias_filler {
			type: "constant"
			value: 0.2
		}
	}
	param {
		lr_mult: 1
		decay_mult: 1
		name: "Layer3a/Convolution_Inception5x5_w"
	}
	param {
		lr_mult: 2
		decay_mult: 0
		name: "Layer3a/Convolution_Inception5x5_b"
	}
}

layer {
	name: "Layer3a/Pooling_Inception_Pool_t"
	type: "Pooling"
	bottom: "Layer2_Pooling/Pooling_Stride_2_t"
	top: "Layer3a/Pooling_Inception_Pool_t"
	pooling_param {
		pool: MAX
		kernel_size: 3
		stride: 1
		pad: 1
	}
}

layer {
	name: "Layer3a/Convolution_Inception_Pool_1x1_t"
	type: "Convolution"
	bottom: "Layer3a/Pooling_Inception_Pool_t"
	top: "Layer3a/Convolution_Inception_Pool_1x1_t"
	convolution_param {
		num_output: 32
		pad: 0
		kernel_size: 1
		stride: 1
		weight_filler {
			type: "xavier"
		}
		bias_filler {
			type: "constant"
			value: 0.2
		}
	}
	param {
		lr_mult: 1
		decay_mult: 1
		name: "Layer3a/Convolution_Inception_Pool_1x1_w"
	}
	param {
		lr_mult: 2
		decay_mult: 0
		name: "Layer3a/Convolution_Inception_Pool_1x1_b"
	}
}

layer {
	name: "Layer3a/Concat_Output_t"
	type: "Concat"
	bottom: "Layer3a/Convolution_Inception3x3_t"
	bottom: "Layer3a/Convolution_Inception5x5_t"
	bottom: "Layer3a/Convolution_Inception_Pool_1x1_t"
	top: "Layer3a/Concat_Output_t"
}

layer {
	name: "Layer3a/Eltwise_EltWise_t"
	type: "Eltwise"
	bottom: "Layer3a/Concat_Output_t"
	bottom: "Layer2_Pooling/Pooling_Stride_2_t"
	top: "Layer3a/Eltwise_EltWise_t"
	eltwise_param {
		operation: SUM
	}
}

layer {
	name: "Layer3a/ReLU_EltWise_t"
	type: "ReLU"
	bottom: "Layer3a/Eltwise_EltWise_t"
	top: "Layer3a/ReLU_EltWise_t"
}

# ================================================================================================
# ======== Layer3b
# ================================================================================================


layer {
	name: "Layer3b/Convolution_ResCeption1x1_t"
	type: "Convolution"
	bottom: "Layer3a/ReLU_EltWise_t"
	top: "Layer3b/Convolution_ResCeption1x1_t"
	convolution_param {
		num_output: 370
		pad: 0
		kernel_size: 1
		stride: 1
		weight_filler {
			type: "xavier"
		}
		bias_filler {
			type: "constant"
			value: 0.2
		}
	}
	param {
		lr_mult: 1
		decay_mult: 1
		name: "Layer3b/Convolution_ResCeption1x1_w"
	}
	param {
		lr_mult: 2
		decay_mult: 0
		name: "Layer3b/Convolution_ResCeption1x1_b"
	}
}

layer {
	name: "Layer3b/Convolution_Inception3x3_reduce_t"
	type: "Convolution"
	bottom: "Layer3a/ReLU_EltWise_t"
	top: "Layer3b/Convolution_Inception3x3_reduce_t"
	convolution_param {
		num_output: 134
		pad: 0
		kernel_size: 1
		stride: 1
		weight_filler {
			type: "xavier"
		}
		bias_filler {
			type: "constant"
			value: 0.2
		}
	}
	param {
		lr_mult: 1
		decay_mult: 1
		name: "Layer3b/Convolution_Inception3x3_reduce_w"
	}
	param {
		lr_mult: 2
		decay_mult: 0
		name: "Layer3b/Convolution_Inception3x3_reduce_b"
	}
}

layer {
	name: "Layer3b/BatchNorm_Inception3x3_reduce_t"
	type: "BatchNorm"
	bottom: "Layer3b/Convolution_Inception3x3_reduce_t"
	top: "Layer3b/BatchNorm_Inception3x3_reduce_t"
	param {
		lr_mult: 0
	}
	param {
		lr_mult: 0
	}
	param {
		lr_mult: 0
	}
}

layer {
	name: "Layer3b/ReLU_Inception3x3_reduce_t"
	type: "ReLU"
	bottom: "Layer3b/BatchNorm_Inception3x3_reduce_t"
	top: "Layer3b/ReLU_Inception3x3_reduce_t"
}

layer {
	name: "Layer3b/Convolution_Inception3x3_t"
	type: "Convolution"
	bottom: "Layer3b/ReLU_Inception3x3_reduce_t"
	top: "Layer3b/Convolution_Inception3x3_t"
	convolution_param {
		num_output: 202
		pad: 1
		kernel_size: 3
		stride: 1
		weight_filler {
			type: "xavier"
		}
		bias_filler {
			type: "constant"
			value: 0.2
		}
	}
	param {
		lr_mult: 1
		decay_mult: 1
		name: "Layer3b/Convolution_Inception3x3_w"
	}
	param {
		lr_mult: 2
		decay_mult: 0
		name: "Layer3b/Convolution_Inception3x3_b"
	}
}

layer {
	name: "Layer3b/Convolution_Inception5x5_reduce_t"
	type: "Convolution"
	bottom: "Layer3a/ReLU_EltWise_t"
	top: "Layer3b/Convolution_Inception5x5_reduce_t"
	convolution_param {
		num_output: 34
		pad: 0
		kernel_size: 1
		stride: 1
		weight_filler {
			type: "xavier"
		}
		bias_filler {
			type: "constant"
			value: 0.2
		}
	}
	param {
		lr_mult: 1
		decay_mult: 1
		name: "Layer3b/Convolution_Inception5x5_reduce_w"
	}
	param {
		lr_mult: 2
		decay_mult: 0
		name: "Layer3b/Convolution_Inception5x5_reduce_b"
	}
}

layer {
	name: "Layer3b/BatchNorm_Inception5x5_reduce_t"
	type: "BatchNorm"
	bottom: "Layer3b/Convolution_Inception5x5_reduce_t"
	top: "Layer3b/BatchNorm_Inception5x5_reduce_t"
	param {
		lr_mult: 0
	}
	param {
		lr_mult: 0
	}
	param {
		lr_mult: 0
	}
}

layer {
	name: "Layer3b/ReLU_Inception5x5_reduce_t"
	type: "ReLU"
	bottom: "Layer3b/BatchNorm_Inception5x5_reduce_t"
	top: "Layer3b/ReLU_Inception5x5_reduce_t"
}

layer {
	name: "Layer3b/Convolution_Inception5x5_t"
	type: "Convolution"
	bottom: "Layer3b/ReLU_Inception5x5_reduce_t"
	top: "Layer3b/Convolution_Inception5x5_t"
	convolution_param {
		num_output: 101
		pad: 2
		kernel_size: 5
		stride: 1
		weight_filler {
			type: "xavier"
		}
		bias_filler {
			type: "constant"
			value: 0.2
		}
	}
	param {
		lr_mult: 1
		decay_mult: 1
		name: "Layer3b/Convolution_Inception5x5_w"
	}
	param {
		lr_mult: 2
		decay_mult: 0
		name: "Layer3b/Convolution_Inception5x5_b"
	}
}

layer {
	name: "Layer3b/Pooling_Inception_Pool_t"
	type: "Pooling"
	bottom: "Layer3a/ReLU_EltWise_t"
	top: "Layer3b/Pooling_Inception_Pool_t"
	pooling_param {
		pool: MAX
		kernel_size: 3
		stride: 1
		pad: 1
	}
}

layer {
	name: "Layer3b/Convolution_Inception_Pool_1x1_t"
	type: "Convolution"
	bottom: "Layer3b/Pooling_Inception_Pool_t"
	top: "Layer3b/Convolution_Inception_Pool_1x1_t"
	convolution_param {
		num_output: 67
		pad: 0
		kernel_size: 1
		stride: 1
		weight_filler {
			type: "xavier"
		}
		bias_filler {
			type: "constant"
			value: 0.2
		}
	}
	param {
		lr_mult: 1
		decay_mult: 1
		name: "Layer3b/Convolution_Inception_Pool_1x1_w"
	}
	param {
		lr_mult: 2
		decay_mult: 0
		name: "Layer3b/Convolution_Inception_Pool_1x1_b"
	}
}

layer {
	name: "Layer3b/Concat_Output_t"
	type: "Concat"
	bottom: "Layer3b/Convolution_Inception3x3_t"
	bottom: "Layer3b/Convolution_Inception5x5_t"
	bottom: "Layer3b/Convolution_Inception_Pool_1x1_t"
	top: "Layer3b/Concat_Output_t"
}

layer {
	name: "Layer3b/Eltwise_EltWise_t"
	type: "Eltwise"
	bottom: "Layer3b/Concat_Output_t"
	bottom: "Layer3b/Convolution_ResCeption1x1_t"
	top: "Layer3b/Eltwise_EltWise_t"
	eltwise_param {
		operation: SUM
	}
}

layer {
	name: "Layer3b/BatchNorm_EltWise_t"
	type: "BatchNorm"
	bottom: "Layer3b/Eltwise_EltWise_t"
	top: "Layer3b/BatchNorm_EltWise_t"
	param {
		lr_mult: 0
	}
	param {
		lr_mult: 0
	}
	param {
		lr_mult: 0
	}
}

layer {
	name: "Layer3b/ReLU_EltWise_t"
	type: "ReLU"
	bottom: "Layer3b/BatchNorm_EltWise_t"
	top: "Layer3b/ReLU_EltWise_t"
}

layer {
	name: "Layer3_Pooling/Pooling_Stride_2_t"
	type: "Pooling"
	bottom: "Layer3b/ReLU_EltWise_t"
	top: "Layer3_Pooling/Pooling_Stride_2_t"
	pooling_param {
		pool: MAX
		kernel_size: 3
		stride: 2
		pad: 0
	}
}

# ================================================================================================
# ======== Layer4a
# ================================================================================================


layer {
	name: "Layer4a/Convolution_ResCeption1x1_t"
	type: "Convolution"
	bottom: "Layer3_Pooling/Pooling_Stride_2_t"
	top: "Layer4a/Convolution_ResCeption1x1_t"
	convolution_param {
		num_output: 352
		pad: 0
		kernel_size: 1
		stride: 1
		weight_filler {
			type: "xavier"
		}
		bias_filler {
			type: "constant"
			value: 0.2
		}
	}
	param {
		lr_mult: 1
		decay_mult: 1
		name: "Layer4a/Convolution_ResCeption1x1_w"
	}
	param {
		lr_mult: 2
		decay_mult: 0
		name: "Layer4a/Convolution_ResCeption1x1_b"
	}
}

layer {
	name: "Layer4a/Convolution_Inception3x3_reduce_t"
	type: "Convolution"
	bottom: "Layer3_Pooling/Pooling_Stride_2_t"
	top: "Layer4a/Convolution_Inception3x3_reduce_t"
	convolution_param {
		num_output: 106
		pad: 0
		kernel_size: 1
		stride: 1
		weight_filler {
			type: "xavier"
		}
		bias_filler {
			type: "constant"
			value: 0.2
		}
	}
	param {
		lr_mult: 1
		decay_mult: 1
		name: "Layer4a/Convolution_Inception3x3_reduce_w"
	}
	param {
		lr_mult: 2
		decay_mult: 0
		name: "Layer4a/Convolution_Inception3x3_reduce_b"
	}
}

layer {
	name: "Layer4a/BatchNorm_Inception3x3_reduce_t"
	type: "BatchNorm"
	bottom: "Layer4a/Convolution_Inception3x3_reduce_t"
	top: "Layer4a/BatchNorm_Inception3x3_reduce_t"
	param {
		lr_mult: 0
	}
	param {
		lr_mult: 0
	}
	param {
		lr_mult: 0
	}
}

layer {
	name: "Layer4a/ReLU_Inception3x3_reduce_t"
	type: "ReLU"
	bottom: "Layer4a/BatchNorm_Inception3x3_reduce_t"
	top: "Layer4a/ReLU_Inception3x3_reduce_t"
}

layer {
	name: "Layer4a/Convolution_Inception3x3_t"
	type: "Convolution"
	bottom: "Layer4a/ReLU_Inception3x3_reduce_t"
	top: "Layer4a/Convolution_Inception3x3_t"
	convolution_param {
		num_output: 229
		pad: 1
		kernel_size: 3
		stride: 1
		weight_filler {
			type: "xavier"
		}
		bias_filler {
			type: "constant"
			value: 0.2
		}
	}
	param {
		lr_mult: 1
		decay_mult: 1
		name: "Layer4a/Convolution_Inception3x3_w"
	}
	param {
		lr_mult: 2
		decay_mult: 0
		name: "Layer4a/Convolution_Inception3x3_b"
	}
}

layer {
	name: "Layer4a/Convolution_Inception5x5_reduce_t"
	type: "Convolution"
	bottom: "Layer3_Pooling/Pooling_Stride_2_t"
	top: "Layer4a/Convolution_Inception5x5_reduce_t"
	convolution_param {
		num_output: 18
		pad: 0
		kernel_size: 1
		stride: 1
		weight_filler {
			type: "xavier"
		}
		bias_filler {
			type: "constant"
			value: 0.2
		}
	}
	param {
		lr_mult: 1
		decay_mult: 1
		name: "Layer4a/Convolution_Inception5x5_reduce_w"
	}
	param {
		lr_mult: 2
		decay_mult: 0
		name: "Layer4a/Convolution_Inception5x5_reduce_b"
	}
}

layer {
	name: "Layer4a/BatchNorm_Inception5x5_reduce_t"
	type: "BatchNorm"
	bottom: "Layer4a/Convolution_Inception5x5_reduce_t"
	top: "Layer4a/BatchNorm_Inception5x5_reduce_t"
	param {
		lr_mult: 0
	}
	param {
		lr_mult: 0
	}
	param {
		lr_mult: 0
	}
}

layer {
	name: "Layer4a/ReLU_Inception5x5_reduce_t"
	type: "ReLU"
	bottom: "Layer4a/BatchNorm_Inception5x5_reduce_t"
	top: "Layer4a/ReLU_Inception5x5_reduce_t"
}

layer {
	name: "Layer4a/Convolution_Inception5x5_t"
	type: "Convolution"
	bottom: "Layer4a/ReLU_Inception5x5_reduce_t"
	top: "Layer4a/Convolution_Inception5x5_t"
	convolution_param {
		num_output: 53
		pad: 2
		kernel_size: 5
		stride: 1
		weight_filler {
			type: "xavier"
		}
		bias_filler {
			type: "constant"
			value: 0.2
		}
	}
	param {
		lr_mult: 1
		decay_mult: 1
		name: "Layer4a/Convolution_Inception5x5_w"
	}
	param {
		lr_mult: 2
		decay_mult: 0
		name: "Layer4a/Convolution_Inception5x5_b"
	}
}

layer {
	name: "Layer4a/Pooling_Inception_Pool_t"
	type: "Pooling"
	bottom: "Layer3_Pooling/Pooling_Stride_2_t"
	top: "Layer4a/Pooling_Inception_Pool_t"
	pooling_param {
		pool: MAX
		kernel_size: 3
		stride: 1
		pad: 1
	}
}

layer {
	name: "Layer4a/Convolution_Inception_Pool_1x1_t"
	type: "Convolution"
	bottom: "Layer4a/Pooling_Inception_Pool_t"
	top: "Layer4a/Convolution_Inception_Pool_1x1_t"
	convolution_param {
		num_output: 70
		pad: 0
		kernel_size: 1
		stride: 1
		weight_filler {
			type: "xavier"
		}
		bias_filler {
			type: "constant"
			value: 0.2
		}
	}
	param {
		lr_mult: 1
		decay_mult: 1
		name: "Layer4a/Convolution_Inception_Pool_1x1_w"
	}
	param {
		lr_mult: 2
		decay_mult: 0
		name: "Layer4a/Convolution_Inception_Pool_1x1_b"
	}
}

layer {
	name: "Layer4a/Concat_Output_t"
	type: "Concat"
	bottom: "Layer4a/Convolution_Inception3x3_t"
	bottom: "Layer4a/Convolution_Inception5x5_t"
	bottom: "Layer4a/Convolution_Inception_Pool_1x1_t"
	top: "Layer4a/Concat_Output_t"
}

layer {
	name: "Layer4a/Eltwise_EltWise_t"
	type: "Eltwise"
	bottom: "Layer4a/Concat_Output_t"
	bottom: "Layer4a/Convolution_ResCeption1x1_t"
	top: "Layer4a/Eltwise_EltWise_t"
	eltwise_param {
		operation: SUM
	}
}

layer {
	name: "Layer4a/BatchNorm_EltWise_t"
	type: "BatchNorm"
	bottom: "Layer4a/Eltwise_EltWise_t"
	top: "Layer4a/BatchNorm_EltWise_t"
	param {
		lr_mult: 0
	}
	param {
		lr_mult: 0
	}
	param {
		lr_mult: 0
	}
}

layer {
	name: "Layer4a/ReLU_EltWise_t"
	type: "ReLU"
	bottom: "Layer4a/BatchNorm_EltWise_t"
	top: "Layer4a/ReLU_EltWise_t"
}

# ================================================================================================
# ======== Layer4b
# ================================================================================================


layer {
	name: "Layer4b/Convolution_ResCeption1x1_t"
	type: "Convolution"
	bottom: "Layer4a/ReLU_EltWise_t"
	top: "Layer4b/Convolution_ResCeption1x1_t"
	convolution_param {
		num_output: 406
		pad: 0
		kernel_size: 1
		stride: 1
		weight_filler {
			type: "xavier"
		}
		bias_filler {
			type: "constant"
			value: 0.2
		}
	}
	param {
		lr_mult: 1
		decay_mult: 1
		name: "Layer4b/Convolution_ResCeption1x1_w"
	}
	param {
		lr_mult: 2
		decay_mult: 0
		name: "Layer4b/Convolution_ResCeption1x1_b"
	}
}

layer {
	name: "Layer4b/Convolution_Inception3x3_reduce_t"
	type: "Convolution"
	bottom: "Layer4a/ReLU_EltWise_t"
	top: "Layer4b/Convolution_Inception3x3_reduce_t"
	convolution_param {
		num_output: 129
		pad: 0
		kernel_size: 1
		stride: 1
		weight_filler {
			type: "xavier"
		}
		bias_filler {
			type: "constant"
			value: 0.2
		}
	}
	param {
		lr_mult: 1
		decay_mult: 1
		name: "Layer4b/Convolution_Inception3x3_reduce_w"
	}
	param {
		lr_mult: 2
		decay_mult: 0
		name: "Layer4b/Convolution_Inception3x3_reduce_b"
	}
}

layer {
	name: "Layer4b/BatchNorm_Inception3x3_reduce_t"
	type: "BatchNorm"
	bottom: "Layer4b/Convolution_Inception3x3_reduce_t"
	top: "Layer4b/BatchNorm_Inception3x3_reduce_t"
	param {
		lr_mult: 0
	}
	param {
		lr_mult: 0
	}
	param {
		lr_mult: 0
	}
}

layer {
	name: "Layer4b/ReLU_Inception3x3_reduce_t"
	type: "ReLU"
	bottom: "Layer4b/BatchNorm_Inception3x3_reduce_t"
	top: "Layer4b/ReLU_Inception3x3_reduce_t"
}

layer {
	name: "Layer4b/Convolution_Inception3x3_t"
	type: "Convolution"
	bottom: "Layer4b/ReLU_Inception3x3_reduce_t"
	top: "Layer4b/Convolution_Inception3x3_t"
	convolution_param {
		num_output: 258
		pad: 1
		kernel_size: 3
		stride: 1
		weight_filler {
			type: "xavier"
		}
		bias_filler {
			type: "constant"
			value: 0.2
		}
	}
	param {
		lr_mult: 1
		decay_mult: 1
		name: "Layer4b/Convolution_Inception3x3_w"
	}
	param {
		lr_mult: 2
		decay_mult: 0
		name: "Layer4b/Convolution_Inception3x3_b"
	}
}

layer {
	name: "Layer4b/Convolution_Inception5x5_reduce_t"
	type: "Convolution"
	bottom: "Layer4a/ReLU_EltWise_t"
	top: "Layer4b/Convolution_Inception5x5_reduce_t"
	convolution_param {
		num_output: 28
		pad: 0
		kernel_size: 1
		stride: 1
		weight_filler {
			type: "xavier"
		}
		bias_filler {
			type: "constant"
			value: 0.2
		}
	}
	param {
		lr_mult: 1
		decay_mult: 1
		name: "Layer4b/Convolution_Inception5x5_reduce_w"
	}
	param {
		lr_mult: 2
		decay_mult: 0
		name: "Layer4b/Convolution_Inception5x5_reduce_b"
	}
}

layer {
	name: "Layer4b/BatchNorm_Inception5x5_reduce_t"
	type: "BatchNorm"
	bottom: "Layer4b/Convolution_Inception5x5_reduce_t"
	top: "Layer4b/BatchNorm_Inception5x5_reduce_t"
	param {
		lr_mult: 0
	}
	param {
		lr_mult: 0
	}
	param {
		lr_mult: 0
	}
}

layer {
	name: "Layer4b/ReLU_Inception5x5_reduce_t"
	type: "ReLU"
	bottom: "Layer4b/BatchNorm_Inception5x5_reduce_t"
	top: "Layer4b/ReLU_Inception5x5_reduce_t"
}

layer {
	name: "Layer4b/Convolution_Inception5x5_t"
	type: "Convolution"
	bottom: "Layer4b/ReLU_Inception5x5_reduce_t"
	top: "Layer4b/Convolution_Inception5x5_t"
	convolution_param {
		num_output: 74
		pad: 2
		kernel_size: 5
		stride: 1
		weight_filler {
			type: "xavier"
		}
		bias_filler {
			type: "constant"
			value: 0.2
		}
	}
	param {
		lr_mult: 1
		decay_mult: 1
		name: "Layer4b/Convolution_Inception5x5_w"
	}
	param {
		lr_mult: 2
		decay_mult: 0
		name: "Layer4b/Convolution_Inception5x5_b"
	}
}

layer {
	name: "Layer4b/Pooling_Inception_Pool_t"
	type: "Pooling"
	bottom: "Layer4a/ReLU_EltWise_t"
	top: "Layer4b/Pooling_Inception_Pool_t"
	pooling_param {
		pool: MAX
		kernel_size: 3
		stride: 1
		pad: 1
	}
}

layer {
	name: "Layer4b/Convolution_Inception_Pool_1x1_t"
	type: "Convolution"
	bottom: "Layer4b/Pooling_Inception_Pool_t"
	top: "Layer4b/Convolution_Inception_Pool_1x1_t"
	convolution_param {
		num_output: 74
		pad: 0
		kernel_size: 1
		stride: 1
		weight_filler {
			type: "xavier"
		}
		bias_filler {
			type: "constant"
			value: 0.2
		}
	}
	param {
		lr_mult: 1
		decay_mult: 1
		name: "Layer4b/Convolution_Inception_Pool_1x1_w"
	}
	param {
		lr_mult: 2
		decay_mult: 0
		name: "Layer4b/Convolution_Inception_Pool_1x1_b"
	}
}

layer {
	name: "Layer4b/Concat_Output_t"
	type: "Concat"
	bottom: "Layer4b/Convolution_Inception3x3_t"
	bottom: "Layer4b/Convolution_Inception5x5_t"
	bottom: "Layer4b/Convolution_Inception_Pool_1x1_t"
	top: "Layer4b/Concat_Output_t"
}

layer {
	name: "Layer4b/Eltwise_EltWise_t"
	type: "Eltwise"
	bottom: "Layer4b/Concat_Output_t"
	bottom: "Layer4b/Convolution_ResCeption1x1_t"
	top: "Layer4b/Eltwise_EltWise_t"
	eltwise_param {
		operation: SUM
	}
}

layer {
	name: "Layer4b/BatchNorm_EltWise_t"
	type: "BatchNorm"
	bottom: "Layer4b/Eltwise_EltWise_t"
	top: "Layer4b/BatchNorm_EltWise_t"
	param {
		lr_mult: 0
	}
	param {
		lr_mult: 0
	}
	param {
		lr_mult: 0
	}
}

layer {
	name: "Layer4b/ReLU_EltWise_t"
	type: "ReLU"
	bottom: "Layer4b/BatchNorm_EltWise_t"
	top: "Layer4b/ReLU_EltWise_t"
}

# ================================================================================================
# ======== Layer4c
# ================================================================================================


layer {
	name: "Layer4c/Convolution_ResCeption1x1_t"
	type: "Convolution"
	bottom: "Layer4b/ReLU_EltWise_t"
	top: "Layer4c/Convolution_ResCeption1x1_t"
	convolution_param {
		num_output: 461
		pad: 0
		kernel_size: 1
		stride: 1
		weight_filler {
			type: "xavier"
		}
		bias_filler {
			type: "constant"
			value: 0.2
		}
	}
	param {
		lr_mult: 1
		decay_mult: 1
		name: "Layer4c/Convolution_ResCeption1x1_w"
	}
	param {
		lr_mult: 2
		decay_mult: 0
		name: "Layer4c/Convolution_ResCeption1x1_b"
	}
}

layer {
	name: "Layer4c/Convolution_Inception3x3_reduce_t"
	type: "Convolution"
	bottom: "Layer4b/ReLU_EltWise_t"
	top: "Layer4c/Convolution_Inception3x3_reduce_t"
	convolution_param {
		num_output: 154
		pad: 0
		kernel_size: 1
		stride: 1
		weight_filler {
			type: "xavier"
		}
		bias_filler {
			type: "constant"
			value: 0.2
		}
	}
	param {
		lr_mult: 1
		decay_mult: 1
		name: "Layer4c/Convolution_Inception3x3_reduce_w"
	}
	param {
		lr_mult: 2
		decay_mult: 0
		name: "Layer4c/Convolution_Inception3x3_reduce_b"
	}
}

layer {
	name: "Layer4c/BatchNorm_Inception3x3_reduce_t"
	type: "BatchNorm"
	bottom: "Layer4c/Convolution_Inception3x3_reduce_t"
	top: "Layer4c/BatchNorm_Inception3x3_reduce_t"
	param {
		lr_mult: 0
	}
	param {
		lr_mult: 0
	}
	param {
		lr_mult: 0
	}
}

layer {
	name: "Layer4c/ReLU_Inception3x3_reduce_t"
	type: "ReLU"
	bottom: "Layer4c/BatchNorm_Inception3x3_reduce_t"
	top: "Layer4c/ReLU_Inception3x3_reduce_t"
}

layer {
	name: "Layer4c/Convolution_Inception3x3_t"
	type: "Convolution"
	bottom: "Layer4c/ReLU_Inception3x3_reduce_t"
	top: "Layer4c/Convolution_Inception3x3_t"
	convolution_param {
		num_output: 307
		pad: 1
		kernel_size: 3
		stride: 1
		weight_filler {
			type: "xavier"
		}
		bias_filler {
			type: "constant"
			value: 0.2
		}
	}
	param {
		lr_mult: 1
		decay_mult: 1
		name: "Layer4c/Convolution_Inception3x3_w"
	}
	param {
		lr_mult: 2
		decay_mult: 0
		name: "Layer4c/Convolution_Inception3x3_b"
	}
}

layer {
	name: "Layer4c/Convolution_Inception5x5_reduce_t"
	type: "Convolution"
	bottom: "Layer4b/ReLU_EltWise_t"
	top: "Layer4c/Convolution_Inception5x5_reduce_t"
	convolution_param {
		num_output: 29
		pad: 0
		kernel_size: 1
		stride: 1
		weight_filler {
			type: "xavier"
		}
		bias_filler {
			type: "constant"
			value: 0.2
		}
	}
	param {
		lr_mult: 1
		decay_mult: 1
		name: "Layer4c/Convolution_Inception5x5_reduce_w"
	}
	param {
		lr_mult: 2
		decay_mult: 0
		name: "Layer4c/Convolution_Inception5x5_reduce_b"
	}
}

layer {
	name: "Layer4c/BatchNorm_Inception5x5_reduce_t"
	type: "BatchNorm"
	bottom: "Layer4c/Convolution_Inception5x5_reduce_t"
	top: "Layer4c/BatchNorm_Inception5x5_reduce_t"
	param {
		lr_mult: 0
	}
	param {
		lr_mult: 0
	}
	param {
		lr_mult: 0
	}
}

layer {
	name: "Layer4c/ReLU_Inception5x5_reduce_t"
	type: "ReLU"
	bottom: "Layer4c/BatchNorm_Inception5x5_reduce_t"
	top: "Layer4c/ReLU_Inception5x5_reduce_t"
}

layer {
	name: "Layer4c/Convolution_Inception5x5_t"
	type: "Convolution"
	bottom: "Layer4c/ReLU_Inception5x5_reduce_t"
	top: "Layer4c/Convolution_Inception5x5_t"
	convolution_param {
		num_output: 77
		pad: 2
		kernel_size: 5
		stride: 1
		weight_filler {
			type: "xavier"
		}
		bias_filler {
			type: "constant"
			value: 0.2
		}
	}
	param {
		lr_mult: 1
		decay_mult: 1
		name: "Layer4c/Convolution_Inception5x5_w"
	}
	param {
		lr_mult: 2
		decay_mult: 0
		name: "Layer4c/Convolution_Inception5x5_b"
	}
}

layer {
	name: "Layer4c/Pooling_Inception_Pool_t"
	type: "Pooling"
	bottom: "Layer4b/ReLU_EltWise_t"
	top: "Layer4c/Pooling_Inception_Pool_t"
	pooling_param {
		pool: MAX
		kernel_size: 3
		stride: 1
		pad: 1
	}
}

layer {
	name: "Layer4c/Convolution_Inception_Pool_1x1_t"
	type: "Convolution"
	bottom: "Layer4c/Pooling_Inception_Pool_t"
	top: "Layer4c/Convolution_Inception_Pool_1x1_t"
	convolution_param {
		num_output: 77
		pad: 0
		kernel_size: 1
		stride: 1
		weight_filler {
			type: "xavier"
		}
		bias_filler {
			type: "constant"
			value: 0.2
		}
	}
	param {
		lr_mult: 1
		decay_mult: 1
		name: "Layer4c/Convolution_Inception_Pool_1x1_w"
	}
	param {
		lr_mult: 2
		decay_mult: 0
		name: "Layer4c/Convolution_Inception_Pool_1x1_b"
	}
}

layer {
	name: "Layer4c/Concat_Output_t"
	type: "Concat"
	bottom: "Layer4c/Convolution_Inception3x3_t"
	bottom: "Layer4c/Convolution_Inception5x5_t"
	bottom: "Layer4c/Convolution_Inception_Pool_1x1_t"
	top: "Layer4c/Concat_Output_t"
}

layer {
	name: "Layer4c/Eltwise_EltWise_t"
	type: "Eltwise"
	bottom: "Layer4c/Concat_Output_t"
	bottom: "Layer4c/Convolution_ResCeption1x1_t"
	top: "Layer4c/Eltwise_EltWise_t"
	eltwise_param {
		operation: SUM
	}
}

layer {
	name: "Layer4c/BatchNorm_EltWise_t"
	type: "BatchNorm"
	bottom: "Layer4c/Eltwise_EltWise_t"
	top: "Layer4c/BatchNorm_EltWise_t"
	param {
		lr_mult: 0
	}
	param {
		lr_mult: 0
	}
	param {
		lr_mult: 0
	}
}

layer {
	name: "Layer4c/ReLU_EltWise_t"
	type: "ReLU"
	bottom: "Layer4c/BatchNorm_EltWise_t"
	top: "Layer4c/ReLU_EltWise_t"
}

# ================================================================================================
# ======== Layer4d
# ================================================================================================


layer {
	name: "Layer4d/Convolution_ResCeption1x1_t"
	type: "Convolution"
	bottom: "Layer4c/ReLU_EltWise_t"
	top: "Layer4d/Convolution_ResCeption1x1_t"
	convolution_param {
		num_output: 540
		pad: 0
		kernel_size: 1
		stride: 1
		weight_filler {
			type: "xavier"
		}
		bias_filler {
			type: "constant"
			value: 0.2
		}
	}
	param {
		lr_mult: 1
		decay_mult: 1
		name: "Layer4d/Convolution_ResCeption1x1_w"
	}
	param {
		lr_mult: 2
		decay_mult: 0
		name: "Layer4d/Convolution_ResCeption1x1_b"
	}
}

layer {
	name: "Layer4d/Convolution_Inception3x3_reduce_t"
	type: "Convolution"
	bottom: "Layer4c/ReLU_EltWise_t"
	top: "Layer4d/Convolution_Inception3x3_reduce_t"
	convolution_param {
		num_output: 187
		pad: 0
		kernel_size: 1
		stride: 1
		weight_filler {
			type: "xavier"
		}
		bias_filler {
			type: "constant"
			value: 0.2
		}
	}
	param {
		lr_mult: 1
		decay_mult: 1
		name: "Layer4d/Convolution_Inception3x3_reduce_w"
	}
	param {
		lr_mult: 2
		decay_mult: 0
		name: "Layer4d/Convolution_Inception3x3_reduce_b"
	}
}

layer {
	name: "Layer4d/BatchNorm_Inception3x3_reduce_t"
	type: "BatchNorm"
	bottom: "Layer4d/Convolution_Inception3x3_reduce_t"
	top: "Layer4d/BatchNorm_Inception3x3_reduce_t"
	param {
		lr_mult: 0
	}
	param {
		lr_mult: 0
	}
	param {
		lr_mult: 0
	}
}

layer {
	name: "Layer4d/ReLU_Inception3x3_reduce_t"
	type: "ReLU"
	bottom: "Layer4d/BatchNorm_Inception3x3_reduce_t"
	top: "Layer4d/ReLU_Inception3x3_reduce_t"
}

layer {
	name: "Layer4d/Convolution_Inception3x3_t"
	type: "Convolution"
	bottom: "Layer4d/ReLU_Inception3x3_reduce_t"
	top: "Layer4d/Convolution_Inception3x3_t"
	convolution_param {
		num_output: 374
		pad: 1
		kernel_size: 3
		stride: 1
		weight_filler {
			type: "xavier"
		}
		bias_filler {
			type: "constant"
			value: 0.2
		}
	}
	param {
		lr_mult: 1
		decay_mult: 1
		name: "Layer4d/Convolution_Inception3x3_w"
	}
	param {
		lr_mult: 2
		decay_mult: 0
		name: "Layer4d/Convolution_Inception3x3_b"
	}
}

layer {
	name: "Layer4d/Convolution_Inception5x5_reduce_t"
	type: "Convolution"
	bottom: "Layer4c/ReLU_EltWise_t"
	top: "Layer4d/Convolution_Inception5x5_reduce_t"
	convolution_param {
		num_output: 42
		pad: 0
		kernel_size: 1
		stride: 1
		weight_filler {
			type: "xavier"
		}
		bias_filler {
			type: "constant"
			value: 0.2
		}
	}
	param {
		lr_mult: 1
		decay_mult: 1
		name: "Layer4d/Convolution_Inception5x5_reduce_w"
	}
	param {
		lr_mult: 2
		decay_mult: 0
		name: "Layer4d/Convolution_Inception5x5_reduce_b"
	}
}

layer {
	name: "Layer4d/BatchNorm_Inception5x5_reduce_t"
	type: "BatchNorm"
	bottom: "Layer4d/Convolution_Inception5x5_reduce_t"
	top: "Layer4d/BatchNorm_Inception5x5_reduce_t"
	param {
		lr_mult: 0
	}
	param {
		lr_mult: 0
	}
	param {
		lr_mult: 0
	}
}

layer {
	name: "Layer4d/ReLU_Inception5x5_reduce_t"
	type: "ReLU"
	bottom: "Layer4d/BatchNorm_Inception5x5_reduce_t"
	top: "Layer4d/ReLU_Inception5x5_reduce_t"
}

layer {
	name: "Layer4d/Convolution_Inception5x5_t"
	type: "Convolution"
	bottom: "Layer4d/ReLU_Inception5x5_reduce_t"
	top: "Layer4d/Convolution_Inception5x5_t"
	convolution_param {
		num_output: 83
		pad: 2
		kernel_size: 5
		stride: 1
		weight_filler {
			type: "xavier"
		}
		bias_filler {
			type: "constant"
			value: 0.2
		}
	}
	param {
		lr_mult: 1
		decay_mult: 1
		name: "Layer4d/Convolution_Inception5x5_w"
	}
	param {
		lr_mult: 2
		decay_mult: 0
		name: "Layer4d/Convolution_Inception5x5_b"
	}
}

layer {
	name: "Layer4d/Pooling_Inception_Pool_t"
	type: "Pooling"
	bottom: "Layer4c/ReLU_EltWise_t"
	top: "Layer4d/Pooling_Inception_Pool_t"
	pooling_param {
		pool: MAX
		kernel_size: 3
		stride: 1
		pad: 1
	}
}

layer {
	name: "Layer4d/Convolution_Inception_Pool_1x1_t"
	type: "Convolution"
	bottom: "Layer4d/Pooling_Inception_Pool_t"
	top: "Layer4d/Convolution_Inception_Pool_1x1_t"
	convolution_param {
		num_output: 83
		pad: 0
		kernel_size: 1
		stride: 1
		weight_filler {
			type: "xavier"
		}
		bias_filler {
			type: "constant"
			value: 0.2
		}
	}
	param {
		lr_mult: 1
		decay_mult: 1
		name: "Layer4d/Convolution_Inception_Pool_1x1_w"
	}
	param {
		lr_mult: 2
		decay_mult: 0
		name: "Layer4d/Convolution_Inception_Pool_1x1_b"
	}
}

layer {
	name: "Layer4d/Concat_Output_t"
	type: "Concat"
	bottom: "Layer4d/Convolution_Inception3x3_t"
	bottom: "Layer4d/Convolution_Inception5x5_t"
	bottom: "Layer4d/Convolution_Inception_Pool_1x1_t"
	top: "Layer4d/Concat_Output_t"
}

layer {
	name: "Layer4d/Eltwise_EltWise_t"
	type: "Eltwise"
	bottom: "Layer4d/Concat_Output_t"
	bottom: "Layer4d/Convolution_ResCeption1x1_t"
	top: "Layer4d/Eltwise_EltWise_t"
	eltwise_param {
		operation: SUM
	}
}

layer {
	name: "Layer4d/BatchNorm_EltWise_t"
	type: "BatchNorm"
	bottom: "Layer4d/Eltwise_EltWise_t"
	top: "Layer4d/BatchNorm_EltWise_t"
	param {
		lr_mult: 0
	}
	param {
		lr_mult: 0
	}
	param {
		lr_mult: 0
	}
}

layer {
	name: "Layer4d/ReLU_EltWise_t"
	type: "ReLU"
	bottom: "Layer4d/BatchNorm_EltWise_t"
	top: "Layer4d/ReLU_EltWise_t"
}

# ================================================================================================
# ======== Layer4e
# ================================================================================================


layer {
	name: "Layer4e/Convolution_ResCeption1x1_t"
	type: "Convolution"
	bottom: "Layer4d/ReLU_EltWise_t"
	top: "Layer4e/Convolution_ResCeption1x1_t"
	convolution_param {
		num_output: 806
		pad: 0
		kernel_size: 1
		stride: 1
		weight_filler {
			type: "xavier"
		}
		bias_filler {
			type: "constant"
			value: 0.2
		}
	}
	param {
		lr_mult: 1
		decay_mult: 1
		name: "Layer4e/Convolution_ResCeption1x1_w"
	}
	param {
		lr_mult: 2
		decay_mult: 0
		name: "Layer4e/Convolution_ResCeption1x1_b"
	}
}

layer {
	name: "Layer4e/Convolution_Inception3x3_reduce_t"
	type: "Convolution"
	bottom: "Layer4d/ReLU_EltWise_t"
	top: "Layer4e/Convolution_Inception3x3_reduce_t"
	convolution_param {
		num_output: 224
		pad: 0
		kernel_size: 1
		stride: 1
		weight_filler {
			type: "xavier"
		}
		bias_filler {
			type: "constant"
			value: 0.2
		}
	}
	param {
		lr_mult: 1
		decay_mult: 1
		name: "Layer4e/Convolution_Inception3x3_reduce_w"
	}
	param {
		lr_mult: 2
		decay_mult: 0
		name: "Layer4e/Convolution_Inception3x3_reduce_b"
	}
}

layer {
	name: "Layer4e/BatchNorm_Inception3x3_reduce_t"
	type: "BatchNorm"
	bottom: "Layer4e/Convolution_Inception3x3_reduce_t"
	top: "Layer4e/BatchNorm_Inception3x3_reduce_t"
	param {
		lr_mult: 0
	}
	param {
		lr_mult: 0
	}
	param {
		lr_mult: 0
	}
}

layer {
	name: "Layer4e/ReLU_Inception3x3_reduce_t"
	type: "ReLU"
	bottom: "Layer4e/BatchNorm_Inception3x3_reduce_t"
	top: "Layer4e/ReLU_Inception3x3_reduce_t"
}

layer {
	name: "Layer4e/Convolution_Inception3x3_t"
	type: "Convolution"
	bottom: "Layer4e/ReLU_Inception3x3_reduce_t"
	top: "Layer4e/Convolution_Inception3x3_t"
	convolution_param {
		num_output: 448
		pad: 1
		kernel_size: 3
		stride: 1
		weight_filler {
			type: "xavier"
		}
		bias_filler {
			type: "constant"
			value: 0.2
		}
	}
	param {
		lr_mult: 1
		decay_mult: 1
		name: "Layer4e/Convolution_Inception3x3_w"
	}
	param {
		lr_mult: 2
		decay_mult: 0
		name: "Layer4e/Convolution_Inception3x3_b"
	}
}

layer {
	name: "Layer4e/Convolution_Inception5x5_reduce_t"
	type: "Convolution"
	bottom: "Layer4d/ReLU_EltWise_t"
	top: "Layer4e/Convolution_Inception5x5_reduce_t"
	convolution_param {
		num_output: 45
		pad: 0
		kernel_size: 1
		stride: 1
		weight_filler {
			type: "xavier"
		}
		bias_filler {
			type: "constant"
			value: 0.2
		}
	}
	param {
		lr_mult: 1
		decay_mult: 1
		name: "Layer4e/Convolution_Inception5x5_reduce_w"
	}
	param {
		lr_mult: 2
		decay_mult: 0
		name: "Layer4e/Convolution_Inception5x5_reduce_b"
	}
}

layer {
	name: "Layer4e/BatchNorm_Inception5x5_reduce_t"
	type: "BatchNorm"
	bottom: "Layer4e/Convolution_Inception5x5_reduce_t"
	top: "Layer4e/BatchNorm_Inception5x5_reduce_t"
	param {
		lr_mult: 0
	}
	param {
		lr_mult: 0
	}
	param {
		lr_mult: 0
	}
}

layer {
	name: "Layer4e/ReLU_Inception5x5_reduce_t"
	type: "ReLU"
	bottom: "Layer4e/BatchNorm_Inception5x5_reduce_t"
	top: "Layer4e/ReLU_Inception5x5_reduce_t"
}

layer {
	name: "Layer4e/Convolution_Inception5x5_t"
	type: "Convolution"
	bottom: "Layer4e/ReLU_Inception5x5_reduce_t"
	top: "Layer4e/Convolution_Inception5x5_t"
	convolution_param {
		num_output: 179
		pad: 2
		kernel_size: 5
		stride: 1
		weight_filler {
			type: "xavier"
		}
		bias_filler {
			type: "constant"
			value: 0.2
		}
	}
	param {
		lr_mult: 1
		decay_mult: 1
		name: "Layer4e/Convolution_Inception5x5_w"
	}
	param {
		lr_mult: 2
		decay_mult: 0
		name: "Layer4e/Convolution_Inception5x5_b"
	}
}

layer {
	name: "Layer4e/Pooling_Inception_Pool_t"
	type: "Pooling"
	bottom: "Layer4d/ReLU_EltWise_t"
	top: "Layer4e/Pooling_Inception_Pool_t"
	pooling_param {
		pool: MAX
		kernel_size: 3
		stride: 1
		pad: 1
	}
}

layer {
	name: "Layer4e/Convolution_Inception_Pool_1x1_t"
	type: "Convolution"
	bottom: "Layer4e/Pooling_Inception_Pool_t"
	top: "Layer4e/Convolution_Inception_Pool_1x1_t"
	convolution_param {
		num_output: 179
		pad: 0
		kernel_size: 1
		stride: 1
		weight_filler {
			type: "xavier"
		}
		bias_filler {
			type: "constant"
			value: 0.2
		}
	}
	param {
		lr_mult: 1
		decay_mult: 1
		name: "Layer4e/Convolution_Inception_Pool_1x1_w"
	}
	param {
		lr_mult: 2
		decay_mult: 0
		name: "Layer4e/Convolution_Inception_Pool_1x1_b"
	}
}

layer {
	name: "Layer4e/Concat_Output_t"
	type: "Concat"
	bottom: "Layer4e/Convolution_Inception3x3_t"
	bottom: "Layer4e/Convolution_Inception5x5_t"
	bottom: "Layer4e/Convolution_Inception_Pool_1x1_t"
	top: "Layer4e/Concat_Output_t"
}

layer {
	name: "Layer4e/Eltwise_EltWise_t"
	type: "Eltwise"
	bottom: "Layer4e/Concat_Output_t"
	bottom: "Layer4e/Convolution_ResCeption1x1_t"
	top: "Layer4e/Eltwise_EltWise_t"
	eltwise_param {
		operation: SUM
	}
}

layer {
	name: "Layer4e/BatchNorm_EltWise_t"
	type: "BatchNorm"
	bottom: "Layer4e/Eltwise_EltWise_t"
	top: "Layer4e/BatchNorm_EltWise_t"
	param {
		lr_mult: 0
	}
	param {
		lr_mult: 0
	}
	param {
		lr_mult: 0
	}
}

layer {
	name: "Layer4e/ReLU_EltWise_t"
	type: "ReLU"
	bottom: "Layer4e/BatchNorm_EltWise_t"
	top: "Layer4e/ReLU_EltWise_t"
}

# ================================================================================================
# ======== NEW STUFF
# ================================================================================================

layer {
	name: "Layer4_Pooling/Pooling_Stride_2_t"
	type: "Pooling"
	bottom: "Layer4e/ReLU_EltWise_t"
	top: "Layer4_Pooling/Pooling_Stride_2_t"
	pooling_param {
		pool: MAX
		kernel_size: 3
		stride: 2
		pad: 0
	}
}

# ================================================================================================
# ======== Layer5a
# ================================================================================================


layer {
	name: "Layer5a/Convolution_ResCeption1x1_t"
	type: "Convolution"
	bottom: "Layer4_Pooling/Pooling_Stride_2_t"
	top: "Layer5a/Convolution_ResCeption1x1_t"
	convolution_param {
		num_output: 864
		pad: 0
		kernel_size: 1
		stride: 1
		weight_filler {
			type: "xavier"
		}
		bias_filler {
			type: "constant"
			value: 0.2
		}
	}
	param {
		lr_mult: 1
		decay_mult: 1
		name: "Layer5a/Convolution_ResCeption1x1_w"
	}
	param {
		lr_mult: 2
		decay_mult: 0
		name: "Layer5a/Convolution_ResCeption1x1_b"
	}
}

layer {
	name: "Layer5a/Convolution_Inception3x3_reduce_t"
	type: "Convolution"
	bottom: "Layer4_Pooling/Pooling_Stride_2_t"
	top: "Layer5a/Convolution_Inception3x3_reduce_t"
	convolution_param {
		num_output: 240
		pad: 0
		kernel_size: 1
		stride: 1
		weight_filler {
			type: "xavier"
		}
		bias_filler {
			type: "constant"
			value: 0.2
		}
	}
	param {
		lr_mult: 1
		decay_mult: 1
		name: "Layer5a/Convolution_Inception3x3_reduce_w"
	}
	param {
		lr_mult: 2
		decay_mult: 0
		name: "Layer5a/Convolution_Inception3x3_reduce_b"
	}
}

layer {
	name: "Layer5a/BatchNorm_Inception3x3_reduce_t"
	type: "BatchNorm"
	bottom: "Layer5a/Convolution_Inception3x3_reduce_t"
	top: "Layer5a/BatchNorm_Inception3x3_reduce_t"
	param {
		lr_mult: 0
	}
	param {
		lr_mult: 0
	}
	param {
		lr_mult: 0
	}
}

layer {
	name: "Layer5a/ReLU_Inception3x3_reduce_t"
	type: "ReLU"
	bottom: "Layer5a/BatchNorm_Inception3x3_reduce_t"
	top: "Layer5a/ReLU_Inception3x3_reduce_t"
}

layer {
	name: "Layer5a/Convolution_Inception3x3_t"
	type: "Convolution"
	bottom: "Layer5a/ReLU_Inception3x3_reduce_t"
	top: "Layer5a/Convolution_Inception3x3_t"
	convolution_param {
		num_output: 480
		pad: 1
		kernel_size: 3
		stride: 1
		weight_filler {
			type: "xavier"
		}
		bias_filler {
			type: "constant"
			value: 0.2
		}
	}
	param {
		lr_mult: 1
		decay_mult: 1
		name: "Layer5a/Convolution_Inception3x3_w"
	}
	param {
		lr_mult: 2
		decay_mult: 0
		name: "Layer5a/Convolution_Inception3x3_b"
	}
}

layer {
	name: "Layer5a/Convolution_Inception5x5_reduce_t"
	type: "Convolution"
	bottom: "Layer4_Pooling/Pooling_Stride_2_t"
	top: "Layer5a/Convolution_Inception5x5_reduce_t"
	convolution_param {
		num_output: 48
		pad: 0
		kernel_size: 1
		stride: 1
		weight_filler {
			type: "xavier"
		}
		bias_filler {
			type: "constant"
			value: 0.2
		}
	}
	param {
		lr_mult: 0
		decay_mult: 1
		name: "Layer5a/Convolution_Inception5x5_reduce_w"
	}
	param {
		lr_mult: 0
		decay_mult: 0
		name: "Layer5a/Convolution_Inception5x5_reduce_b"
	}
}

layer {
	name: "Layer5a/BatchNorm_Inception5x5_reduce_t"
	type: "BatchNorm"
	bottom: "Layer5a/Convolution_Inception5x5_reduce_t"
	top: "Layer5a/BatchNorm_Inception5x5_reduce_t"
	param {
		lr_mult: 0
	}
	param {
		lr_mult: 0
	}
	param {
		lr_mult: 0
	}
}

layer {
	name: "Layer5a/ReLU_Inception5x5_reduce_t"
	type: "ReLU"
	bottom: "Layer5a/BatchNorm_Inception5x5_reduce_t"
	top: "Layer5a/ReLU_Inception5x5_reduce_t"
}

layer {
	name: "Layer5a/Convolution_Inception5x5_SUB_t"
	type: "Convolution"
	bottom: "Layer5a/ReLU_Inception5x5_reduce_t"
	top: "Layer5a/Convolution_Inception5x5_SUB_t"
	convolution_param {
		num_output: 192
		pad: 0
		kernel_size: 1
		stride: 1
		weight_filler {
			type: "xavier"
		}
		bias_filler {
			type: "constant"
			value: 0.2
		}
	}
	param {
		lr_mult: 0
		decay_mult: 0
		name: "Layer5a/Convolution_Inception5x5_SUB_w"
	}
	param {
		lr_mult: 0
		decay_mult: 0
		name: "Layer5a/Convolution_Inception5x5_SUB_b"
	}
}

layer {
	name: "Layer5a/Pooling_Inception_Pool_t"
	type: "Pooling"
	bottom: "Layer4_Pooling/Pooling_Stride_2_t"
	top: "Layer5a/Pooling_Inception_Pool_t"
	pooling_param {
		pool: MAX
		kernel_size: 3
		stride: 1
		pad: 1
	}
}

layer {
	name: "Layer5a/Convolution_Inception_Pool_1x1_t"
	type: "Convolution"
	bottom: "Layer5a/Pooling_Inception_Pool_t"
	top: "Layer5a/Convolution_Inception_Pool_1x1_t"
	convolution_param {
		num_output: 192
		pad: 0
		kernel_size: 1
		stride: 1
		weight_filler {
			type: "xavier"
		}
		bias_filler {
			type: "constant"
			value: 0.2
		}
	}
	param {
		lr_mult: 1
		decay_mult: 1
		name: "Layer5a/Convolution_Inception_Pool_1x1_w"
	}
	param {
		lr_mult: 2
		decay_mult: 0
		name: "Layer5a/Convolution_Inception_Pool_1x1_b"
	}
}

layer {
	name: "Layer5a/Concat_Output_t"
	type: "Concat"
	bottom: "Layer5a/Convolution_Inception3x3_t"
	bottom: "Layer5a/Convolution_Inception5x5_SUB_t"
	bottom: "Layer5a/Convolution_Inception_Pool_1x1_t"
	top: "Layer5a/Concat_Output_t"
}

layer {
	name: "Layer5a/Eltwise_EltWise_t"
	type: "Eltwise"
	bottom: "Layer5a/Concat_Output_t"
	bottom: "Layer5a/Convolution_ResCeption1x1_t"
	top: "Layer5a/Eltwise_EltWise_t"
	eltwise_param {
		operation: SUM
	}
}

layer {
	name: "Layer5a/BatchNorm_EltWise_t"
	type: "BatchNorm"
	bottom: "Layer5a/Eltwise_EltWise_t"
	top: "Layer5a/BatchNorm_EltWise_t"
	param {
		lr_mult: 0
	}
	param {
		lr_mult: 0
	}
	param {
		lr_mult: 0
	}
}

layer {
	name: "Layer5a/ReLU_EltWise_t"
	type: "ReLU"
	bottom: "Layer5a/BatchNorm_EltWise_t"
	top: "Layer5a/ReLU_EltWise_t"
}

# ================================================================================================
# ======== Layer5b
# ================================================================================================


layer {
	name: "Layer5b/Convolution_ResCeption1x1_t"
	type: "Convolution"
	bottom: "Layer5a/ReLU_EltWise_t"
	top: "Layer5b/Convolution_ResCeption1x1_t"
	convolution_param {
		num_output: 1024
		pad: 0
		kernel_size: 1
		stride: 1
		weight_filler {
			type: "xavier"
		}
		bias_filler {
			type: "constant"
			value: 0.2
		}
	}
	param {
		lr_mult: 1
		decay_mult: 1
		name: "Layer5b/Convolution_ResCeption1x1_w"
	}
	param {
		lr_mult: 2
		decay_mult: 0
		name: "Layer5b/Convolution_ResCeption1x1_b"
	}
}

layer {
	name: "Layer5b/Convolution_Inception3x3_reduce_t"
	type: "Convolution"
	bottom: "Layer5a/ReLU_EltWise_t"
	top: "Layer5b/Convolution_Inception3x3_reduce_t"
	convolution_param {
		num_output: 307
		pad: 0
		kernel_size: 1
		stride: 1
		weight_filler {
			type: "xavier"
		}
		bias_filler {
			type: "constant"
			value: 0.2
		}
	}
	param {
		lr_mult: 1
		decay_mult: 1
		name: "Layer5b/Convolution_Inception3x3_reduce_w"
	}
	param {
		lr_mult: 2
		decay_mult: 0
		name: "Layer5b/Convolution_Inception3x3_reduce_b"
	}
}

layer {
	name: "Layer5b/BatchNorm_Inception3x3_reduce_t"
	type: "BatchNorm"
	bottom: "Layer5b/Convolution_Inception3x3_reduce_t"
	top: "Layer5b/BatchNorm_Inception3x3_reduce_t"
	param {
		lr_mult: 0
	}
	param {
		lr_mult: 0
	}
	param {
		lr_mult: 0
	}
}

layer {
	name: "Layer5b/ReLU_Inception3x3_reduce_t"
	type: "ReLU"
	bottom: "Layer5b/BatchNorm_Inception3x3_reduce_t"
	top: "Layer5b/ReLU_Inception3x3_reduce_t"
}

layer {
	name: "Layer5b/Convolution_Inception3x3_t"
	type: "Convolution"
	bottom: "Layer5b/ReLU_Inception3x3_reduce_t"
	top: "Layer5b/Convolution_Inception3x3_t"
	convolution_param {
		num_output: 614
		pad: 1
		kernel_size: 3
		stride: 1
		weight_filler {
			type: "xavier"
		}
		bias_filler {
			type: "constant"
			value: 0.2
		}
	}
	param {
		lr_mult: 1
		decay_mult: 1
		name: "Layer5b/Convolution_Inception3x3_w"
	}
	param {
		lr_mult: 2
		decay_mult: 0
		name: "Layer5b/Convolution_Inception3x3_b"
	}
}

layer {
	name: "Layer5b/Convolution_Inception5x5_reduce_t"
	type: "Convolution"
	bottom: "Layer5a/ReLU_EltWise_t"
	top: "Layer5b/Convolution_Inception5x5_reduce_t"
	convolution_param {
		num_output: 77
		pad: 0
		kernel_size: 1
		stride: 1
		weight_filler {
			type: "xavier"
		}
		bias_filler {
			type: "constant"
			value: 0.2
		}
	}
	param {
		lr_mult: 0
		decay_mult: 1
		name: "Layer5b/Convolution_Inception5x5_reduce_w"
	}
	param {
		lr_mult: 0
		decay_mult: 0
		name: "Layer5b/Convolution_Inception5x5_reduce_b"
	}
}

layer {
	name: "Layer5b/BatchNorm_Inception5x5_reduce_t"
	type: "BatchNorm"
	bottom: "Layer5b/Convolution_Inception5x5_reduce_t"
	top: "Layer5b/BatchNorm_Inception5x5_reduce_t"
	param {
		lr_mult: 0
	}
	param {
		lr_mult: 0
	}
	param {
		lr_mult: 0
	}
}

layer {
	name: "Layer5b/ReLU_Inception5x5_reduce_t"
	type: "ReLU"
	bottom: "Layer5b/BatchNorm_Inception5x5_reduce_t"
	top: "Layer5b/ReLU_Inception5x5_reduce_t"
}

layer {
	name: "Layer5b/Convolution_Inception5x5_SUB_t"
	type: "Convolution"
	bottom: "Layer5b/ReLU_Inception5x5_reduce_t"
	top: "Layer5b/Convolution_Inception5x5_SUB_t"
	convolution_param {
		num_output: 205
		pad: 0
		kernel_size: 1
		stride: 1
		weight_filler {
			type: "xavier"
		}
		bias_filler {
			type: "constant"
			value: 0.2
		}
	}
	param {
		lr_mult: 0
		decay_mult: 0
		name: "Layer5b/Convolution_Inception5x5_SUB_w"
	}
	param {
		lr_mult: 0
		decay_mult: 0
		name: "Layer5b/Convolution_Inception5x5_SUB_b"
	}
}

layer {
	name: "Layer5b/Pooling_Inception_Pool_t"
	type: "Pooling"
	bottom: "Layer5a/ReLU_EltWise_t"
	top: "Layer5b/Pooling_Inception_Pool_t"
	pooling_param {
		pool: MAX
		kernel_size: 3
		stride: 1
		pad: 1
	}
}

layer {
	name: "Layer5b/Convolution_Inception_Pool_1x1_t"
	type: "Convolution"
	bottom: "Layer5b/Pooling_Inception_Pool_t"
	top: "Layer5b/Convolution_Inception_Pool_1x1_t"
	convolution_param {
		num_output: 205
		pad: 0
		kernel_size: 1
		stride: 1
		weight_filler {
			type: "xavier"
		}
		bias_filler {
			type: "constant"
			value: 0.2
		}
	}
	param {
		lr_mult: 1
		decay_mult: 1
		name: "Layer5b/Convolution_Inception_Pool_1x1_w"
	}
	param {
		lr_mult: 2
		decay_mult: 0
		name: "Layer5b/Convolution_Inception_Pool_1x1_b"
	}
}

layer {
	name: "Layer5b/Concat_Output_t"
	type: "Concat"
	bottom: "Layer5b/Convolution_Inception3x3_t"
	bottom: "Layer5b/Convolution_Inception5x5_SUB_t"
	bottom: "Layer5b/Convolution_Inception_Pool_1x1_t"
	top: "Layer5b/Concat_Output_t"
}

layer {
	name: "Layer5b/Eltwise_EltWise_t"
	type: "Eltwise"
	bottom: "Layer5b/Concat_Output_t"
	bottom: "Layer5b/Convolution_ResCeption1x1_t"
	top: "Layer5b/Eltwise_EltWise_t"
	eltwise_param {
		operation: SUM
	}
}

layer {
	name: "Layer5b/BatchNorm_EltWise_t"
	type: "BatchNorm"
	bottom: "Layer5b/Eltwise_EltWise_t"
	top: "Layer5b/BatchNorm_EltWise_t"
	param {
		lr_mult: 0
	}
	param {
		lr_mult: 0
	}
	param {
		lr_mult: 0
	}
}

layer {
	name: "Layer5b/ReLU_EltWise_t"
	type: "ReLU"
	bottom: "Layer5b/BatchNorm_EltWise_t"
	top: "Layer5b/ReLU_EltWise_t"
}

# ================================================================================================
# ======== Loss
# ================================================================================================


layer {
	name: "Loss/Pooling_Loss_t"
	type: "Pooling"
	bottom: "Layer5b/ReLU_EltWise_t"
	top: "Loss/Pooling_Loss_t"
	pooling_param {
		pool: AVE
		global_pooling : true
		stride: 1
		pad: 0
	}
}

layer {
	name: "Loss/InnerProduct_Loss_fc1_t"
	type: "InnerProduct"
	bottom: "Loss/Pooling_Loss_t"
	top: "Loss/InnerProduct_Loss_fc1_t"
	inner_product_param {
		num_output: 1000
		weight_filler {
			type: "xavier"
		}
		bias_filler {
			type: "constant"
			value: 0.2
		}
	}
	param {
		lr_mult: 1
		decay_mult: 1
		name: "Loss/InnerProduct_Loss_fc1_w"
	}
	param {
		lr_mult: 2
		decay_mult: 0
		name: "Loss/InnerProduct_Loss_fc1_b"
	}
}

# ================================================================================================
# ================================================================================================
# ======== JOIN NETWORK 1, 2 AND 3
# ================================================================================================
# ================================================================================================

layer {
	name: "Joined_Network/Concat"
	type: "Concat"
	bottom: "Loss/InnerProduct_Loss_fc1"
	bottom: "Loss/InnerProduct_Loss_fc1_s"
	bottom: "Loss/InnerProduct_Loss_fc1_t"
	top: "Joined_Network/Concat"
}

layer {
	name: "Joined_Network/InnerProduct_fc1"
	type: "InnerProduct"
	bottom: "Joined_Network/Concat"
	top: "Joined_Network/InnerProduct_fc1"
	inner_product_param {
		num_output: 2048
		weight_filler {
			type: "xavier"
		}
		bias_filler {
			type: "constant"
			value: 0.2
		}
	}
	param {
		lr_mult: 1
		decay_mult: 1
	}
	param {
		lr_mult: 2
		decay_mult: 0
	}
}

layer {
	name: "Joined_Network/BatchNorm_fc1"
	type: "BatchNorm"
	bottom: "Joined_Network/InnerProduct_fc1"
	top: "Joined_Network/BatchNorm_fc1"
	param {
		lr_mult: 0
	}
	param {
		lr_mult: 0
	}
	param {
		lr_mult: 0
	}
}

layer {
	name: "Joined_Network/ReLU_fc1"
	type: "ReLU"
	bottom: "Joined_Network/BatchNorm_fc1"
	top: "Joined_Network/ReLU_fc1"
}


layer {
	name: "Joined_Network/InnerProduct_fc2"
	type: "InnerProduct"
	bottom: "Joined_Network/ReLU_fc1"
	top: "Joined_Network/InnerProduct_fc2"
	inner_product_param {
		num_output: 2048
		weight_filler {
			type: "xavier"
		}
		bias_filler {
			type: "constant"
			value: 0.2
		}
	}
	param {
		lr_mult: 1
		decay_mult: 1
	}
	param {
		lr_mult: 2
		decay_mult: 0
	}
}

layer {
	name: "Joined_Network/BatchNorm_fc2"
	type: "BatchNorm"
	bottom: "Joined_Network/InnerProduct_fc2"
	top: "Joined_Network/BatchNorm_fc2"
	param {
		lr_mult: 0
	}
	param {
		lr_mult: 0
	}
	param {
		lr_mult: 0
	}
}

layer {
	name: "Joined_Network/ReLU_fc2"
	type: "ReLU"
	bottom: "Joined_Network/BatchNorm_fc2"
	top: "Joined_Network/ReLU_fc2"
}

layer {
	name: "Joined_Network/InnerProduct_fc3"
	type: "InnerProduct"
	bottom: "Joined_Network/ReLU_fc2"
	top: "Joined_Network/InnerProduct_fc3"
	inner_product_param {
		num_output: 80
		weight_filler {
			type: "xavier"
		}
		bias_filler {
			type: "constant"
			value: 0.2
		}
	}
	param {
		lr_mult: 1
		decay_mult: 1
	}
	param {
		lr_mult: 2
		decay_mult: 0
	}
}

layer {
	name: "Loss/SoftmaxWithLoss_Loss"
	type: "SoftmaxWithLoss"
	bottom: "Joined_Network/InnerProduct_fc3"
	bottom: "label"
	top: "Loss/SoftmaxWithLoss_Loss"
	loss_weight: 1.0
}

layer {
	name: "Loss/Accuracy_Accuracy"
	type: "Accuracy"
	bottom: "Joined_Network/InnerProduct_fc3"
	bottom: "label"
	top: "Loss/Accuracy_Accuracy"
	include {
		phase: TEST
	}
}

layer {
	name: "Loss/Accuracy_Accuracy_Top5"
	type: "Accuracy"
	bottom: "Joined_Network/InnerProduct_fc3"
	bottom: "label"
	top: "Loss/Accuracy_Accuracy_Top5"
	include {
		phase: TEST
	}
	accuracy_param {
		top_k: 5
	}
}


layer {
      name: "loss/Softmax_plain"
      type: "Softmax"
      bottom: "Joined_Network/InnerProduct_fc3"
      top: "loss/Softmax_plain"
      loss_weight: 0	
}

layer {
      name: "loss/Softmax_plain_silence"
      type: "Silence"
      bottom: "loss/Softmax_plain"
}